Code_darts/Search/operator_pt/ucihar/Conv-128x6-128x64-9-1-1.pt (torch, 24396 bytes, 5 tensors)

weight f4 [64, 6, 9]
0	0xbe005c78	-0.12535274
1	0x3d373bfc	0.04473494
2	0xbd6b2592	-0.057408877
3	0xbc219500	-0.0098621845
4	0xbd335c70	-0.043789327
5	0x3d8e8d28	0.06960517
6	0x3d569c88	0.052395374
7	0xbbe17ca0	-0.0068813115
8	0x3c908cc0	0.01764524
9	0xbd49742c	-0.049183056
10	0xbca0e6d4	-0.019641317
11	0x3c08de30	0.008353755
12	0xbd51e7a2	-0.051246293
13	0x3ce7eb78	0.028310522
14	0xbdf14262	-0.1178024
15	0x3cdbb188	0.026818052
16	0xbd89a0b2	-0.06720103
17	0xbcee5a28	-0.029095724
18	0xbd42683e	-0.047462694
19	0x3e0386d8	0.12844408
20	0x3dc37a72	0.09544839
21	0x3d6a8e64	0.0572647
22	0x3cce05d8	0.02514927
23	0x3daf282a	0.085525826
24	0xbdcbd437	-0.09952586
25	0xbdceb074	-0.100922495
26	0x3d88019c	0.06640932
27	0xbda870c2	-0.08224632
28	0x3d3a4b74	0.045482114
29	0xbcd978a8	-0.026546791
30	0x3db10fea	0.086456135
31	0xbdf2fec2	-0.118649974
32	0x3e05ef34	0.1307953
33	0x3c16ce40	0.009204447
34	0xbdaff671	-0.08591927
35	0x3c3dc560	0.011582702
36	0xbdb39850	-0.08769286
37	0x3d3ce9a0	0.04612124
38	0xbddbe096	-0.10736196
39	0x3dc2f554	0.09519449
40	0x3d0a7f38	0.03381273
41	0x3d3489cc	0.044076726
42	0xbc580180	-0.013183951
43	0x3d452634	0.048132136
44	0xbddfbcd2	-0.109246865
45	0xbb315ec0	-0.0027064532
46	0x3dc8aae8	0.09798223
47	0x3c4d68c0	0.012537181
48	0x3dae2b16	0.08504312
49	0xbb669f40	-0.0035190135
50	0x3df97808	0.12181097
51	0x3d7b098c	0.0612884
52	0xbd228ad0	-0.039683163
53	0x3da1bdb4	0.07897511
54	0x3d8ec9c4	0.069720775
55	0x3dabe74a	0.08393724
56	0xbd49a166	-0.049226187
57	0x3df936b8	0.1216864
58	0x3bb755c0	0.005594939
59	0xbcc9ed0c	-0.024649166
60	0xbddddcae	-0.10833107
61	0xbd9285f9	-0.071544595
62	0xbdf7642a	-0.12079652
63	0x3c032810	0.008005157
64	0xbd5bef7a	-0.05369518
65	0x3dc14240	0.09436464
66	0x3ddf2c44	0.10897115
67	0x3da2f74e	0.07957326
68	0xbe0622a0	-0.13099146
69	0x3de0a088	0.10968119
70	0x3dddbf1e	0.10827468
71	0xbdec29c1	-0.115314014
72	0xbdc1920e	-0.09451686
73	0xbd186bf2	-0.03721232
74	0xbdb2c236	-0.08728449
75	0xbd4ea370	-0.050448835
76	0xbd95ed70	-0.07320678
77	0x3d8e965e	0.06962274
78	0x3d436f54	0.047713593
79	0x3deedd78	0.116633356
80	0x3e08685a	0.13321057
81	0x3dac6046	0.084168
82	0xbd8890d0	-0.06668246
83	0x3d0e55c4	0.03474976
84	0xbe076c0d	-0.13224812
85	0xbd832f38	-0.06405491
86	0x3df2d1fc	0.118564576
87	0x3b6de1c0	0.0036297888
88	0x3c01cc30	0.007922217
89	0x3c908cb8	0.017645225
90	0x3ddfb15c	0.109225005
91	0x3df39770	0.11894119
92	0xbbe57300	-0.0070022345
93	0x3d87a9ce	0.066241845
94	0x3b3fb900	0.0029254556
95	0xbdb0cc86	-0.0863276
96	0x3df84134	0.121218115
97	0x3c9ffe50	0.019530445
98	0x3d83758a	0.06418903
99	0xbd91d2df	-0.071202986
100	0xbccaf600	-0.024775505
101	0xbde9f7ee	-0.11424242
102	0x3dff0014	0.12451187
103	0xbe07c0c7	-0.13257132
104	0xbdfff869	-0.12498552
105	0xbddbcc26	-0.107322976
106	0xbd88603f	-0.066589825
107	0xbde22ae6	-0.110433385
108	0xbc9a8df8	-0.018866524
109	0x3d9a2fc4	0.07528642
110	0xbdb7d3c9	-0.08975942
111	0x3df56e9c	0.11983988
112	0x3de52a5e	0.111897215
113	0xbdc45270	-0.09586036
114	0x3d227e38	0.039671153
115	0xbd26804e	-0.040649705
116	0xbdf98e65	-0.12185363
117	0x3d8ca8e4	0.06868151
118	0x3a3f7400	0.0007303357
119	0xbd9d7ae0	-0.07689452
120	0x3ddf014c	0.10888919
121	0xbd95b3b9	-0.0730967
122	0xbceaad60	-0.028647125
123	0xbdbe2a72	-0.092854396
124	0x3db434dc	0.087991446
125	0xbdf430ff	-0.11923408
126	0x3dfaf49c	0.12253687
127	0xb9f5ba00	-0.00046868622
128	0x3de56554	0.112009674
129	0x3ae9c180	0.0017834157
130	0xbd8f2061	-0.06988598
131	0x3d5acde0	0.053418994
132	0xbdb8d176	-0.090243265
133	0xbd849144	-0.0647302
134	0x3e0a0b82	0.13480952
135	0x3cc597d0	0.024120241
136	0xba625000	-0.0008633137
137	0xbd9c41b3	-0.07629719
138	0xbd331f56	-0.043731056
139	0x3c441e90	0.011970177
140	0x3dc02718	0.093824565
141	0xbd36428c	-0.044497058
142	0x3c59d280	0.013294816
143	0xbd2f0f64	-0.042739287
144	0xbd3d1378	-0.046161145
145	0xbdf3138a	-0.11868961
146	0x3d75bbc8	0.059993535
147	0xbbd0c020	-0.0063705593
148	0x3c416970	0.011804923
149	0x3daa98d8	0.08329934
150	0x3d62aebc	0.05534242
151	0x3db1c9f0	0.08681095
152	0xbde1ba53	-0.11021867
153	0x3d47eb2c	0.04880826
154	0xbddb6832	-0.10713233
155	0x3dccea5c	0.10005638
156	0x3dcd7ac2	0.1003318
157	0xbdfa02e6	-0.12207584
158	0xbd12858c	-0.03577189
159	0x3d58442c	0.05279939
160	0xbdabbc2f	-0.083855025
161	0xbd1430e2	-0.03617943
162	0xbca74258	-0.020417377
163	0x3d8cd3aa	0.06876309
164	0x3da5697e	0.08076762
165	0x3cf1b470	0.029504985
166	0xbcf535a8	-0.029932812
167	0x3d9e28f8	0.07722658
168	0x3cccfd40	0.025023103
169	0x3ddd24d6	0.107980415
170	0x3bb6e5e0	0.0055816025
171	0xbe07e145	-0.13269527
172	0x3ddbad58	0.10726422
173	0x3c5b24b0	0.013375446
174	0xbdfa4333	-0.122198485
175	0x3da8bcc0	0.08239126
176	0x3d8343bc	0.06409404
177	0x3b98f920	0.00466837
178	0x3dfd78b8	0.12376541
179	0x3e03e7f6	0.12881455
180	0x3d5f6fd8	0.054550022
181	0xbd84f338	-0.06491703
182	0xbdf70947	-0.120623164
183	0xbd5c94ce	-0.05385285
184	0xbdd9b744	-0.10630658
185	0x3d4b3ae0	0.049616694
186	0xbc69bdf8	-0.0142664835
187	0x3d56acd4	0.052410915
188	0xbd4fb664	-0.05071105
189	0xbddf896c	-0.10914883
190	0x3b3c8b80	0.0028769672
191	0x3c822d30	0.015890688
192	0x3d7ac650	0.06122428
193	0xbd9295f9	-0.07157511
194	0xbd9cada8	-0.0765031
195	0xbd3fbb26	-0.046809338
196	0xbe07a070	-0.13244796
197	0x3cdb22c0	0.026749969
198	0x3df364b4	0.11884442
199	0xbdc96a94	-0.09834781
200	0x3da7dc16	0.08196275
201	0xbcc9cfb8	-0.02463518
202	0x3d9078ae	0.07054268
203	0x3d9eb6f6	0.07749741
204	0xbdf4ea6b	-0.11958774
205	0xbc9ccf44	-0.0191418
206	0xbd875470	-0.06607902
207	0x3daedffc	0.085388154
208	0xbdca4898	-0.098771274
209	0xbdaa4900	-0.08314705
210	0xbde1e55e	-0.110300764
211	0x3de03a04	0.109485656
212	0x3db28ce0	0.08718276
213	0xbe020a38	-0.1269921
214	0x3b211a80	0.0024582446
215	0x3cfbccb8	0.030737266
216	0x3d91ee76	0.07125561
217	0x3ddb5ce2	0.10711075
218	0x3df10d0c	0.117700666
219	0xbd11e3fc	-0.035617813
220	0xbaea9500	-0.0017897189
221	0xbdf5d624	-0.12003735
222	0x3d785e48	0.06063679
223	0x3d94c95c	0.07264969
224	0xbdadea6e	-0.084919795
225	0x3bd9b360	0.0066436976
226	0xbd2f4c82	-0.042797573
227	0x3defe1c0	0.1171298
228	0xbc125c00	-0.008933067
229	0xbe013c82	-0.12620738
230	0xbe08cbc1	-0.13358976
231	0xbdfe6e0d	-0.12423334
232	0x3dfe91a0	0.124301195
233	0xbddf3383	-0.10898497
234	0xbe0566bc	-0.13027471
235	0x3b2fa540	0.0026801378
236	0xbd431e3c	-0.047636256
237	0xbcac4280	-0.021027803
238	0xbe080e68	-0.13286746
239	0x3d92cbb8	0.071677625
240	0xbd22310c	-0.039597556
241	0x3dc94d44	0.098291904
242	0xbd53e096	-0.051727854
243	0xbe0986d1	-0.13430335
244	0xbd27a946	-0.040932916
245	0x3d732fc8	0.05937174
246	0x3d19cdf8	0.037549943
247	0x3c69fb80	0.014281154
248	0xbdc812a5	-0.09769181
249	0xbcb91fe8	-0.022598222
250	0xbdd015c7	-0.10160404
251	0xbd02ac00	-0.031902313
252	0x3e0a2d7c	0.13493913
253	0x3da78e92	0.0818149
254	0x3cb801a8	0.022461727
255	0xbdca6cd8	-0.098840415

weight f4 [64]
0	0x3f800000	1.0
1	0x3f800000	1.0
2	0x3f800000	1.0
3	0x3f800000	1.0
4	0x3f800000	1.0
5	0x3f800000	1.0
6	0x3f800000	1.0
7	0x3f800000	1.0
8	0x3f800000	1.0
9	0x3f800000	1.0
10	0x3f800000	1.0
11	0x3f800000	1.0
12	0x3f800000	1.0
13	0x3f800000	1.0
14	0x3f800000	1.0
15	0x3f800000	1.0
16	0x3f800000	1.0
17	0x3f800000	1.0
18	0x3f800000	1.0
19	0x3f800000	1.0
20	0x3f800000	1.0
21	0x3f800000	1.0
22	0x3f800000	1.0
23	0x3f800000	1.0
24	0x3f800000	1.0
25	0x3f800000	1.0
26	0x3f800000	1.0
27	0x3f800000	1.0
28	0x3f800000	1.0
29	0x3f800000	1.0
30	0x3f800000	1.0
31	0x3f800000	1.0
32	0x3f800000	1.0
33	0x3f800000	1.0
34	0x3f800000	1.0
35	0x3f800000	1.0
36	0x3f800000	1.0
37	0x3f800000	1.0
38	0x3f800000	1.0
39	0x3f800000	1.0
40	0x3f800000	1.0
41	0x3f800000	1.0
42	0x3f800000	1.0
43	0x3f800000	1.0
44	0x3f800000	1.0
45	0x3f800000	1.0
46	0x3f800000	1.0
47	0x3f800000	1.0
48	0x3f800000	1.0
49	0x3f800000	1.0
50	0x3f800000	1.0
51	0x3f800000	1.0
52	0x3f800000	1.0
53	0x3f800000	1.0
54	0x3f800000	1.0
55	0x3f800000	1.0
56	0x3f800000	1.0
57	0x3f800000	1.0
58	0x3f800000	1.0
59	0x3f800000	1.0
60	0x3f800000	1.0
61	0x3f800000	1.0
62	0x3f800000	1.0
63	0x3f800000	1.0

bias f4 [64]
0	0x00000000	0.0
1	0x00000000	0.0
2	0x00000000	0.0
3	0x00000000	0.0
4	0x00000000	0.0
5	0x00000000	0.0
6	0x00000000	0.0
7	0x00000000	0.0
8	0x00000000	0.0
9	0x00000000	0.0
10	0x00000000	0.0
11	0x00000000	0.0
12	0x00000000	0.0
13	0x00000000	0.0
14	0x00000000	0.0
15	0x00000000	0.0
16	0x00000000	0.0
17	0x00000000	0.0
18	0x00000000	0.0
19	0x00000000	0.0
20	0x00000000	0.0
21	0x00000000	0.0
22	0x00000000	0.0
23	0x00000000	0.0
24	0x00000000	0.0
25	0x00000000	0.0
26	0x00000000	0.0
27	0x00000000	0.0
28	0x00000000	0.0
29	0x00000000	0.0
30	0x00000000	0.0
31	0x00000000	0.0
32	0x00000000	0.0
33	0x00000000	0.0
34	0x00000000	0.0
35	0x00000000	0.0
36	0x00000000	0.0
37	0x00000000	0.0
38	0x00000000	0.0
39	0x00000000	0.0
40	0x00000000	0.0
41	0x00000000	0.0
42	0x00000000	0.0
43	0x00000000	0.0
44	0x00000000	0.0
45	0x00000000	0.0
46	0x00000000	0.0
47	0x00000000	0.0
48	0x00000000	0.0
49	0x00000000	0.0
50	0x00000000	0.0
51	0x00000000	0.0
52	0x00000000	0.0
53	0x00000000	0.0
54	0x00000000	0.0
55	0x00000000	0.0
56	0x00000000	0.0
57	0x00000000	0.0
58	0x00000000	0.0
59	0x00000000	0.0
60	0x00000000	0.0
61	0x00000000	0.0
62	0x00000000	0.0
63	0x00000000	0.0

running_mean f4 [64]
0	0x00000000	0.0
1	0x00000000	0.0
2	0x00000000	0.0
3	0x00000000	0.0
4	0x00000000	0.0
5	0x00000000	0.0
6	0x00000000	0.0
7	0x00000000	0.0
8	0x00000000	0.0
9	0x00000000	0.0
10	0x00000000	0.0
11	0x00000000	0.0
12	0x00000000	0.0
13	0x00000000	0.0
14	0x00000000	0.0
15	0x00000000	0.0
16	0x00000000	0.0
17	0x00000000	0.0
18	0x00000000	0.0
19	0x00000000	0.0
20	0x00000000	0.0
21	0x00000000	0.0
22	0x00000000	0.0
23	0x00000000	0.0
24	0x00000000	0.0
25	0x00000000	0.0
26	0x00000000	0.0
27	0x00000000	0.0
28	0x00000000	0.0
29	0x00000000	0.0
30	0x00000000	0.0
31	0x00000000	0.0
32	0x00000000	0.0
33	0x00000000	0.0
34	0x00000000	0.0
35	0x00000000	0.0
36	0x00000000	0.0
37	0x00000000	0.0
38	0x00000000	0.0
39	0x00000000	0.0
40	0x00000000	0.0
41	0x00000000	0.0
42	0x00000000	0.0
43	0x00000000	0.0
44	0x00000000	0.0
45	0x00000000	0.0
46	0x00000000	0.0
47	0x00000000	0.0
48	0x00000000	0.0
49	0x00000000	0.0
50	0x00000000	0.0
51	0x00000000	0.0
52	0x00000000	0.0
53	0x00000000	0.0
54	0x00000000	0.0
55	0x00000000	0.0
56	0x00000000	0.0
57	0x00000000	0.0
58	0x00000000	0.0
59	0x00000000	0.0
60	0x00000000	0.0
61	0x00000000	0.0
62	0x00000000	0.0
63	0x00000000	0.0

running_var f4 [64]
0	0x3f800000	1.0
1	0x3f800000	1.0
2	0x3f800000	1.0
3	0x3f800000	1.0
4	0x3f800000	1.0
5	0x3f800000	1.0
6	0x3f800000	1.0
7	0x3f800000	1.0
8	0x3f800000	1.0
9	0x3f800000	1.0
10	0x3f800000	1.0
11	0x3f800000	1.0
12	0x3f800000	1.0
13	0x3f800000	1.0
14	0x3f800000	1.0
15	0x3f800000	1.0
16	0x3f800000	1.0
17	0x3f800000	1.0
18	0x3f800000	1.0
19	0x3f800000	1.0
20	0x3f800000	1.0
21	0x3f800000	1.0
22	0x3f800000	1.0
23	0x3f800000	1.0
24	0x3f800000	1.0
25	0x3f800000	1.0
26	0x3f800000	1.0
27	0x3f800000	1.0
28	0x3f800000	1.0
29	0x3f800000	1.0
30	0x3f800000	1.0
31	0x3f800000	1.0
32	0x3f800000	1.0
33	0x3f800000	1.0
34	0x3f800000	1.0
35	0x3f800000	1.0
36	0x3f800000	1.0
37	0x3f800000	1.0
38	0x3f800000	1.0
39	0x3f800000	1.0
40	0x3f800000	1.0
41	0x3f800000	1.0
42	0x3f800000	1.0
43	0x3f800000	1.0
44	0x3f800000	1.0
45	0x3f800000	1.0
46	0x3f800000	1.0
47	0x3f800000	1.0
48	0x3f800000	1.0
49	0x3f800000	1.0
50	0x3f800000	1.0
51	0x3f800000	1.0
52	0x3f800000	1.0
53	0x3f800000	1.0
54	0x3f800000	1.0
55	0x3f800000	1.0
56	0x3f800000	1.0
57	0x3f800000	1.0
58	0x3f800000	1.0
59	0x3f800000	1.0
60	0x3f800000	1.0
61	0x3f800000	1.0
62	0x3f800000	1.0
63	0x3f800000	1.0
