Code_darts/Search/operator_pt/ucihar/DepthConv-43x64-43x64-9-1-1.pt (torch, 158224 bytes, 5 tensors)

weight f4 [64, 64, 9]
0.0031044297 -0.0011929423 0.024864454 -0.009618361 0.029614028 0.03418139 -0.004065618 0.031196836
-0.021539694 -0.041171476 -0.040693007 -0.010939639 0.0217272 -0.010286663 -0.028225344 -0.038030148
0.032258827 -0.0013527572 0.016717833 -0.008303028 -0.032251306 0.040396307 -0.036284626 0.03915148
-0.018334981 0.032324273 0.011763845 -0.01839008 -0.028365716 0.029613663 0.014137883 0.025213648
-0.028172567 0.01810145 -0.003797289 0.03297806 0.01967676 0.002061665 0.018851329 0.018212494
-0.002398774 -0.0053952187 0.015089557 0.024251122 0.00083385035 0.03701822 0.027183551 0.006348077
0.008376796 0.033791106 0.0019592308 0.034446333 0.030450244 -0.03290332 -0.010592204 0.02260663
0.024912577 0.02592099 0.025166247 0.008769315 -0.015768211 -0.021765918 -0.0053160004 0.02535503
-0.009467363 0.020454288 0.005104076 -0.012303865 0.034886498 -0.02762052 0.014349017 0.00830977
-0.029970706 0.023757998 -0.0028271563 -0.026987895 -0.0025199316 0.0045719743 -0.0076607615 -0.0042935424
-0.0312208 0.034684848 -0.028616747 0.00587124 -0.02442507 0.02522045 0.032140154 -0.027111977
-0.026864842 0.015516344 -0.01987274 0.03160641 -0.009279504 -0.030793538 -0.009025648 -0.011268845
-0.037734784 0.024315815 -0.022719294 0.0005612932 -0.024692833 0.006755948 -0.013210213 0.017524332
0.01786631 -0.021344593 -0.008190934 -0.035743516 0.039341483 -0.003981665 -0.006189108 -0.0004661791
0.032264728 -0.020353958 -0.0008170493 -0.01617018 0.028561842 -0.03274697 -0.032599047 -0.027108133
0.01430605 0.024310585 -0.009487804 -0.011124682 -0.00060856715 0.030577961 -0.04131102 -0.03862221
0.009222385 -0.00574781 0.033400174 0.0205044 -0.03979395 0.037869964 0.0020505488 0.017879587
0.007894903 -0.03625798 -0.005187612 0.0049940087 -0.00051659346 -0.015607268 -0.011782449 -0.017479356
-0.015864631 0.0070831664 0.0141053535 0.034568865 0.032177996 0.034083623 -0.022001341 0.01696771
0.021372635 0.0003130734 0.034584407 -0.025526192 0.010274708 0.033086266 -0.02381222 0.016788468
-0.01076515 0.0047398396 -0.040806495 0.01815781 -0.040561166 0.034883212 -0.033060193 -0.0077732317
0.016739402 0.023459185 0.004332762 0.0059694313 -0.002740737 0.0413034 -0.022459632 -0.015371447
-0.018377151 0.0401762 -0.008752961 0.008894693 0.02007411 9.2342496e-05 -0.019583777 0.03336518
-0.0016375929 -0.031054392 0.005919829 0.008150544 0.011596993 -0.010491123 -0.0394478 -0.029046863
-0.026491817 -0.037937447 -0.032994345 -0.04047781 -0.013181483 0.003751982 0.04124522 -0.007543087
0.02252772 0.034687918 0.025465447 0.004220981 0.013412539 0.008703548 -0.015329659 0.012682702
-0.010117214 -0.007751476 -0.008492742 -0.037635185 -0.012520414 -0.03919088 -0.013451681 -0.008797988
0.034892533 -0.020894766 0.021276992 0.02101564 0.0050461255 0.02561434 -0.009797454 -0.03713388
0.023073811 -0.013955161 -0.011731818 0.03212207 0.022429843 -0.037352934 -0.009386793 0.02138387
0.0043247677 -0.010429731 -0.025241952 0.029841866 0.017557476 0.028385226 -0.03076314 0.038194265
-0.020690095 -0.029985022 -0.009524088 0.037561048 -0.029427286 -0.011055922 -0.008265872 0.018734422
-0.0132013075 0.006688278 0.040757556 -0.0038511492 -0.026132032 -0.012845069 0.033220705 0.024487186
00000000: b073 4b3b 805c 9cba 8ab0 cb3c 5496 1dbc
00000010: 1e99 f23c c901 0c3d e038 85bb 8290 ff3c
00000020: 0374 b0bc 6ca3 28bd b6ad 26bd 2c3c 33bc
00000030: 3efd b13c 6489 28bc d638 e7bc 80c5 1bbd
00000040: d521 043d 004f b1ba d6f3 883c 6c09 08bc
00000050: f219 04bd 9976 253d 309f 14bd 4d5d 203d
00000060: 3e33 96bc 7566 043d 24bd 403c cba6 96bc
00000070: 385f e8bc 5a98 f23c 94a2 673c da8c ce3c
00000080: 28ca e6bc 7e49 943c f0db 78bb 0114 073d
00000090: 2831 a13c 001d 073b 1a6e 9a3c 5e32 953c
000000a0: c034 1dbb 60ca b0bb 303a 773c 4aaa c63c
000000b0: c096 5a3a 6ba0 173d 0ab0 de3c 8803 d03b
000000c0: d43e 093c 8b68 0a3d 7066 003b 9917 0d3d
000000d0: ca72 f93c a2c5 06bd ec8a 2dbc 8a31 b93c
000000e0: 7615 cc3c 4258 d43c 7229 ce3c 2cad 0f3c
000000f0: 562c 81bc 704e b2bc d831 aebb 5ab5 cf3c
00000100: 001d 1bbc c08f a73c 1840 a73b 2696 49bc
00000110: 25e5 0e3d 6e44 e2bc 2418 6b3c b425 083c
00000120: 2085 f5bc 22a0 c23c d047 39bb b815 ddbc
00000130: 7025 25bb 80d0 953b 2007 fbbb d8b0 8cbb
00000140: c3c2 ffbc b311 0e3d ab6d eabc 8863 c03b
00000150: 1617 c8bc 1e9b ce3c 65a5 033d f019 debc
00000160: a813 dcbc 4438 7e3c 28cc a2bc b975 013d
00000170: 1009 18bc bb42 fcbc 50e0 13bc f6a0 38bc
00000180: ca8f 1abd f631 c73c d01d babc c023 133a
00000190: a048 cabc 0061 dd3b a66f 58bc 308f 8f3c
000001a0: 5e5c 923c dbda aebc 4433 06bc cb67 12bd
000001b0: 8924 213d a078 82bb 00ce cabb 8069 f4b9
000001c0: 0528 043d 58bd a6bc 402f 56ba 5377 84bc
000001d0: 86fa e93c b021 06bd 9486 05bd e011 debc
000001e0: ec63 6a3c fe26 c73c bc72 1bbc 4c44 36bc
000001f0: 4088 1fba a27e fa3c be35 29bd 5332 1ebd
00000200: 7c19 173c 2058 bcbb 9fce 083d d8f8 a73c
00000210: fbfe 22bd 891d 1b3d 8062 063b 3678 923c
00000220: a059 013c 3f83 14bd d8fc a9bb c8a4 a33b
00000230: 006c 07ba a0b5 7fbc 2c0b 41bc de30 8fbc
00000240: 8bf6 81bc e819 e83b 241a 673c 1598 0d3d
00000250: 13cd 033d 459b 0b3d 283c b4bc deff 8a3c
00000260: aa15 af3c 0024 a439 61a8 0d3d 4e1c d1bc
00000270: 4057 283c 7785 073d d811 c3bc f887 893c
00000280: 5060 30bc a850 9b3b b624 27bd b0bf 943c
00000290: 7723 26bd b3e1 0e3d 206a 07bd 98b6 febb
000002a0: 1221 893c 7a2d c03c d8f9 8d3b 389b c33b
000002b0: f09d 33bb c12d 293d 43fd b7bc 86d8 7bbc
000002c0: ae8b 96bc cd8f 243d 9468 0fbc 0cbb 113c
000002d0: 7672 a43c 00a8 c138 286e a0bc eda9 083d
000002e0: 80a4 d6ba c865 febc 20fb c13b dc89 053c
000002f0: 5001 3e3c f6e2 2bbc 0494 21bd b0f3 edbc
00000300: 5e05 d9bc 4c64 1bbd 1425 07bd 0fcc 25bd
00000310: 26f7 57bc d0e3 753b bff0 283d 002c f7bb
00000320: 0e8c b83c eb14 0e3d ea9c d03c 2850 8a3b
00000330: 44c0 5b3c 5499 0e3c 4029 7bbc 1ccb 4f3c
00000340: acc2 25bc 1800 febb 2425 0bbc 5a27 1abd
00000350: 6c22 4dbc 9e86 20bd 7064 5cbc 7025 10bc
00000360: 79eb 0e3d 802b abbc 164d ae3c fe28 ac3c
00000370: f859 a53b 2ad5 d13c 8085 20bc b219 18bd
00000380: 4a05 bd3c 30a4 64bc d036 40bc 6f92 033d
00000390: cabe b73c 64ff 18bd 10cb 19bc 3a2d af3c
000003a0: c8b6 8d3b 76e1 2abc 36c8 cebc ee76 f43c
000003b0: b2d4 8f3c 2288 e83c fb02 fcbc 9771 1c3d
000003c0: 467e a9bc 26a3 f5bc ec0a 1cbc 9dd9 193d
000003d0: 7e11 f1bc e623 35bc 946d 07bc ee78 993c
000003e0: 4c4a 58bc 5829 db3b 65f1 263d 9063 7cbb
000003f0: d812 d6bc 2074 52bc 6f12 083d 5a99 c83c

weight f4 [64]
1.0 1.0 1.0 1.0 1.0 1.0 1.0 1.0
1.0 1.0 1.0 1.0 1.0 1.0 1.0 1.0
1.0 1.0 1.0 1.0 1.0 1.0 1.0 1.0
1.0 1.0 1.0 1.0 1.0 1.0 1.0 1.0
1.0 1.0 1.0 1.0 1.0 1.0 1.0 1.0
1.0 1.0 1.0 1.0 1.0 1.0 1.0 1.0
1.0 1.0 1.0 1.0 1.0 1.0 1.0 1.0
1.0 1.0 1.0 1.0 1.0 1.0 1.0 1.0
00000000: 0000 803f 0000 803f 0000 803f 0000 803f
00000010: 0000 803f 0000 803f 0000 803f 0000 803f
00000020: 0000 803f 0000 803f 0000 803f 0000 803f
00000030: 0000 803f 0000 803f 0000 803f 0000 803f
00000040: 0000 803f 0000 803f 0000 803f 0000 803f
00000050: 0000 803f 0000 803f 0000 803f 0000 803f
00000060: 0000 803f 0000 803f 0000 803f 0000 803f
00000070: 0000 803f 0000 803f 0000 803f 0000 803f
00000080: 0000 803f 0000 803f 0000 803f 0000 803f
00000090: 0000 803f 0000 803f 0000 803f 0000 803f
000000a0: 0000 803f 0000 803f 0000 803f 0000 803f
000000b0: 0000 803f 0000 803f 0000 803f 0000 803f
000000c0: 0000 803f 0000 803f 0000 803f 0000 803f
000000d0: 0000 803f 0000 803f 0000 803f 0000 803f
000000e0: 0000 803f 0000 803f 0000 803f 0000 803f
000000f0: 0000 803f 0000 803f 0000 803f 0000 803f

bias f4 [64]
0.0 0.0 0.0 0.0 0.0 0.0 0.0 0.0
0.0 0.0 0.0 0.0 0.0 0.0 0.0 0.0
0.0 0.0 0.0 0.0 0.0 0.0 0.0 0.0
0.0 0.0 0.0 0.0 0.0 0.0 0.0 0.0
0.0 0.0 0.0 0.0 0.0 0.0 0.0 0.0
0.0 0.0 0.0 0.0 0.0 0.0 0.0 0.0
0.0 0.0 0.0 0.0 0.0 0.0 0.0 0.0
0.0 0.0 0.0 0.0 0.0 0.0 0.0 0.0
00000000: 0000 0000 0000 0000 0000 0000 0000 0000
00000010: 0000 0000 0000 0000 0000 0000 0000 0000
00000020: 0000 0000 0000 0000 0000 0000 0000 0000
00000030: 0000 0000 0000 0000 0000 0000 0000 0000
00000040: 0000 0000 0000 0000 0000 0000 0000 0000
00000050: 0000 0000 0000 0000 0000 0000 0000 0000
00000060: 0000 0000 0000 0000 0000 0000 0000 0000
00000070: 0000 0000 0000 0000 0000 0000 0000 0000
00000080: 0000 0000 0000 0000 0000 0000 0000 0000
00000090: 0000 0000 0000 0000 0000 0000 0000 0000
000000a0: 0000 0000 0000 0000 0000 0000 0000 0000
000000b0: 0000 0000 0000 0000 0000 0000 0000 0000
000000c0: 0000 0000 0000 0000 0000 0000 0000 0000
000000d0: 0000 0000 0000 0000 0000 0000 0000 0000
000000e0: 0000 0000 0000 0000 0000 0000 0000 0000
000000f0: 0000 0000 0000 0000 0000 0000 0000 0000

running_mean f4 [64]
0.0 0.0 0.0 0.0 0.0 0.0 0.0 0.0
0.0 0.0 0.0 0.0 0.0 0.0 0.0 0.0
0.0 0.0 0.0 0.0 0.0 0.0 0.0 0.0
0.0 0.0 0.0 0.0 0.0 0.0 0.0 0.0
0.0 0.0 0.0 0.0 0.0 0.0 0.0 0.0
0.0 0.0 0.0 0.0 0.0 0.0 0.0 0.0
0.0 0.0 0.0 0.0 0.0 0.0 0.0 0.0
0.0 0.0 0.0 0.0 0.0 0.0 0.0 0.0
00000000: 0000 0000 0000 0000 0000 0000 0000 0000
00000010: 0000 0000 0000 0000 0000 0000 0000 0000
00000020: 0000 0000 0000 0000 0000 0000 0000 0000
00000030: 0000 0000 0000 0000 0000 0000 0000 0000
00000040: 0000 0000 0000 0000 0000 0000 0000 0000
00000050: 0000 0000 0000 0000 0000 0000 0000 0000
00000060: 0000 0000 0000 0000 0000 0000 0000 0000
00000070: 0000 0000 0000 0000 0000 0000 0000 0000
00000080: 0000 0000 0000 0000 0000 0000 0000 0000
00000090: 0000 0000 0000 0000 0000 0000 0000 0000
000000a0: 0000 0000 0000 0000 0000 0000 0000 0000
000000b0: 0000 0000 0000 0000 0000 0000 0000 0000
000000c0: 0000 0000 0000 0000 0000 0000 0000 0000
000000d0: 0000 0000 0000 0000 0000 0000 0000 0000
000000e0: 0000 0000 0000 0000 0000 0000 0000 0000
000000f0: 0000 0000 0000 0000 0000 0000 0000 0000

running_var f4 [64]
1.0 1.0 1.0 1.0 1.0 1.0 1.0 1.0
1.0 1.0 1.0 1.0 1.0 1.0 1.0 1.0
1.0 1.0 1.0 1.0 1.0 1.0 1.0 1.0
1.0 1.0 1.0 1.0 1.0 1.0 1.0 1.0
1.0 1.0 1.0 1.0 1.0 1.0 1.0 1.0
1.0 1.0 1.0 1.0 1.0 1.0 1.0 1.0
1.0 1.0 1.0 1.0 1.0 1.0 1.0 1.0
1.0 1.0 1.0 1.0 1.0 1.0 1.0 1.0
00000000: 0000 803f 0000 803f 0000 803f 0000 803f
00000010: 0000 803f 0000 803f 0000 803f 0000 803f
00000020: 0000 803f 0000 803f 0000 803f 0000 803f
00000030: 0000 803f 0000 803f 0000 803f 0000 803f
00000040: 0000 803f 0000 803f 0000 803f 0000 803f
00000050: 0000 803f 0000 803f 0000 803f 0000 803f
00000060: 0000 803f 0000 803f 0000 803f 0000 803f
00000070: 0000 803f 0000 803f 0000 803f 0000 803f
00000080: 0000 803f 0000 803f 0000 803f 0000 803f
00000090: 0000 803f 0000 803f 0000 803f 0000 803f
000000a0: 0000 803f 0000 803f 0000 803f 0000 803f
000000b0: 0000 803f 0000 803f 0000 803f 0000 803f
000000c0: 0000 803f 0000 803f 0000 803f 0000 803f
000000d0: 0000 803f 0000 803f 0000 803f 0000 803f
000000e0: 0000 803f 0000 803f 0000 803f 0000 803f
000000f0: 0000 803f 0000 803f 0000 803f 0000 803f
