Code_darts/Search/operator_pt/ucihar/DilatedConv-43x64-43x64-5-1-2.pt (torch, 92722 bytes, 5 tensors)

weight f4 [64, 64, 5]
000000 d4 d3 a8 3c 4a 0e 06 bd d4 c1 93 bc 1c 27 0b 3d
       0.02060882 -0.03272847 -0.01803676 0.033972844
000010 00 d0 ae bb 10 c3 fa bb 5e 7e 5e bd 00 d6 d2 b9
       -0.005334854 -0.007652648 -0.054319732 -0.00040213764
000020 32 d2 39 3d 94 d8 b5 3c 98 2e c8 bc d3 c3 ce bc
       0.045366473 0.022197999 -0.02443628 -0.02523986
000030 26 cf 35 3d 4c 18 ed 3c 00 85 76 bc 6c 2c 59 bc
       0.044387005 0.02894225 -0.015046358 -0.01325522
000040 d6 8c 3e bd f4 d2 9b 3c ce fa fc bc 5e 1f 35 3d
       -0.04652103 0.019021489 -0.030881312 0.044219367
000050 00 d0 94 b7 ec fc 94 bc 78 19 2d 3d d8 08 36 3c
       -1.7739832e-05 -0.018187009 0.042260617 0.011110507
000060 38 b6 ae bb 58 65 0d 3c 44 e0 12 bc d4 b1 e4 3c
       -0.0053317808 0.008630119 -0.008964602 0.027916826
000070 22 4a 8e bc a6 d4 53 3d c0 47 48 3d 40 11 8e ba
       -0.017369334 0.05171647 0.04889655 -0.0010838881
000080 c2 35 14 3d c4 66 da 3c 9e 63 3c bd 60 b7 71 bb
       0.03618408 0.02666033 -0.04599344 -0.0036882982
000090 a4 bc 19 bc 9c bb b0 3c 34 5d 0c 3d ef 94 63 bd
       -0.009383354 0.021573834 0.034268573 -0.055561956
0000a0 c0 0a 01 3a 80 0c 50 ba b2 bc 60 3d aa d3 5d 3d
       0.00049225613 -0.0007936433 0.054867454 0.054156937
0000b0 e8 65 8e 3c 40 1a d5 bb de f9 16 3d 64 73 c4 3c
       0.017382577 -0.0065033734 0.036859386 0.023980804
0000c0 6e 45 be bc 28 ea a7 bb 7c 3d 45 bc e6 78 58 bd
       -0.023226466 -0.005124349 -0.012038585 -0.052849673
0000d0 4c c6 2b 3d 12 b8 33 3d d4 06 11 3d a0 d8 6a 3b
       0.041937158 0.043876715 0.035406902 0.0035834685
0000e0 0b 91 e1 bc 20 ff 60 bb e8 90 9a 3c 08 ba ff bb
       -0.027534982 -0.0034331754 0.018867925 -0.007804159
0000f0 d3 55 2c bd ec 7c 11 bd b2 83 b2 bc 36 45 4c bd
       -0.042074036 -0.035519525 -0.021791313 -0.049870692
000100 b2 55 18 bd 5c 29 22 bc 48 91 49 3d a4 2d a6 3c
       -0.0371911 -0.009897556 0.049210817 0.020285435
000110 f3 63 1f bd a8 57 03 3c 55 91 f5 bc d0 5c 4d 3c
       -0.03891368 0.008016504 -0.029976526 0.012534335
000120 38 66 a3 3c b0 2e 59 3c d8 b2 59 3d 38 6a 5d 3c
       0.019946203 0.01325576 0.053149074 0.013514094
000130 84 9c 52 3d 6c b6 62 3d 36 3d 10 3d af 53 4d bd
       0.051418796 0.055349752 0.035214625 -0.050128635
000140 10 0b ea bc b8 f9 89 bb 0c 3e da 3c 7a 44 23 bd
       -0.028569728 -0.004210677 0.026640914 -0.039860226
000150 0e 82 07 3d 2a ad ba bc 92 5e 12 3d 68 0a 9f 3c
       0.033083014 -0.02278765 0.03573472 0.019414142
000160 86 3b 52 3d 5a a1 24 bd 4f ce 3d bd da 91 28 3d
       0.051326297 -0.04019294 -0.04633933 0.04115472
000170 d8 23 8f 3c 00 82 d2 3c 38 3d 1d 3d 80 74 0f 3d
       0.017473146 0.025696754 0.03838846 0.035023212
000180 80 b3 9e bb 70 f0 ed 3b 30 f0 59 3c 1b 24 f8 bc
       -0.0048431754 0.0072613284 0.013301894 -0.030290654
000190 70 12 95 3c 6e 6e a6 bc c8 e4 c1 3c 3c 3c a6 3c
       0.018197268 -0.020316329 0.023668662 0.020292394
0001a0 ae 41 2a bd 18 62 e4 3c 02 c1 3b bd 30 5f 18 3d
       -0.041566543 0.027878806 -0.045838363 0.037200153
0001b0 0d 18 24 bd 38 b0 84 3c 28 e3 b6 3c d8 da 5a 3c
       -0.040062 0.016197309 0.022325113 0.0133578405
0001c0 dc 13 71 bc 20 58 f6 3c 12 df c2 bc b0 bd 56 3c
       -0.0147142075 0.030071318 -0.023788009 0.013106748
0001d0 4d e4 59 bd 0a 00 5b bd 0e 18 64 3d f8 72 40 3d
       -0.05319624 -0.053466834 0.055687003 0.046984643
0001e0 70 79 2f bc 7c 33 75 bc 00 fc d0 3c d0 1b a6 3b
       -0.010710105 -0.014965888 0.025510788 0.0050692335
0001f0 c0 ea 82 bb 9a a2 37 3d 70 de 0e 3c fb f6 d3 bc
       -0.0039952695 0.044832803 0.008720025 -0.025874605
000200 c1 2b 3a bd 90 35 2a 3b 00 ff 77 3b a0 23 05 bc
       -0.045451883 0.0025971867 0.00378412 -0.008126169
000210 30 e8 0e 3b 98 49 2a bc e0 af 16 3c c0 4f ac ba
       0.0021805875 -0.010393523 0.009197205 -0.0013146326
000220 5a ae a7 bc b0 6c f3 3c 06 db 18 bd f8 7d a2 bb
       -0.02046888 0.029714912 -0.037318252 -0.0049588643
000230 23 b4 da bc 2e c0 03 bd 18 78 11 3d c0 d4 13 3b
       -0.026697224 -0.0321657 0.03551492 0.0022557229
000240 20 e6 2e bb 76 31 c7 bc de c2 38 bd 62 dc 60 bd
       -0.0026687458 -0.024315577 -0.045107715 -0.054897673
000250 8a d4 3b 3d 00 b7 ec ba 7a 60 d9 bc a4 e6 13 bd
       0.04585699 -0.0018059909 -0.026535261 -0.036108628
000260 20 a2 e6 3b a8 d4 25 3d 1c b5 5d bc 6c b7 ca 3c
       0.00703837 0.040486008 -0.013531949 0.024745665
000270 a8 c7 91 bc f0 a4 70 bc 80 dd 00 3b 4c 8a 32 bd
       -0.017795399 -0.014687762 0.0019663274 -0.04358892
000280 0d 27 2a bd b4 04 c5 bc ac 10 f8 3c 3c 78 2f bc
       -0.041541148 -0.024050094 0.030281387 -0.010709818
000290 66 df 3a 3d af a5 37 bd 70 15 2d 3c 84 c0 b9 3c
       0.045623206 -0.044835743 0.010564193 0.022674806
0002a0 a4 84 95 3c 20 30 b0 3a dd d7 2b bd b0 a1 2b 3d
       0.018251725 0.0013442077 -0.04195391 0.041902244
0002b0 fe d0 b0 bc f8 88 4b bc 84 c8 b4 bc 0d 3b 17 bd
       -0.02158403 -0.012422793 -0.02206827 -0.03692155
0002c0 5c 51 05 bc 6c 73 8d 3c 1a 8e 3a bd 00 2a b1 b8
       -0.008137073 0.017266952 -0.045545675 -8.447841e-05
0002d0 d8 7b 29 3d 0c 32 c1 3c 64 92 26 3d 1e 23 88 bc
       0.041377872 0.023583435 0.040666953 -0.016618308
0002e0 1a 8c 21 3d d8 83 3c 3c c0 f2 0d 3a c8 24 2e 3c
       0.039440252 0.011506043 0.0005414896 0.0106288865
0002f0 66 33 a6 bc 28 91 28 bd 3a d0 b2 bc 4e 65 1f bd
       -0.02028818 -0.041154057 -0.021827806 -0.03891497
000300 a6 b1 aa bc 36 4c 06 3d 1e 4f 13 bd b4 b2 f7 3c
       -0.020836663 0.032787524 -0.035964124 0.03023658
000310 b2 9e 5f bd 40 0f bb 3c f0 cb 35 bb 12 09 06 bd
       -0.054594703 0.02283442 -0.0027739964 -0.032723494
000320 50 72 89 bb 1d 8d 41 bd 08 c9 c2 3b 48 43 a1 bc
       -0.0041945353 -0.047253717 0.005944375 -0.019685403
000330 b2 e0 45 3d 56 a0 57 3d 78 4e b5 bb 70 a5 6b 3c
       0.04830999 0.052643143 -0.005533036 0.014382705
000340 9c 26 13 3d 80 16 1d bd e8 ed db 3c 58 e1 c7 bc
       0.035925493 -0.038351536 0.026846841 -0.024399444
000350 6c 77 40 3d a8 98 9e 3c a8 76 a1 3c d0 05 e7 3c
       0.04698889 0.019359902 0.0197099 0.028201014
000360 d2 26 25 bd 7c b9 d0 bc 80 ba 12 3d b2 2f 43 3d
       -0.040320225 -0.02547907 0.03582239 0.047652908
000370 38 fa bb 3c a0 0d dc 3b 9e 42 16 3d a0 48 12 3d
       0.022946462 0.0067154914 0.036684625 0.03571379
000380 f8 11 9e 3c 2a bf 16 3d 0c 5e 55 3d 40 b1 94 3b
       0.019295678 0.036803402 0.052091643 0.0045377314
000390 30 24 2b bb 26 30 21 bd 28 07 d4 3c 86 d0 d3 bc
       -0.0026114099 -0.03935256 0.025882319 -0.025856268
0003a0 b8 f8 5b bc 90 a8 e7 3b 82 27 37 bd ee 4d 20 3d
       -0.013425998 0.0070696548 -0.044715412 0.03913682
0003b0 13 ba ff bc ac a7 44 bd 30 05 ff 3b a8 9f 1c 3d
       -0.031216657 -0.048011467 0.007782601 0.038238198
0003c0 f2 8a 0e 3d 8c ae de 3c a4 b1 f0 3c 3a 6f 50 bd
       0.034800477 0.02718284 0.02938158 -0.050887324
0003d0 08 5f 44 bc 27 f8 58 bd be d3 04 3d c8 b9 02 3c
       -0.011985548 -0.05297103 0.032428496 0.007978864
0003e0 10 eb 53 bb e8 77 89 3b 3c 2a 3e bd 05 b1 46 bd
       -0.0032336153 0.004195202 -0.046426997 -0.048508663
0003f0 d4 98 73 bc ea 05 58 3d 94 d5 1a 3d 54 4f 02 3d
       -0.01486798 0.052740015 0.03780134 0.031813934

weight f4 [64]
000000 00 00 80 3f 00 00 80 3f 00 00 80 3f 00 00 80 3f
       1.0 1.0 1.0 1.0
000010 00 00 80 3f 00 00 80 3f 00 00 80 3f 00 00 80 3f
       1.0 1.0 1.0 1.0
000020 00 00 80 3f 00 00 80 3f 00 00 80 3f 00 00 80 3f
       1.0 1.0 1.0 1.0
000030 00 00 80 3f 00 00 80 3f 00 00 80 3f 00 00 80 3f
       1.0 1.0 1.0 1.0
000040 00 00 80 3f 00 00 80 3f 00 00 80 3f 00 00 80 3f
       1.0 1.0 1.0 1.0
000050 00 00 80 3f 00 00 80 3f 00 00 80 3f 00 00 80 3f
       1.0 1.0 1.0 1.0
000060 00 00 80 3f 00 00 80 3f 00 00 80 3f 00 00 80 3f
       1.0 1.0 1.0 1.0
000070 00 00 80 3f 00 00 80 3f 00 00 80 3f 00 00 80 3f
       1.0 1.0 1.0 1.0
000080 00 00 80 3f 00 00 80 3f 00 00 80 3f 00 00 80 3f
       1.0 1.0 1.0 1.0
000090 00 00 80 3f 00 00 80 3f 00 00 80 3f 00 00 80 3f
       1.0 1.0 1.0 1.0
0000a0 00 00 80 3f 00 00 80 3f 00 00 80 3f 00 00 80 3f
       1.0 1.0 1.0 1.0
0000b0 00 00 80 3f 00 00 80 3f 00 00 80 3f 00 00 80 3f
       1.0 1.0 1.0 1.0
0000c0 00 00 80 3f 00 00 80 3f 00 00 80 3f 00 00 80 3f
       1.0 1.0 1.0 1.0
0000d0 00 00 80 3f 00 00 80 3f 00 00 80 3f 00 00 80 3f
       1.0 1.0 1.0 1.0
0000e0 00 00 80 3f 00 00 80 3f 00 00 80 3f 00 00 80 3f
       1.0 1.0 1.0 1.0
0000f0 00 00 80 3f 00 00 80 3f 00 00 80 3f 00 00 80 3f
       1.0 1.0 1.0 1.0

bias f4 [64]
000000 00 00 00 00 00 00 00 00 00 00 00 00 00 00 00 00
       0.0 0.0 0.0 0.0
000010 00 00 00 00 00 00 00 00 00 00 00 00 00 00 00 00
       0.0 0.0 0.0 0.0
000020 00 00 00 00 00 00 00 00 00 00 00 00 00 00 00 00
       0.0 0.0 0.0 0.0
000030 00 00 00 00 00 00 00 00 00 00 00 00 00 00 00 00
       0.0 0.0 0.0 0.0
000040 00 00 00 00 00 00 00 00 00 00 00 00 00 00 00 00
       0.0 0.0 0.0 0.0
000050 00 00 00 00 00 00 00 00 00 00 00 00 00 00 00 00
       0.0 0.0 0.0 0.0
000060 00 00 00 00 00 00 00 00 00 00 00 00 00 00 00 00
       0.0 0.0 0.0 0.0
000070 00 00 00 00 00 00 00 00 00 00 00 00 00 00 00 00
       0.0 0.0 0.0 0.0
000080 00 00 00 00 00 00 00 00 00 00 00 00 00 00 00 00
       0.0 0.0 0.0 0.0
000090 00 00 00 00 00 00 00 00 00 00 00 00 00 00 00 00
       0.0 0.0 0.0 0.0
0000a0 00 00 00 00 00 00 00 00 00 00 00 00 00 00 00 00
       0.0 0.0 0.0 0.0
0000b0 00 00 00 00 00 00 00 00 00 00 00 00 00 00 00 00
       0.0 0.0 0.0 0.0
0000c0 00 00 00 00 00 00 00 00 00 00 00 00 00 00 00 00
       0.0 0.0 0.0 0.0
0000d0 00 00 00 00 00 00 00 00 00 00 00 00 00 00 00 00
       0.0 0.0 0.0 0.0
0000e0 00 00 00 00 00 00 00 00 00 00 00 00 00 00 00 00
       0.0 0.0 0.0 0.0
0000f0 00 00 00 00 00 00 00 00 00 00 00 00 00 00 00 00
       0.0 0.0 0.0 0.0

running_mean f4 [64]
000000 00 00 00 00 00 00 00 00 00 00 00 00 00 00 00 00
       0.0 0.0 0.0 0.0
000010 00 00 00 00 00 00 00 00 00 00 00 00 00 00 00 00
       0.0 0.0 0.0 0.0
000020 00 00 00 00 00 00 00 00 00 00 00 00 00 00 00 00
       0.0 0.0 0.0 0.0
000030 00 00 00 00 00 00 00 00 00 00 00 00 00 00 00 00
       0.0 0.0 0.0 0.0
000040 00 00 00 00 00 00 00 00 00 00 00 00 00 00 00 00
       0.0 0.0 0.0 0.0
000050 00 00 00 00 00 00 00 00 00 00 00 00 00 00 00 00
       0.0 0.0 0.0 0.0
000060 00 00 00 00 00 00 00 00 00 00 00 00 00 00 00 00
       0.0 0.0 0.0 0.0
000070 00 00 00 00 00 00 00 00 00 00 00 00 00 00 00 00
       0.0 0.0 0.0 0.0
000080 00 00 00 00 00 00 00 00 00 00 00 00 00 00 00 00
       0.0 0.0 0.0 0.0
000090 00 00 00 00 00 00 00 00 00 00 00 00 00 00 00 00
       0.0 0.0 0.0 0.0
0000a0 00 00 00 00 00 00 00 00 00 00 00 00 00 00 00 00
       0.0 0.0 0.0 0.0
0000b0 00 00 00 00 00 00 00 00 00 00 00 00 00 00 00 00
       0.0 0.0 0.0 0.0
0000c0 00 00 00 00 00 00 00 00 00 00 00 00 00 00 00 00
       0.0 0.0 0.0 0.0
0000d0 00 00 00 00 00 00 00 00 00 00 00 00 00 00 00 00
       0.0 0.0 0.0 0.0
0000e0 00 00 00 00 00 00 00 00 00 00 00 00 00 00 00 00
       0.0 0.0 0.0 0.0
0000f0 00 00 00 00 00 00 00 00 00 00 00 00 00 00 00 00
       0.0 0.0 0.0 0.0

running_var f4 [64]
000000 00 00 80 3f 00 00 80 3f 00 00 80 3f 00 00 80 3f
       1.0 1.0 1.0 1.0
000010 00 00 80 3f 00 00 80 3f 00 00 80 3f 00 00 80 3f
       1.0 1.0 1.0 1.0
000020 00 00 80 3f 00 00 80 3f 00 00 80 3f 00 00 80 3f
       1.0 1.0 1.0 1.0
000030 00 00 80 3f 00 00 80 3f 00 00 80 3f 00 00 80 3f
       1.0 1.0 1.0 1.0
000040 00 00 80 3f 00 00 80 3f 00 00 80 3f 00 00 80 3f
       1.0 1.0 1.0 1.0
000050 00 00 80 3f 00 00 80 3f 00 00 80 3f 00 00 80 3f
       1.0 1.0 1.0 1.0
000060 00 00 80 3f 00 00 80 3f 00 00 80 3f 00 00 80 3f
       1.0 1.0 1.0 1.0
000070 00 00 80 3f 00 00 80 3f 00 00 80 3f 00 00 80 3f
       1.0 1.0 1.0 1.0
000080 00 00 80 3f 00 00 80 3f 00 00 80 3f 00 00 80 3f
       1.0 1.0 1.0 1.0
000090 00 00 80 3f 00 00 80 3f 00 00 80 3f 00 00 80 3f
       1.0 1.0 1.0 1.0
0000a0 00 00 80 3f 00 00 80 3f 00 00 80 3f 00 00 80 3f
       1.0 1.0 1.0 1.0
0000b0 00 00 80 3f 00 00 80 3f 00 00 80 3f 00 00 80 3f
       1.0 1.0 1.0 1.0
0000c0 00 00 80 3f 00 00 80 3f 00 00 80 3f 00 00 80 3f
       1.0 1.0 1.0 1.0
0000d0 00 00 80 3f 00 00 80 3f 00 00 80 3f 00 00 80 3f
       1.0 1.0 1.0 1.0
0000e0 00 00 80 3f 00 00 80 3f 00 00 80 3f 00 00 80 3f
       1.0 1.0 1.0 1.0
0000f0 00 00 80 3f 00 00 80 3f 00 00 80 3f 00 00 80 3f
       1.0 1.0 1.0 1.0
