Code_darts/Search/operator_pt/ucihar/DilatedConv-15x64-15x64-9-1-2.pt (torch, 158258 bytes, 5 tensors)

weight f4 [64, 64, 9]
00000000: cd46 193d a2bc 12bd 9e0c 20bd 524c bd3c
00000010: d6b5 e9bc 8b95 133d 59aa 143d b121 1f3d
00000020: 2ea7 abbc 302a 8e3c ae06 80bc 20ab 7a3c
00000030: fca0 02bd 4017 f93b 0855 f1bb f8fe 82bb
00000040: ebdc 16bd 2825 aabc a0e1 f23b 01f1 0c3d
00000050: d0ac 683c 8815 9d3b d138 123d c2de eb3c
00000060: baab dd3c df81 1cbd ba1c 21bd f059 d7bc
00000070: 8bef 83bc 0834 b9bb 2a37 f03c 481c fd3b
00000080: 5379 febc 4ce2 0d3c 80e6 e1b9 704d 883c
00000090: 16ed c03c 9faa 133d 26b2 29bd a604 e03c
000000a0: 6049 8abc 6e82 b13c e6d5 74bc 703e 623c
000000b0: 77ce 13bd 403e f1bb 62f6 20bd 0098 a038
000000c0: 6f1f 183d 63da c4bc 5870 96bc 00d8 45ba
000000d0: f027 70bb 9371 98bc 4033 babc 8c75 13bd
000000e0: 4a55 973c 5094 c5bc 36c5 8e3c 62a1 953c
000000f0: 3e20 f6bc fa98 02bd 749b 2d3c c645 b6bc
00000100: 4022 04bd 2352 c5bc 1e26 8c3c 628e 0dbd
00000110: c686 bdbc 00f4 afba 0121 163d 25d2 183d
00000120: 5e67 e4bc c92f 1f3d 8089 6ebb 9083 8bbc
00000130: 8893 b63b 80cc 0dbb b0af 963c caa8 ac3c
00000140: 5867 90bb bd15 043d 9ebe a2bc 4221 903c
00000150: f89d c8bc dcf2 7e3c 203f d3ba 4475 063c
00000160: 501d 4d3b 5012 6dbb 60aa dcbb b66e 0fbd
00000170: 97be 0c3d 6730 263d 9ebd 91bc 0cef 193c
00000180: abe8 1abd 7b3e edbc 9859 853c b892 b3bc
00000190: 802e 403c a975 1f3d a0c1 a3bb 560a 53bc
000001a0: ef94 03bd cc94 6e3c f2ee 913c cbfc 04bd
000001b0: 3edd bb3c 8915 043d 4820 b9bc 98b7 b73b
000001c0: 96bc d93c 58f9 84bc 0048 e838 b0ec 06bd
000001d0: 00a4 d43b 5d2e 133d 50af 9fbc 3025 52bb
000001e0: a3b1 d4bc 96e8 ce3c b372 293d ba38 833c
000001f0: 48bc 9d3c ec30 113c 0e7b d6bc f5bf 103d
00000200: 4abb 04bd 0006 f73b f817 85bc 46e1 09bd
00000210: 7234 e33c 80f2 0ebb e09e 8eba a0f3 a8bc
00000220: 405c a43c 121f f53c 4340 093d a071 b1ba
00000230: 1ee6 8abc c78b 1b3d f267 af3c 5a58 f33c
00000240: 50a0 0ebc db37 0bbd 1e4d e4bc 0c1f 70bc
00000250: c0c5 a0bb a944 133d 040d 0cbd e8f4 ea3b
00000260: fa96 c23c 709b 013c 90fe 4bbb 3c06 38bc
00000270: f076 03bc 806c cebc 0040 8dbb e086 e53a
00000280: 6521 023d edfc 293d 5660 c83c 300c 1cbc
00000290: 3eb8 cc3c cfac 0dbd b857 d5bb 50ac 533c
000002a0: dc81 7f3c 4c39 0ebc 927e d93c 9429 0c3c
000002b0: c71f 1c3d e88b eebc a798 0cbd 6397 e0bc
000002c0: 436c 2a3d 7007 69bc a02d ddbc bad0 de3c
000002d0: ee96 11bd 1ee8 fe3c c8cc a0bb d038 92bc
000002e0: cba6 283d 03de c7bc 142a 0cbd dc88 6e3c
000002f0: e650 09bd 2fef 053d d41d 1bbc 0a6f 23bd
00000300: 0618 b93c f651 9abc 5710 003d a07f 50bc
00000310: 16d7 fcbc cd9a 243d 0080 31ba 7e09 87bc
00000320: df09 04bd b052 783c 907f e2bc ad5d 123d
00000330: c630 e53c aeb2 af3c ec1e 02bc 0e23 bc3c
00000340: a82f dcbc d22c da3c f066 13bc 0aeb d83c
00000350: 349c 543c c2fe c53c a6d6 7ebc 6c81 3a3c
00000360: 6ceb 4ebc ace1 473c 427b 9f3c db91 043d
00000370: fd3c 253d bcef 11bc bc75 603c d873 90bb
00000380: 62ee d33c 6ec1 c93c 13c5 07bd 400d 593c
00000390: 025b c13c da3b d13c 76f9 f03c 90bf 5dbb
000003a0: 03d7 f9bc d2e6 e63c 54ac 633c 91d5 063d
000003b0: bc56 13bc 407c e03b 1d32 233d ea31 26bd
000003c0: e017 6c3c 74d4 22bd 058b 283d 00c2 dcba
000003d0: a8fe 07bd 5084 f9bc 8031 27bd c6d0 c43c
000003e0: 8c27 0bbc 5adc e93c f020 013b 7009 4ebc
000003f0: 44f0 423c 000c aa3c 80cc a4b9 309e 5b3b
0.037421037 -0.035824426 -0.039074533 0.023107681 -0.028529089 0.036031287 0.03629527 0.03885049
-0.02095374 0.017354101 -0.015628185 0.015299588 -0.031891808 0.0076016486 -0.007364873 -0.00399768
-0.036831778 -0.02076967 0.0074121505 0.034409527 0.014201358 0.0047938265 0.035698716 0.028792743
0.027059425 -0.038209792 -0.039334036 -0.026288003 -0.016105434 -0.0056519546 0.02932318 0.0077243187
-0.031063711 0.00865991 -0.0004308708 0.016638488 0.023550551 0.03605139 -0.04142966 0.027345967
-0.016880691 0.021668639 -0.0149435755 0.013808832 -0.036085572 -0.007362157 -0.03929747 7.657707e-05
0.037139352 -0.024029916 -0.018364117 -0.000754714 -0.0036644898 -0.018608844 -0.022729516 -0.036000773
0.018473286 -0.024118572 0.017428022 0.01826543 -0.030044671 -0.03188417 0.010596145 -0.022250067
-0.032259226 -0.024087017 0.01710802 -0.034559615 -0.023135554 -0.0013424158 0.03665257 0.037309784
-0.02788132 0.03886393 -0.0036397874 -0.017030507 0.0055717863 -0.0021636784 0.018394321 0.021076579
-0.004406851 0.032247294 -0.019866284 0.017593984 -0.024489388 0.015560832 -0.0016116835 0.008206669
0.003129799 -0.0036174245 -0.0067341775 -0.03501769 0.03436145 0.040573504 -0.017790612 0.009395372
-0.037819546 -0.028960457 0.016278073 -0.021920547 0.011729836 0.03893057 -0.004997447 -0.012880882
-0.032124456 0.014561843 0.017814133 -0.032467645 0.022932645 0.0322471 -0.0225984 0.005606603
0.026579183 -0.016232178 0.00011076033 -0.032940567 0.006489277 0.035932887 -0.019492775 -0.0032065623
-0.02596361 0.02525739 0.04136915 0.01601826 0.019254819 0.008861762 -0.026181724 0.035339314
-0.032405175 0.007538557 -0.01624678 -0.033662103 0.027734969 -0.0021812022 -0.0010881089 -0.020623982
0.02006352 0.029922042 0.03350855 -0.0013537891 -0.016955432 0.0379751 0.02141187 0.029705215
-0.008705214 -0.033988815 -0.027868804 -0.01465584 -0.004906386 0.03595415 -0.0341921 0.0071703084
0.023753632 0.007910594 -0.0031127073 -0.011231955 -0.008023962 -0.025198221 -0.004310608 0.0017511509
0.03177013 0.041500974 0.024459999 -0.00952439 0.024990197 -0.03458863 -0.006510701 0.0129195005
0.015594926 -0.008680653 0.026549611 0.008554835 0.038116243 -0.029119447 -0.034325268 -0.027415937
0.041607153 -0.014222965 -0.026999295 0.027199138 -0.03554433 0.031116541 -0.0049072243 -0.017849356
0.04117469 -0.024397856 -0.034219816 0.014558997 -0.033524416 0.032698806 -0.009467561 -0.039900817
0.022594463 -0.01883791 0.031265583 -0.012725741 -0.03086428 0.040186692 -0.00067710876 -0.016484018
-0.032235976 0.015156433 -0.027648717 0.035733867 0.027977359 0.021447506 -0.007941943 0.022965934
-0.026878193 0.0266327 -0.00899671 0.026479263 0.012976695 0.02416933 -0.015554106 0.011383396
-0.012629371 0.0121998 0.019467954 0.03236566 0.040341366 -0.008907255 0.013699945 -0.004408341
0.025870506 0.024628367 -0.03314693 0.013247788 0.023602966 0.025541235 0.029415827 -0.0033836104
-0.030498033 0.028186236 0.013896067 0.032918517 -0.008992847 0.0068507493 0.039842714 -0.040574946
0.014409989 -0.039753392 0.041148204 -0.0016842484 -0.033201844 -0.0304586 -0.04081869 0.024025332
-0.008493315 0.028547455 0.001970347 -0.012575492 0.011898104 0.020757675 -0.00031432882 0.0033511035

weight f4 [64]
00000000: 0000 803f 0000 803f 0000 803f 0000 803f
00000010: 0000 803f 0000 803f 0000 803f 0000 803f
00000020: 0000 803f 0000 803f 0000 803f 0000 803f
00000030: 0000 803f 0000 803f 0000 803f 0000 803f
00000040: 0000 803f 0000 803f 0000 803f 0000 803f
00000050: 0000 803f 0000 803f 0000 803f 0000 803f
00000060: 0000 803f 0000 803f 0000 803f 0000 803f
00000070: 0000 803f 0000 803f 0000 803f 0000 803f
00000080: 0000 803f 0000 803f 0000 803f 0000 803f
00000090: 0000 803f 0000 803f 0000 803f 0000 803f
000000a0: 0000 803f 0000 803f 0000 803f 0000 803f
000000b0: 0000 803f 0000 803f 0000 803f 0000 803f
000000c0: 0000 803f 0000 803f 0000 803f 0000 803f
000000d0: 0000 803f 0000 803f 0000 803f 0000 803f
000000e0: 0000 803f 0000 803f 0000 803f 0000 803f
000000f0: 0000 803f 0000 803f 0000 803f 0000 803f
1.0 1.0 1.0 1.0 1.0 1.0 1.0 1.0
1.0 1.0 1.0 1.0 1.0 1.0 1.0 1.0
1.0 1.0 1.0 1.0 1.0 1.0 1.0 1.0
1.0 1.0 1.0 1.0 1.0 1.0 1.0 1.0
1.0 1.0 1.0 1.0 1.0 1.0 1.0 1.0
1.0 1.0 1.0 1.0 1.0 1.0 1.0 1.0
1.0 1.0 1.0 1.0 1.0 1.0 1.0 1.0
1.0 1.0 1.0 1.0 1.0 1.0 1.0 1.0

bias f4 [64]
00000000: 0000 0000 0000 0000 0000 0000 0000 0000
00000010: 0000 0000 0000 0000 0000 0000 0000 0000
00000020: 0000 0000 0000 0000 0000 0000 0000 0000
00000030: 0000 0000 0000 0000 0000 0000 0000 0000
00000040: 0000 0000 0000 0000 0000 0000 0000 0000
00000050: 0000 0000 0000 0000 0000 0000 0000 0000
00000060: 0000 0000 0000 0000 0000 0000 0000 0000
00000070: 0000 0000 0000 0000 0000 0000 0000 0000
00000080: 0000 0000 0000 0000 0000 0000 0000 0000
00000090: 0000 0000 0000 0000 0000 0000 0000 0000
000000a0: 0000 0000 0000 0000 0000 0000 0000 0000
000000b0: 0000 0000 0000 0000 0000 0000 0000 0000
000000c0: 0000 0000 0000 0000 0000 0000 0000 0000
000000d0: 0000 0000 0000 0000 0000 0000 0000 0000
000000e0: 0000 0000 0000 0000 0000 0000 0000 0000
000000f0: 0000 0000 0000 0000 0000 0000 0000 0000
0.0 0.0 0.0 0.0 0.0 0.0 0.0 0.0
0.0 0.0 0.0 0.0 0.0 0.0 0.0 0.0
0.0 0.0 0.0 0.0 0.0 0.0 0.0 0.0
0.0 0.0 0.0 0.0 0.0 0.0 0.0 0.0
0.0 0.0 0.0 0.0 0.0 0.0 0.0 0.0
0.0 0.0 0.0 0.0 0.0 0.0 0.0 0.0
0.0 0.0 0.0 0.0 0.0 0.0 0.0 0.0
0.0 0.0 0.0 0.0 0.0 0.0 0.0 0.0

running_mean f4 [64]
00000000: 0000 0000 0000 0000 0000 0000 0000 0000
00000010: 0000 0000 0000 0000 0000 0000 0000 0000
00000020: 0000 0000 0000 0000 0000 0000 0000 0000
00000030: 0000 0000 0000 0000 0000 0000 0000 0000
00000040: 0000 0000 0000 0000 0000 0000 0000 0000
00000050: 0000 0000 0000 0000 0000 0000 0000 0000
00000060: 0000 0000 0000 0000 0000 0000 0000 0000
00000070: 0000 0000 0000 0000 0000 0000 0000 0000
00000080: 0000 0000 0000 0000 0000 0000 0000 0000
00000090: 0000 0000 0000 0000 0000 0000 0000 0000
000000a0: 0000 0000 0000 0000 0000 0000 0000 0000
000000b0: 0000 0000 0000 0000 0000 0000 0000 0000
000000c0: 0000 0000 0000 0000 0000 0000 0000 0000
000000d0: 0000 0000 0000 0000 0000 0000 0000 0000
000000e0: 0000 0000 0000 0000 0000 0000 0000 0000
000000f0: 0000 0000 0000 0000 0000 0000 0000 0000
0.0 0.0 0.0 0.0 0.0 0.0 0.0 0.0
0.0 0.0 0.0 0.0 0.0 0.0 0.0 0.0
0.0 0.0 0.0 0.0 0.0 0.0 0.0 0.0
0.0 0.0 0.0 0.0 0.0 0.0 0.0 0.0
0.0 0.0 0.0 0.0 0.0 0.0 0.0 0.0
0.0 0.0 0.0 0.0 0.0 0.0 0.0 0.0
0.0 0.0 0.0 0.0 0.0 0.0 0.0 0.0
0.0 0.0 0.0 0.0 0.0 0.0 0.0 0.0

running_var f4 [64]
00000000: 0000 803f 0000 803f 0000 803f 0000 803f
00000010: 0000 803f 0000 803f 0000 803f 0000 803f
00000020: 0000 803f 0000 803f 0000 803f 0000 803f
00000030: 0000 803f 0000 803f 0000 803f 0000 803f
00000040: 0000 803f 0000 803f 0000 803f 0000 803f
00000050: 0000 803f 0000 803f 0000 803f 0000 803f
00000060: 0000 803f 0000 803f 0000 803f 0000 803f
00000070: 0000 803f 0000 803f 0000 803f 0000 803f
00000080: 0000 803f 0000 803f 0000 803f 0000 803f
00000090: 0000 803f 0000 803f 0000 803f 0000 803f
000000a0: 0000 803f 0000 803f 0000 803f 0000 803f
000000b0: 0000 803f 0000 803f 0000 803f 0000 803f
000000c0: 0000 803f 0000 803f 0000 803f 0000 803f
000000d0: 0000 803f 0000 803f 0000 803f 0000 803f
000000e0: 0000 803f 0000 803f 0000 803f 0000 803f
000000f0: 0000 803f 0000 803f 0000 803f 0000 803f
1.0 1.0 1.0 1.0 1.0 1.0 1.0 1.0
1.0 1.0 1.0 1.0 1.0 1.0 1.0 1.0
1.0 1.0 1.0 1.0 1.0 1.0 1.0 1.0
1.0 1.0 1.0 1.0 1.0 1.0 1.0 1.0
1.0 1.0 1.0 1.0 1.0 1.0 1.0 1.0
1.0 1.0 1.0 1.0 1.0 1.0 1.0 1.0
1.0 1.0 1.0 1.0 1.0 1.0 1.0 1.0
1.0 1.0 1.0 1.0 1.0 1.0 1.0 1.0
