Code_binary/Search/operator_pt/ucihar/Conv-128x6-128x64-5-1-1.pt (torch, 18248 bytes, 5 tensors)

weight f4 [64, 6, 5]
0.026933506 -0.061105795 -0.11420665 0.040474713 -0.10828872 -0.09564722 -0.10297297 -0.046912923
-0.029199347 -0.09777771 0.10827106 0.0236502 0.08075234 0.12687099 0.0046459734 -0.00321047
0.09531355 -0.1792252 -0.07154887 0.1697613 -0.13507733 -0.12081055 0.16343543 -0.047871456
0.010678425 0.015223831 -0.11080335 -0.11628895 -0.081198856 -0.07828191 -0.052285865 0.1316163
0.07990739 -0.13012299 -0.14770755 0.05457586 0.15119392 -0.114351735 0.08259803 -0.14025049
-0.17086071 0.16291359 -0.023873433 -0.16748822 0.07861096 0.09642905 -0.12458916 0.13685071
0.04925479 0.12519014 -0.11228077 -0.10491618 -0.033821672 -0.016955942 0.18037358 0.052808046
0.046932727 -0.17898402 -0.08500012 -0.16826428 0.15444764 -0.08459913 -0.042224795 0.059792757
-0.073189355 0.14259204 -0.14011863 -0.057954393 0.13899606 0.17979461 -0.16821462 -0.11528149
-0.16635042 0.16804856 -0.12443043 -0.13496208 -0.1429194 -0.019450441 0.037087128 -0.063623145
0.08069381 -0.048014134 0.045531154 0.110921174 0.08709529 0.047968134 0.021755248 0.114617676
-0.04267676 0.023885116 0.11872673 0.08812341 0.11901456 -0.06132842 0.10214466 -0.12102258
-0.02654545 -0.16273387 0.098814726 -0.13210452 0.098101586 -0.17022564 -0.04991582 -0.06490858
0.05134973 -0.08474334 0.096953034 0.0055842996 -0.096133836 -0.11296967 0.09040573 -0.11781103
-0.10571986 0.109671324 0.14859778 -0.025162399 -0.10500395 -0.038370296 -0.05273874 -0.15018415
-0.039542884 0.04483773 0.03040336 0.09926313 -0.050886795 0.14174506 -0.13935906 -0.18057248
-0.051687673 0.12437785 0.08142316 0.058372185 0.015039116 -0.10281013 0.025992319 -0.060138054
-0.18063052 0.12570176 -0.044931754 -0.03809595 -0.09802931 0.023121446 0.05378647 -0.05316885
-0.16571076 0.16012308 0.094139636 0.022377774 -0.09628157 -0.13641848 -0.033049673 -0.107102074
0.14477506 0.033559725 0.1489895 0.11576247 -0.099963546 0.15407145 0.027308822 -0.04776244
-0.03933294 0.027690783 0.097267926 -0.03205642 0.11709675 0.048641548 0.11567858 0.0062788725
0.15849182 0.02838166 0.015686572 0.071912795 -0.116153166 -0.115244776 -0.088744104 0.09602544
-0.11401354 -0.068323955 -0.047982946 0.08556464 -0.011481836 -0.0589775 -0.0779002 0.036085457
-0.06600506 -0.08691666 0.01193507 0.122755826 0.029893816 0.16006458 -0.16574919 -0.016372979
-0.13764164 0.08338964 0.09839991 -0.13306294 -0.041289374 0.120072335 -0.13726157 -0.08998335
0.16366836 0.15948465 -0.00033941865 0.15126264 -0.09235473 -0.06519535 0.17131323 -0.122528
0.06047827 -0.03846383 0.14936209 -0.09483926 -0.04535225 -0.15409744 0.1367791 -0.16863073
0.055998728 -0.17101215 0.04180841 0.041656822 -0.04128787 0.094931126 0.1756934 0.025169104
-0.07890792 -0.054247826 0.03118819 0.18051738 0.12788504 0.10537121 -0.15287521 0.15404081
0.05199182 0.07221201 0.1671646 0.11731297 0.037712917 -0.03801632 0.15532398 0.15156466
-0.14704405 0.16442463 -0.0557964 0.12880355 0.13055438 -0.18130118 -0.05867724 0.095110714
-0.02300699 0.16355383 0.11785683 -0.1823407 -0.06964026 -0.1577186 0.16866162 0.09743309
00000000: a8a3 dc3c 124a 7abd 2de5 e9bd d0c8 253d
00000010: 7ac6 ddbd b1e2 c3bd 7ee3 d2bd c427 40bd
00000020: 7833 efbc ae3f c8bd 38bd dd3d 10be c13c
00000030: 7c61 a53d 78ea 013e 403d 983b c066 52bb
00000040: c033 c33d d086 37be 3788 92bd e8d5 2d3e
00000050: b651 0abe 866b f7bd 9e5b 273e dc14 44bd
00000060: 90f4 2e3c 606d 793c deec e2bd e728 eebd
00000070: 964b a6bd 4452 a0bd b429 56bd 6cc6 063e
00000080: 7ca6 a33d f63e 05be a640 17be f08a 5f3d
00000090: 94d2 1a3e 3e31 eabd 2829 a93d d39d 0fbe
000000a0: 1cf6 2ebe d2d2 263e 3892 c3bc 0882 2bbe
000000b0: c8fe a03d 987c c53d 9a28 ffbd 9822 0c3e
000000c0: 64bf 493d d831 003e 76f3 e5bd 4bde d6bd
000000d0: 9888 0abd 30e7 8abc dab3 383e 404d 583d
000000e0: 883c 403d 9647 37be 8b14 aebd 794d 2cbe
000000f0: 8627 1e3e 4f42 adbd e8f3 2cbd 40e9 743d
00000100: 4de4 95bd a603 123e 427b 0fbe 9661 6dbd
00000110: fc54 0e3e 141c 383e 7440 2cbe b418 ecbd
00000120: c457 2abe ec14 2c3e 62d5 febd 8033 0abe
00000130: 7759 12be 8856 9fbc ace8 173d da4c 82bd
00000140: cc42 a53d 78aa 44bd e07e 3a3d a42a e33d
00000150: 045f b23d 3c7a 443d 1038 b23c acbc ea3d
00000160: d4cd 2ebd b8aa c33c 0027 f33d 0c7a b43d
00000170: e8bd f33d 8233 7bbd 3831 d13d b0da f7bd
00000180: d875 d9bc b5a3 26be 605f ca3d 6846 07be
00000190: 7ce9 c83d a14f 2ebe 8874 4cbd caee 84bd
000001a0: 1854 523d eb8d adbd 508f c63d 80fc b63b
000001b0: d1e1 c4bd a45c e7bd a426 b93d e946 f1bd
000001c0: a783 d8bd 5c9b e03d 042a 183e 6021 cebc
000001d0: 500c d7bd 2c2a 1dbd 9404 58bd e0c9 19be
000001e0: b8f7 21bd c4a7 373d 7810 f93c 784a cb3d
000001f0: ac6e 50bd 9e25 113e 24b4 0ebe fee7 38be
00000200: 74b6 53bd d0b9 fe3d 30c1 a63d ac17 6f3d
00000210: a066 763c 1e8e d2bd d8ed d43c 5253 76bd
00000220: 35f7 38be f6b7 003e 5c0a 38bd 800a 1cbd
00000230: 97c3 c8bd 3069 bd3c 344f 5c3d 94c7 59bd
00000240: 15b0 29be 4ef7 233e 48cc c03d 9851 b73c
00000250: 462f c5bd 49b1 0bbe 185f 07bd 5558 dbbd
00000260: ea3f 143e ec75 093d b490 183e e014 ed3d
00000270: b0b9 ccbd e8c4 1d3e c0b6 df3c 8ca2 43bd
00000280: 941b 21bd c8d7 e23c 6834 c73d 984d 03bd
00000290: 6cd0 ef3d 5c3c 473d e4e8 ec3d 00bf cd3b
000002a0: ae4b 223e a880 e83c 2081 803c 0447 933d
000002b0: b6e1 edbd 7405 ecbd 78bf b5bd fca8 c43d
000002c0: ee7f e9bd 6eed 8bbd c489 44bd 843c af3d
000002d0: 501e 3cbc 6492 71bd 248a 9fbd 58ce 133d
000002e0: a92d 87bd 5d01 b2bd 508b 433c 6867 fb3d
000002f0: e0e3 f43c f8e7 233e 28ba 29be a020 86bc
00000300: eef1 0cbe 30c8 aa3d e485 c93d a741 08be
00000310: 0c1f 29bd 7ce8 f53d 4c8e 0cbe 3149 b8bd
00000320: ae98 273e f24f 233e 00f4 b1b9 98e4 1a3e
00000330: 7a24 bdbd 2485 85bd bc6c 2f3e f6ef fabd
00000340: 10b8 773d 408c 1dbd 60f2 183e 163b c2bd
00000350: 48c3 39bd b8cb 1dbe d20f 0c3e 89ad 2cbe
00000360: ec5e 653d cf1d 2fbe 4c3f 2b3d 58a0 2a3d
00000370: 781d 29bd 406b c23d f8e8 333e 702f ce3c
00000380: 7a9a a1bd f832 5ebd 607e ff3c 8cd9 383e
00000390: 4cf4 023e dccc d73d 528b 1cbe e0bc 1d3e
000003a0: 60f5 543d e4e3 933d 322d 2b3e c841 f03d
000003b0: dc78 1a3d 00b7 1bbd 400d 1f3e c433 1b3e
000003c0: b792 16be ee5e 283e c48a 64bd 14e5 033e
000003d0: 0cb0 053e 04a7 39be 8c57 70bd 68c9 c23d
000003e0: 2879 bcbc a87a 273e ec5e f13d 85b7 3abe
000003f0: 8d9f 8ebd fc80 21be a2b5 2c3e 008b c73d

weight f4 [64]
1.0 1.0 1.0 1.0 1.0 1.0 1.0 1.0
1.0 1.0 1.0 1.0 1.0 1.0 1.0 1.0
1.0 1.0 1.0 1.0 1.0 1.0 1.0 1.0
1.0 1.0 1.0 1.0 1.0 1.0 1.0 1.0
1.0 1.0 1.0 1.0 1.0 1.0 1.0 1.0
1.0 1.0 1.0 1.0 1.0 1.0 1.0 1.0
1.0 1.0 1.0 1.0 1.0 1.0 1.0 1.0
1.0 1.0 1.0 1.0 1.0 1.0 1.0 1.0
00000000: 0000 803f 0000 803f 0000 803f 0000 803f
00000010: 0000 803f 0000 803f 0000 803f 0000 803f
00000020: 0000 803f 0000 803f 0000 803f 0000 803f
00000030: 0000 803f 0000 803f 0000 803f 0000 803f
00000040: 0000 803f 0000 803f 0000 803f 0000 803f
00000050: 0000 803f 0000 803f 0000 803f 0000 803f
00000060: 0000 803f 0000 803f 0000 803f 0000 803f
00000070: 0000 803f 0000 803f 0000 803f 0000 803f
00000080: 0000 803f 0000 803f 0000 803f 0000 803f
00000090: 0000 803f 0000 803f 0000 803f 0000 803f
000000a0: 0000 803f 0000 803f 0000 803f 0000 803f
000000b0: 0000 803f 0000 803f 0000 803f 0000 803f
000000c0: 0000 803f 0000 803f 0000 803f 0000 803f
000000d0: 0000 803f 0000 803f 0000 803f 0000 803f
000000e0: 0000 803f 0000 803f 0000 803f 0000 803f
000000f0: 0000 803f 0000 803f 0000 803f 0000 803f

bias f4 [64]
0.0 0.0 0.0 0.0 0.0 0.0 0.0 0.0
0.0 0.0 0.0 0.0 0.0 0.0 0.0 0.0
0.0 0.0 0.0 0.0 0.0 0.0 0.0 0.0
0.0 0.0 0.0 0.0 0.0 0.0 0.0 0.0
0.0 0.0 0.0 0.0 0.0 0.0 0.0 0.0
0.0 0.0 0.0 0.0 0.0 0.0 0.0 0.0
0.0 0.0 0.0 0.0 0.0 0.0 0.0 0.0
0.0 0.0 0.0 0.0 0.0 0.0 0.0 0.0
00000000: 0000 0000 0000 0000 0000 0000 0000 0000
00000010: 0000 0000 0000 0000 0000 0000 0000 0000
00000020: 0000 0000 0000 0000 0000 0000 0000 0000
00000030: 0000 0000 0000 0000 0000 0000 0000 0000
00000040: 0000 0000 0000 0000 0000 0000 0000 0000
00000050: 0000 0000 0000 0000 0000 0000 0000 0000
00000060: 0000 0000 0000 0000 0000 0000 0000 0000
00000070: 0000 0000 0000 0000 0000 0000 0000 0000
00000080: 0000 0000 0000 0000 0000 0000 0000 0000
00000090: 0000 0000 0000 0000 0000 0000 0000 0000
000000a0: 0000 0000 0000 0000 0000 0000 0000 0000
000000b0: 0000 0000 0000 0000 0000 0000 0000 0000
000000c0: 0000 0000 0000 0000 0000 0000 0000 0000
000000d0: 0000 0000 0000 0000 0000 0000 0000 0000
000000e0: 0000 0000 0000 0000 0000 0000 0000 0000
000000f0: 0000 0000 0000 0000 0000 0000 0000 0000

running_mean f4 [64]
0.0 0.0 0.0 0.0 0.0 0.0 0.0 0.0
0.0 0.0 0.0 0.0 0.0 0.0 0.0 0.0
0.0 0.0 0.0 0.0 0.0 0.0 0.0 0.0
0.0 0.0 0.0 0.0 0.0 0.0 0.0 0.0
0.0 0.0 0.0 0.0 0.0 0.0 0.0 0.0
0.0 0.0 0.0 0.0 0.0 0.0 0.0 0.0
0.0 0.0 0.0 0.0 0.0 0.0 0.0 0.0
0.0 0.0 0.0 0.0 0.0 0.0 0.0 0.0
00000000: 0000 0000 0000 0000 0000 0000 0000 0000
00000010: 0000 0000 0000 0000 0000 0000 0000 0000
00000020: 0000 0000 0000 0000 0000 0000 0000 0000
00000030: 0000 0000 0000 0000 0000 0000 0000 0000
00000040: 0000 0000 0000 0000 0000 0000 0000 0000
00000050: 0000 0000 0000 0000 0000 0000 0000 0000
00000060: 0000 0000 0000 0000 0000 0000 0000 0000
00000070: 0000 0000 0000 0000 0000 0000 0000 0000
00000080: 0000 0000 0000 0000 0000 0000 0000 0000
00000090: 0000 0000 0000 0000 0000 0000 0000 0000
000000a0: 0000 0000 0000 0000 0000 0000 0000 0000
000000b0: 0000 0000 0000 0000 0000 0000 0000 0000
000000c0: 0000 0000 0000 0000 0000 0000 0000 0000
000000d0: 0000 0000 0000 0000 0000 0000 0000 0000
000000e0: 0000 0000 0000 0000 0000 0000 0000 0000
000000f0: 0000 0000 0000 0000 0000 0000 0000 0000

running_var f4 [64]
1.0 1.0 1.0 1.0 1.0 1.0 1.0 1.0
1.0 1.0 1.0 1.0 1.0 1.0 1.0 1.0
1.0 1.0 1.0 1.0 1.0 1.0 1.0 1.0
1.0 1.0 1.0 1.0 1.0 1.0 1.0 1.0
1.0 1.0 1.0 1.0 1.0 1.0 1.0 1.0
1.0 1.0 1.0 1.0 1.0 1.0 1.0 1.0
1.0 1.0 1.0 1.0 1.0 1.0 1.0 1.0
1.0 1.0 1.0 1.0 1.0 1.0 1.0 1.0
00000000: 0000 803f 0000 803f 0000 803f 0000 803f
00000010: 0000 803f 0000 803f 0000 803f 0000 803f
00000020: 0000 803f 0000 803f 0000 803f 0000 803f
00000030: 0000 803f 0000 803f 0000 803f 0000 803f
00000040: 0000 803f 0000 803f 0000 803f 0000 803f
00000050: 0000 803f 0000 803f 0000 803f 0000 803f
00000060: 0000 803f 0000 803f 0000 803f 0000 803f
00000070: 0000 803f 0000 803f 0000 803f 0000 803f
00000080: 0000 803f 0000 803f 0000 803f 0000 803f
00000090: 0000 803f 0000 803f 0000 803f 0000 803f
000000a0: 0000 803f 0000 803f 0000 803f 0000 803f
000000b0: 0000 803f 0000 803f 0000 803f 0000 803f
000000c0: 0000 803f 0000 803f 0000 803f 0000 803f
000000d0: 0000 803f 0000 803f 0000 803f 0000 803f
000000e0: 0000 803f 0000 803f 0000 803f 0000 803f
000000f0: 0000 803f 0000 803f 0000 803f 0000 803f
