Code_binary/Search/operator_pt/wisdm/Conv-60x3-60x64-9-1-1.pt (torch, 17450 bytes, 5 tensors)

weight f4 [64, 3, 9]
000000 19 c9 8b bd 05 96 08 3e 50 ed 83 bc 04 71 44 3d
       -0.06825466 0.13338478 -0.01610437 0.047959343
000010 ff 00 cd bd f2 79 1d be b6 c4 bd 3d 40 bd 21 bc
       -0.100099556 -0.1537855 0.09266035 -0.009871781
000020 c7 a2 0c 3e b4 c7 22 bd 38 0c 37 3d 00 1c bb 3a
       0.1373397 -0.039741233 0.044689387 0.0014275312
000030 de 77 a6 3d ee c9 b0 3d 6a 76 c6 3d ec f0 1d bd
       0.081283316 0.08632265 0.096905544 -0.03855984
000040 68 84 95 3c 5e c5 a5 3d 00 76 b3 bd 2e 94 8c bd
       0.018251613 0.080942854 -0.08762741 -0.068642005
000050 47 b4 05 3e 6b 76 24 3e a0 f0 85 bb 0d e9 0a 3e
       0.13057052 0.16060798 -0.0040875226 0.13565464
000060 ce 10 bd 3d 55 af 02 be b1 94 25 be 3d 83 8f bd
       0.09231721 -0.12762196 -0.16170003 -0.070074536
000070 2a ef d9 3d 0c 0b 5f 3d 28 0f 64 3d 58 e7 ac 3c
       0.1064132 0.054453894 0.055678517 0.021106407
000080 b8 85 14 be 8c 04 a8 bd 80 65 70 bd 2e 57 27 be
       -0.14504135 -0.08203992 -0.058690548 -0.1634185
000090 f4 84 43 bd 00 48 59 bd b7 a2 0c be 98 95 43 3d
       -0.047734216 -0.05304718 -0.13733946 0.047750086
0000a0 54 ea 5c bd 00 c1 96 3a e4 71 0d bd ce 31 8f 3d
       -0.05393441 0.001150161 -0.034532443 0.06991921
0000b0 cd 04 25 3e 75 ab dd bd d0 d5 15 bc 5e 06 a0 3d
       0.16115113 -0.108237185 -0.009145215 0.078137144
0000c0 ad b0 36 3e e7 87 21 be a3 d0 30 3e 71 1c 9e bd
       0.17840834 -0.15774499 0.17267089 -0.077202685
0000d0 d8 30 43 3d b8 3e a9 bc 30 1e 2a 3d 8c 79 7e 3d
       0.047654003 -0.02065979 0.041532695 0.062127635
0000e0 9c 1e 54 bd 95 3a 09 3e 4a 6e 92 3d ce 8c ad 3d
       -0.051787004 0.13401254 0.07149942 0.08474122
0000f0 f0 22 1e 3c c1 2c 3d be 26 e3 b5 3d b0 5b 54 bd
       0.009651884 -0.18474104 0.08881216 -0.051845253
000100 37 b4 1a be f8 34 07 3d 85 74 15 3e 17 5b 00 3e
       -0.15107809 0.0330095 0.1459523 0.12534748
000110 27 14 35 3e 00 30 78 38 90 d3 1e bd b0 b5 6d bc
       0.17683469 5.917251e-05 -0.03877598 -0.01450865
000120 9b e4 df bd c9 9a 33 3e 7b af 36 3e 70 25 d1 bc
       -0.10932275 0.17539515 0.17840378 -0.025530547
000130 94 bf e0 bd 52 44 fc 3d 43 cb 32 3e 6c 7a 16 3d
       -0.10974041 0.123177186 0.1746035 0.036737844
000140 48 7d 1c be e4 0b f4 bd 8c d3 28 be ba 28 ab 3d
       -0.15282166 -0.119163305 -0.16486949 0.08357377
000150 23 27 30 3e 2d 20 25 3e f4 3e fa bd 48 bf 85 bc
       0.1720243 0.16125555 -0.122190386 -0.016326562
000160 8b df 39 be 8e a9 24 be 91 64 17 3e 23 b0 2a 3e
       -0.18151681 -0.16080305 0.14784457 0.16668753
000170 43 15 2c 3e d8 30 cb 3c bf d0 10 3e d5 f9 1c 3e
       0.16804986 0.024803564 0.1414213 0.15329678
000180 12 bc b9 3d c3 ca 95 bd 48 b6 f4 bd d5 5b 32 be
       0.09069075 -0.07314064 -0.1194883 -0.17417844
000190 39 68 21 3e 91 15 c6 bd 44 06 82 bd 20 63 61 bc
       0.15762414 -0.09672082 -0.06348851 -0.013756543
0001a0 28 cc ec bc 69 7d 34 be fa 94 96 3d 84 03 3d 3d
       -0.028905943 -0.17625965 0.07352634 0.04614593
0001b0 89 01 2b 3e 9b f4 29 be ea af cc bd 0c ef 4f 3d
       0.16699804 -0.16597216 -0.099944904 0.050765082
0001c0 cd b0 ad bd 28 b7 a5 bc c0 47 e1 3c a6 51 f5 3d
       -0.08480988 -0.020228937 0.027500033 0.11978464
0001d0 c6 53 93 3d c6 a7 d9 3d 95 c4 13 3e 10 1b 57 bd
       0.07193713 0.10627703 0.14430459 -0.052516043
0001e0 b1 25 11 3e 19 62 27 3e d6 1f 9b 3d 00 68 28 3a
       0.14174534 0.16346015 0.075744316 0.00064241886
0001f0 20 b3 1b bc c8 e7 83 3c 4e dc 2e be b2 a8 e2 3d
       -0.009503156 0.016101733 -0.17076227 0.11067332
000200 f0 b4 b4 bd 38 4d fa 3c c7 1e ef bd 80 5d 5c bc
       -0.088235736 0.030554399 -0.11675792 -0.0134500265
000210 a9 cb 04 3e 55 0c d7 bd 53 c3 0e be 40 d8 10 bc
       0.12968315 -0.10500399 -0.13941698 -0.0088406205
000220 63 a1 2c 3e 33 fc f0 bd b3 46 2e be 8c 5e 4f bd
       0.16858439 -0.11766853 -0.17019157 -0.050627276
000230 c8 91 c3 bd c1 b0 40 be fe 6c ae 3d 3e 9d b2 3d
       -0.0954929 -0.18817426 0.08516882 0.08721398
000240 d2 d0 d5 3d 56 52 11 be de 25 88 bd b0 81 1c bc
       0.1044022 -0.14191565 -0.066478476 -0.009552404
000250 38 be 62 bd 64 35 78 bd e4 dc 0f be 02 7a f6 3d
       -0.055357188 -0.060597792 -0.14049107 0.1203499
000260 00 4b 26 be ee 20 d2 bd dc 07 35 3d e0 15 89 3b
       -0.16239548 -0.10260187 0.04419695 0.004183516
000270 38 80 a3 bc 0a 2a 15 be 90 d5 08 bc 08 be 95 3c
       -0.0199586 -0.14566818 -0.0083516985 0.01827909
000280 66 fc f3 3d 32 51 b9 bd 74 84 40 3d 24 69 78 bd
       0.119133756 -0.0904869 0.047001317 -0.060647145
000290 96 64 94 3d 4c 76 17 3d 0d 03 2d 3e be 2c f8 bd
       0.07245748 0.03697805 0.16895695 -0.12117909
0002a0 22 3a 05 be cc f1 25 bd d7 86 c5 bd eb e0 38 3e
       -0.13010457 -0.0405138 -0.09644859 0.1805455
0002b0 8b c2 0d be 84 ff 38 bd b6 d0 fe 3d 06 80 bb 3d
       -0.13843744 -0.045165554 0.12442152 0.09155278
0002c0 1a 0e 9e 3d 06 af fe 3d 92 0e bf 3d 6c 3c 6a bd
       0.077175334 0.12435727 0.09328951 -0.05718653
0002d0 0f b7 16 3e 2b 97 20 3e dc 83 48 3d 60 56 e9 bb
       0.14718269 0.15682666 0.048953876 -0.0071208924
0002e0 83 42 12 be 8e 06 86 bd 2c 9e 1e bd 44 09 37 bd
       -0.14283185 -0.06544219 -0.038725063 -0.04468657
0002f0 38 ac c4 3c e9 f5 e4 bd 69 58 18 3e b8 28 da bc
       0.024007902 -0.11179716 0.14877476 -0.026630744
000300 c8 d6 2e be 50 1c 41 bd c6 55 9d 3d 11 e6 a5 bd
       -0.1707412 -0.04714614 0.076823756 -0.08100522
000310 69 71 0d 3e 9b 3e e1 bd 27 05 36 be 91 c4 2e 3e
       0.13812794 -0.10998269 -0.17775403 0.17067172
000320 a0 bf c6 bc c7 ca 07 be 44 ff 00 be 58 31 04 bd
       -0.024261296 -0.13260947 -0.12597376 -0.03227362
000330 a7 f7 44 3e a2 05 82 3d ad 9c f6 bd d8 b7 80 bc
       0.19235097 0.063487306 -0.12041602 -0.015712664
000340 77 3a 1b 3e f4 22 7b bd 86 f6 42 be 28 ad b3 bc
       0.15159021 -0.06131263 -0.19039354 -0.021933153
000350 f4 85 66 3d 1a 1c 89 3d 6e 66 e9 3d 98 82 fe bc
       0.05628009 0.06694813 0.1139649 -0.031068131
000360 e7 b2 44 3e 57 6b 91 bd 82 52 28 be 22 f5 b3 3d
       0.19208871 -0.071005516 -0.16437724 0.0878699
000370 77 87 0e 3e 60 d3 fe bb f4 af 3a bd e9 f9 19 3e
       0.13918863 -0.0077766627 -0.04557796 0.1503674
000380 60 4b 7f bd 08 b4 3f be 92 2f 93 3d da ee 9c 3d
       -0.062327743 -0.1872102 0.07186808 0.07662745
000390 60 fd 31 be 48 3d 54 bd 08 ac 17 3d 60 f6 af 3b
       -0.17381811 -0.051816255 0.037029296 0.0053699464
0003a0 51 09 20 3e 63 16 3a be c5 2a fd bd 73 80 af bd
       0.15628554 -0.18172602 -0.12361673 -0.085694216
0003b0 12 af ab 3d 40 d1 7e 3c c0 84 a4 bb 9f b5 d2 bd
       0.083830014 0.015552819 -0.005020708 -0.10288548
0003c0 c8 5d d8 bd e6 d4 d8 bd 00 73 6f 3a 84 94 2f bd
       -0.10564762 -0.10587482 0.0009134263 -0.042866245
0003d0 21 e5 41 3e d0 73 13 bd 40 e1 10 bb 71 a6 e2 bd
       0.18935062 -0.03599912 -0.0022106916 -0.110669024
0003e0 af 54 c0 bd 23 cb 07 be 76 c9 82 3d 8a 18 e3 3d
       -0.09391152 -0.13261084 0.06386082 0.11088665
0003f0 7e 49 a0 3d 7c 40 3f 3d e8 bb b6 bc 9c fa 0a 3d
       0.078265175 0.046692356 -0.022306398 0.033930406

weight f4 [64]
000000 00 00 80 3f 00 00 80 3f 00 00 80 3f 00 00 80 3f
       1.0 1.0 1.0 1.0
000010 00 00 80 3f 00 00 80 3f 00 00 80 3f 00 00 80 3f
       1.0 1.0 1.0 1.0
000020 00 00 80 3f 00 00 80 3f 00 00 80 3f 00 00 80 3f
       1.0 1.0 1.0 1.0
000030 00 00 80 3f 00 00 80 3f 00 00 80 3f 00 00 80 3f
       1.0 1.0 1.0 1.0
000040 00 00 80 3f 00 00 80 3f 00 00 80 3f 00 00 80 3f
       1.0 1.0 1.0 1.0
000050 00 00 80 3f 00 00 80 3f 00 00 80 3f 00 00 80 3f
       1.0 1.0 1.0 1.0
000060 00 00 80 3f 00 00 80 3f 00 00 80 3f 00 00 80 3f
       1.0 1.0 1.0 1.0
000070 00 00 80 3f 00 00 80 3f 00 00 80 3f 00 00 80 3f
       1.0 1.0 1.0 1.0
000080 00 00 80 3f 00 00 80 3f 00 00 80 3f 00 00 80 3f
       1.0 1.0 1.0 1.0
000090 00 00 80 3f 00 00 80 3f 00 00 80 3f 00 00 80 3f
       1.0 1.0 1.0 1.0
0000a0 00 00 80 3f 00 00 80 3f 00 00 80 3f 00 00 80 3f
       1.0 1.0 1.0 1.0
0000b0 00 00 80 3f 00 00 80 3f 00 00 80 3f 00 00 80 3f
       1.0 1.0 1.0 1.0
0000c0 00 00 80 3f 00 00 80 3f 00 00 80 3f 00 00 80 3f
       1.0 1.0 1.0 1.0
0000d0 00 00 80 3f 00 00 80 3f 00 00 80 3f 00 00 80 3f
       1.0 1.0 1.0 1.0
0000e0 00 00 80 3f 00 00 80 3f 00 00 80 3f 00 00 80 3f
       1.0 1.0 1.0 1.0
0000f0 00 00 80 3f 00 00 80 3f 00 00 80 3f 00 00 80 3f
       1.0 1.0 1.0 1.0

bias f4 [64]
000000 00 00 00 00 00 00 00 00 00 00 00 00 00 00 00 00
       0.0 0.0 0.0 0.0
000010 00 00 00 00 00 00 00 00 00 00 00 00 00 00 00 00
       0.0 0.0 0.0 0.0
000020 00 00 00 00 00 00 00 00 00 00 00 00 00 00 00 00
       0.0 0.0 0.0 0.0
000030 00 00 00 00 00 00 00 00 00 00 00 00 00 00 00 00
       0.0 0.0 0.0 0.0
000040 00 00 00 00 00 00 00 00 00 00 00 00 00 00 00 00
       0.0 0.0 0.0 0.0
000050 00 00 00 00 00 00 00 00 00 00 00 00 00 00 00 00
       0.0 0.0 0.0 0.0
000060 00 00 00 00 00 00 00 00 00 00 00 00 00 00 00 00
       0.0 0.0 0.0 0.0
000070 00 00 00 00 00 00 00 00 00 00 00 00 00 00 00 00
       0.0 0.0 0.0 0.0
000080 00 00 00 00 00 00 00 00 00 00 00 00 00 00 00 00
       0.0 0.0 0.0 0.0
000090 00 00 00 00 00 00 00 00 00 00 00 00 00 00 00 00
       0.0 0.0 0.0 0.0
0000a0 00 00 00 00 00 00 00 00 00 00 00 00 00 00 00 00
       0.0 0.0 0.0 0.0
0000b0 00 00 00 00 00 00 00 00 00 00 00 00 00 00 00 00
       0.0 0.0 0.0 0.0
0000c0 00 00 00 00 00 00 00 00 00 00 00 00 00 00 00 00
       0.0 0.0 0.0 0.0
0000d0 00 00 00 00 00 00 00 00 00 00 00 00 00 00 00 00
       0.0 0.0 0.0 0.0
0000e0 00 00 00 00 00 00 00 00 00 00 00 00 00 00 00 00
       0.0 0.0 0.0 0.0
0000f0 00 00 00 00 00 00 00 00 00 00 00 00 00 00 00 00
       0.0 0.0 0.0 0.0

running_mean f4 [64]
000000 00 00 00 00 00 00 00 00 00 00 00 00 00 00 00 00
       0.0 0.0 0.0 0.0
000010 00 00 00 00 00 00 00 00 00 00 00 00 00 00 00 00
       0.0 0.0 0.0 0.0
000020 00 00 00 00 00 00 00 00 00 00 00 00 00 00 00 00
       0.0 0.0 0.0 0.0
000030 00 00 00 00 00 00 00 00 00 00 00 00 00 00 00 00
       0.0 0.0 0.0 0.0
000040 00 00 00 00 00 00 00 00 00 00 00 00 00 00 00 00
       0.0 0.0 0.0 0.0
000050 00 00 00 00 00 00 00 00 00 00 00 00 00 00 00 00
       0.0 0.0 0.0 0.0
000060 00 00 00 00 00 00 00 00 00 00 00 00 00 00 00 00
       0.0 0.0 0.0 0.0
000070 00 00 00 00 00 00 00 00 00 00 00 00 00 00 00 00
       0.0 0.0 0.0 0.0
000080 00 00 00 00 00 00 00 00 00 00 00 00 00 00 00 00
       0.0 0.0 0.0 0.0
000090 00 00 00 00 00 00 00 00 00 00 00 00 00 00 00 00
       0.0 0.0 0.0 0.0
0000a0 00 00 00 00 00 00 00 00 00 00 00 00 00 00 00 00
       0.0 0.0 0.0 0.0
0000b0 00 00 00 00 00 00 00 00 00 00 00 00 00 00 00 00
       0.0 0.0 0.0 0.0
0000c0 00 00 00 00 00 00 00 00 00 00 00 00 00 00 00 00
       0.0 0.0 0.0 0.0
0000d0 00 00 00 00 00 00 00 00 00 00 00 00 00 00 00 00
       0.0 0.0 0.0 0.0
0000e0 00 00 00 00 00 00 00 00 00 00 00 00 00 00 00 00
       0.0 0.0 0.0 0.0
0000f0 00 00 00 00 00 00 00 00 00 00 00 00 00 00 00 00
       0.0 0.0 0.0 0.0

running_var f4 [64]
000000 00 00 80 3f 00 00 80 3f 00 00 80 3f 00 00 80 3f
       1.0 1.0 1.0 1.0
000010 00 00 80 3f 00 00 80 3f 00 00 80 3f 00 00 80 3f
       1.0 1.0 1.0 1.0
000020 00 00 80 3f 00 00 80 3f 00 00 80 3f 00 00 80 3f
       1.0 1.0 1.0 1.0
000030 00 00 80 3f 00 00 80 3f 00 00 80 3f 00 00 80 3f
       1.0 1.0 1.0 1.0
000040 00 00 80 3f 00 00 80 3f 00 00 80 3f 00 00 80 3f
       1.0 1.0 1.0 1.0
000050 00 00 80 3f 00 00 80 3f 00 00 80 3f 00 00 80 3f
       1.0 1.0 1.0 1.0
000060 00 00 80 3f 00 00 80 3f 00 00 80 3f 00 00 80 3f
       1.0 1.0 1.0 1.0
000070 00 00 80 3f 00 00 80 3f 00 00 80 3f 00 00 80 3f
       1.0 1.0 1.0 1.0
000080 00 00 80 3f 00 00 80 3f 00 00 80 3f 00 00 80 3f
       1.0 1.0 1.0 1.0
000090 00 00 80 3f 00 00 80 3f 00 00 80 3f 00 00 80 3f
       1.0 1.0 1.0 1.0
0000a0 00 00 80 3f 00 00 80 3f 00 00 80 3f 00 00 80 3f
       1.0 1.0 1.0 1.0
0000b0 00 00 80 3f 00 00 80 3f 00 00 80 3f 00 00 80 3f
       1.0 1.0 1.0 1.0
0000c0 00 00 80 3f 00 00 80 3f 00 00 80 3f 00 00 80 3f
       1.0 1.0 1.0 1.0
0000d0 00 00 80 3f 00 00 80 3f 00 00 80 3f 00 00 80 3f
       1.0 1.0 1.0 1.0
0000e0 00 00 80 3f 00 00 80 3f 00 00 80 3f 00 00 80 3f
       1.0 1.0 1.0 1.0
0000f0 00 00 80 3f 00 00 80 3f 00 00 80 3f 00 00 80 3f
       1.0 1.0 1.0 1.0
