Code_darts/Search/operator_pt/wisdm2019/Conv-67x64-67x64-7-1-1.pt (torch, 125243 bytes, 5 tensors)

weight f4 [64, 64, 7]
0	0x3d2066df	0.039160606
1	0x3c56db3c	0.013113793
2	0x3c862082	0.016372923
3	0x3bbf12f8	0.0058311187
4	0xbc868b9e	-0.016423997
5	0x3d0e5c51	0.03475601
6	0xbceafa19	-0.028683709
7	0x3d3f158b	0.046651404
8	0xbc66dd18	-0.014090799
9	0x3ca44396	0.020051759
10	0x3d2e7ecb	0.042601388
11	0x3b3d8380	0.0028917491
12	0x3cf316aa	0.029673893
13	0xbcf40a23	-0.02978999
14	0xbcf3370b	-0.029689332
15	0xbbe60230	-0.0070193037
16	0x3d1bc27b	0.038027268
17	0xbcbc7e0d	-0.023009324
18	0xbcfda31b	-0.030961564
19	0xbcec0845	-0.028812537
20	0xbd3c8c88	-0.04603246
21	0xbc9a662a	-0.018847544
22	0xbc0090c0	-0.007847011
23	0xbc7225bc	-0.014779504
24	0xbd0a9420	-0.03383267
25	0x3d0b9155	0.034074146
26	0x3c43114c	0.011905979
27	0xbadcb800	-0.0016839504
28	0xbd3e271e	-0.046424024
29	0x3d3af46f	0.045643266
30	0xbcc5dc73	-0.02415297
31	0x3d17f1a3	0.037095677
32	0x3c84d8da	0.016216684
33	0xbd2c19d1	-0.042016808
34	0xbcd7a915	-0.026325742
35	0x3d410c9b	0.047131162
36	0x3ac13860	0.0014741533
37	0x3c9d93e6	0.019235563
38	0x3d1f3857	0.03887209
39	0xbc4e1558	-0.012578331
40	0x3ccfec36	0.025381189
41	0xbd272dcf	-0.04081517
42	0x3c1f0998	0.009706877
43	0x3bfa88f0	0.0076457188
44	0x3c92df3a	0.017928708
45	0x3d20ac25	0.03922667
46	0xbd164792	-0.03668935
47	0xbc7ccdd8	-0.015429936
48	0xbc987e70	-0.018614978
49	0x3b190610	0.002334956
50	0xbcc72d06	-0.024313461
51	0xbd05777b	-0.03258465
52	0x3cf5706e	0.029960837
53	0xbcdd384b	-0.027004382
54	0xbd09be46	-0.033628725
55	0xbc1c7964	-0.009550426
56	0xbcb4858a	-0.022036333
57	0x3c6372c0	0.013882339
58	0xbc5b30fc	-0.013378378
59	0x3c6c056c	0.01440559
60	0xbd28303c	-0.041061625
61	0x3cd80b8e	0.026372697
62	0xbcf28fbf	-0.02960956
63	0xbbd4f330	-0.006498717
64	0x3c5b3d2c	0.013381284
65	0xbc637a50	-0.013884142
66	0x3ce53a62	0.02798194
67	0xbcb65e5c	-0.02226179
68	0xbcd0f39f	-0.025506793
69	0xbbbb55e0	-0.005717024
70	0xbc8fe070	-0.017563075
71	0xb9083500	-0.00012989715
72	0x3c272dd0	0.010203794
73	0xbd1d6505	-0.038426418
74	0xbcf2b5a9	-0.029627638
75	0xbd3c5fc7	-0.045989778
76	0xbc477e94	-0.012176175
77	0xbccec70f	-0.025241403
78	0x3c91442e	0.017732706
79	0x3d164869	0.03669015
80	0xbcb0f29b	-0.021600058
81	0xbc7cc39c	-0.015427496
82	0xbcc6b322	-0.024255339
83	0xbcece834	-0.028919317
84	0xbc3b6aac	-0.011439007
85	0xbcc84bda	-0.024450231
86	0xbd326fe2	-0.04356373
87	0xbc1357f4	-0.008993138
88	0xbccd12b0	-0.025033325
89	0x3ca865ae	0.020556297
90	0x3d2c27f1	0.04203028
91	0x3bfa0ef0	0.007631175
92	0x3b80dc38	0.003932502
93	0x3cb8a15a	0.022537876
94	0xbbc6f308	-0.006071452
95	0xbd1b7f9c	-0.037963495
96	0xbcaee3e0	-0.021348894
97	0xbd1fad50	-0.038983643
98	0x3c2a8fb0	0.010410234
99	0x3a2e4dc0	0.0006649159
100	0x3cea4796	0.028598588
101	0xbb443430	-0.0029938333
102	0xbd0935c4	-0.03349854
103	0xbc194af0	-0.009356245
104	0x3bdb7770	0.0066975877
105	0xbc28192c	-0.010259908
106	0xbcbadea8	-0.022811249
107	0x3d30ba1d	0.04314624
108	0xbd38686b	-0.045021456
109	0x3cebd102	0.028786186
110	0x3d1ee9f1	0.038797323
111	0x3d001bb7	0.03127643
112	0x3cc1b326	0.023644995
113	0xbc91a228	-0.017777517
114	0xbac3e520	-0.0014945604
115	0x3cdc6e12	0.026907954
116	0x3d3fdc31	0.04684085
117	0xbbf72180	-0.0075418353
118	0xbb9465e0	-0.004528746
119	0xb93f2c00	-0.0001823157
120	0x3d37aa3d	0.044840086
121	0x3d085907	0.033288028
122	0x3d14b629	0.036306534
123	0xbce33658	-0.027735874
124	0xbd0ed69e	-0.034872644
125	0xbc26e384	-0.01018608
126	0x3c5d318c	0.013500582
127	0xbca80306	-0.020509254
128	0xbc82f410	-0.015985519
129	0xbd00bd22	-0.03143037
130	0x3d057ab5	0.032587726
131	0x3d0861c3	0.033296358
132	0xbb993560	-0.0046755522
133	0xbd38ec80	-0.04514742
134	0xbcfabc68	-0.030607417
135	0x3cb3a54e	0.02192941
136	0x3cc4b95e	0.024014171
137	0x3d15eaab	0.03660075
138	0xbc940167	-0.018067075
139	0xbcd663c5	-0.02617062
140	0x3d36411d	0.04449569
141	0xbd141d74	-0.0361609
142	0x3bbfb580	0.005850494
143	0x3d231873	0.03981824
144	0xbcf298cb	-0.029613873
145	0xbd219ce9	-0.03945628
146	0x3cb760ba	0.02238499
147	0x3d0eeef5	0.034895856
148	0x3c2b8e98	0.010471009
149	0xbb19e540	-0.002348259
150	0x3d055e2b	0.03256051
151	0x3c781ae0	0.015143126
152	0xbc2611a8	-0.0101360455
153	0xbd1d5d9a	-0.038419344
154	0xbc5496d8	-0.012975417
155	0x3cd95e16	0.026534121
156	0xbbb8c640	-0.0056388676
157	0x3d135795	0.035972197
158	0x3b66ec30	0.0035235994
159	0x3ca7bd9a	0.020476151
160	0xbb8a8b48	-0.0042280294
161	0x3d346cd1	0.044049088
162	0x3d1dd4a1	0.038532857
163	0xbc44e6d0	-0.012017921
164	0xbcb294c3	-0.02179945
165	0x3cf1c49e	0.0295127
166	0xbc405740	-0.011739552
167	0x3d0a94ab	0.033833187
168	0xbce8dd4a	-0.028425831
169	0x3cdb4dd2	0.026770506
170	0xbc69abbc	-0.014262136
171	0xbce076c7	-0.027400387
172	0x3c8dc0f2	0.017303918
173	0x3d1a66fd	0.037695874
174	0x3c9ec62a	0.019381601
175	0xbcc8b367	-0.024499608
176	0x3d2c889d	0.042122472
177	0x3d1f2bf3	0.038860273
178	0xbd0a0732	-0.03369827
179	0x3d04f357	0.03245863
180	0x3d2dee0d	0.04246335
181	0x3caa4ee6	0.020789575
182	0xbd3ab03a	-0.04557822
183	0xbbdfc8b0	-0.0068293437
184	0x3d28a1f7	0.041170087
185	0xbcc18961	-0.023625078
186	0xb9886f00	-0.00026022643
187	0x3d261a21	0.040552262
188	0x3c230558	0.0099500045
189	0x3d1cd1eb	0.03828613
190	0x3d1a4051	0.037658993
191	0x3d23fe59	0.040037487
192	0x3cb4fbea	0.022092778
193	0xbba6a660	-0.0050857514
194	0xbd39d6d9	-0.04537091
195	0xbc412d2c	-0.011790555
196	0x3ce91e86	0.028456938
197	0xbbb91c18	-0.005649101
198	0x3d29fd21	0.04150117
199	0xbd0bc962	-0.0341276
200	0xbccb873b	-0.024844756
201	0x3d0439e9	0.03228179
202	0xbbf30030	-0.007415794
203	0x3c46e3ec	0.012139302
204	0x3d3a5c89	0.045498405
205	0x3d19fe23	0.03759588
206	0x3d2ee01b	0.042694192
207	0x3d36f939	0.04467127
208	0x3c8b69fe	0.017018314
209	0x3cd3bb02	0.025846008
210	0x3d3f8507	0.046757724
211	0x3d39c7fb	0.04535673
212	0xbd30c590	-0.04315716
213	0x3c05072c	0.008119386
214	0x3d0408df	0.032235023
215	0xbd208e7a	-0.039198376
216	0xbc5409d8	-0.0129418
217	0x3d1fe195	0.03903349
218	0xbcafb19e	-0.021447
219	0xbc3531e8	-0.011059262
220	0xbcb463fb	-0.02202033
221	0x3b3522e0	0.0027639195
222	0x3d35feff	0.044432636
223	0xbcab8449	-0.020937102
224	0xbc1c4324	-0.009537492
225	0xbd0ca8d6	-0.034340702
226	0xba1a3000	-0.00058817863
227	0xbcdd4a82	-0.027013067
228	0xbc8a6364	-0.016893096
229	0xbcd5392e	-0.026028242
230	0x3c9932c6	0.018700968
231	0xbcf4fc21	-0.02990538
232	0xbb5db020	-0.0033826903
233	0xbd065376	-0.03279444
234	0x3cd5a93a	0.02608167
235	0xbd0e7559	-0.03477988
236	0xbbc5be30	-0.006034635
237	0x3d3ace3b	0.045606833
238	0xbd3bf8aa	-0.04589144
239	0xbc4f37d0	-0.012647584
240	0xbd1a26d1	-0.037634674
241	0xbd15d4ca	-0.036579885
242	0xbb4f40c0	-0.0031624287
243	0x3c31b3e4	0.010846112
244	0x3bf49c70	0.007464938
245	0x3d0dca35	0.034616668
246	0xbc100f64	-0.008792732
247	0x3d24178f	0.04006153
248	0x3c6fe030	0.014640853
249	0xbd2090e3	-0.039200675
250	0xbd34782f	-0.04405993
251	0x3d2babb1	0.041911785
252	0x3d056cfb	0.032574635
253	0x3ce1581e	0.027507838
254	0x3becc3c0	0.0072254837
255	0x3cfe916e	0.031075206

weight f4 [64]
0	0x3f800000	1.0
1	0x3f800000	1.0
2	0x3f800000	1.0
3	0x3f800000	1.0
4	0x3f800000	1.0
5	0x3f800000	1.0
6	0x3f800000	1.0
7	0x3f800000	1.0
8	0x3f800000	1.0
9	0x3f800000	1.0
10	0x3f800000	1.0
11	0x3f800000	1.0
12	0x3f800000	1.0
13	0x3f800000	1.0
14	0x3f800000	1.0
15	0x3f800000	1.0
16	0x3f800000	1.0
17	0x3f800000	1.0
18	0x3f800000	1.0
19	0x3f800000	1.0
20	0x3f800000	1.0
21	0x3f800000	1.0
22	0x3f800000	1.0
23	0x3f800000	1.0
24	0x3f800000	1.0
25	0x3f800000	1.0
26	0x3f800000	1.0
27	0x3f800000	1.0
28	0x3f800000	1.0
29	0x3f800000	1.0
30	0x3f800000	1.0
31	0x3f800000	1.0
32	0x3f800000	1.0
33	0x3f800000	1.0
34	0x3f800000	1.0
35	0x3f800000	1.0
36	0x3f800000	1.0
37	0x3f800000	1.0
38	0x3f800000	1.0
39	0x3f800000	1.0
40	0x3f800000	1.0
41	0x3f800000	1.0
42	0x3f800000	1.0
43	0x3f800000	1.0
44	0x3f800000	1.0
45	0x3f800000	1.0
46	0x3f800000	1.0
47	0x3f800000	1.0
48	0x3f800000	1.0
49	0x3f800000	1.0
50	0x3f800000	1.0
51	0x3f800000	1.0
52	0x3f800000	1.0
53	0x3f800000	1.0
54	0x3f800000	1.0
55	0x3f800000	1.0
56	0x3f800000	1.0
57	0x3f800000	1.0
58	0x3f800000	1.0
59	0x3f800000	1.0
60	0x3f800000	1.0
61	0x3f800000	1.0
62	0x3f800000	1.0
63	0x3f800000	1.0

bias f4 [64]
0	0x00000000	0.0
1	0x00000000	0.0
2	0x00000000	0.0
3	0x00000000	0.0
4	0x00000000	0.0
5	0x00000000	0.0
6	0x00000000	0.0
7	0x00000000	0.0
8	0x00000000	0.0
9	0x00000000	0.0
10	0x00000000	0.0
11	0x00000000	0.0
12	0x00000000	0.0
13	0x00000000	0.0
14	0x00000000	0.0
15	0x00000000	0.0
16	0x00000000	0.0
17	0x00000000	0.0
18	0x00000000	0.0
19	0x00000000	0.0
20	0x00000000	0.0
21	0x00000000	0.0
22	0x00000000	0.0
23	0x00000000	0.0
24	0x00000000	0.0
25	0x00000000	0.0
26	0x00000000	0.0
27	0x00000000	0.0
28	0x00000000	0.0
29	0x00000000	0.0
30	0x00000000	0.0
31	0x00000000	0.0
32	0x00000000	0.0
33	0x00000000	0.0
34	0x00000000	0.0
35	0x00000000	0.0
36	0x00000000	0.0
37	0x00000000	0.0
38	0x00000000	0.0
39	0x00000000	0.0
40	0x00000000	0.0
41	0x00000000	0.0
42	0x00000000	0.0
43	0x00000000	0.0
44	0x00000000	0.0
45	0x00000000	0.0
46	0x00000000	0.0
47	0x00000000	0.0
48	0x00000000	0.0
49	0x00000000	0.0
50	0x00000000	0.0
51	0x00000000	0.0
52	0x00000000	0.0
53	0x00000000	0.0
54	0x00000000	0.0
55	0x00000000	0.0
56	0x00000000	0.0
57	0x00000000	0.0
58	0x00000000	0.0
59	0x00000000	0.0
60	0x00000000	0.0
61	0x00000000	0.0
62	0x00000000	0.0
63	0x00000000	0.0

running_mean f4 [64]
0	0x00000000	0.0
1	0x00000000	0.0
2	0x00000000	0.0
3	0x00000000	0.0
4	0x00000000	0.0
5	0x00000000	0.0
6	0x00000000	0.0
7	0x00000000	0.0
8	0x00000000	0.0
9	0x00000000	0.0
10	0x00000000	0.0
11	0x00000000	0.0
12	0x00000000	0.0
13	0x00000000	0.0
14	0x00000000	0.0
15	0x00000000	0.0
16	0x00000000	0.0
17	0x00000000	0.0
18	0x00000000	0.0
19	0x00000000	0.0
20	0x00000000	0.0
21	0x00000000	0.0
22	0x00000000	0.0
23	0x00000000	0.0
24	0x00000000	0.0
25	0x00000000	0.0
26	0x00000000	0.0
27	0x00000000	0.0
28	0x00000000	0.0
29	0x00000000	0.0
30	0x00000000	0.0
31	0x00000000	0.0
32	0x00000000	0.0
33	0x00000000	0.0
34	0x00000000	0.0
35	0x00000000	0.0
36	0x00000000	0.0
37	0x00000000	0.0
38	0x00000000	0.0
39	0x00000000	0.0
40	0x00000000	0.0
41	0x00000000	0.0
42	0x00000000	0.0
43	0x00000000	0.0
44	0x00000000	0.0
45	0x00000000	0.0
46	0x00000000	0.0
47	0x00000000	0.0
48	0x00000000	0.0
49	0x00000000	0.0
50	0x00000000	0.0
51	0x00000000	0.0
52	0x00000000	0.0
53	0x00000000	0.0
54	0x00000000	0.0
55	0x00000000	0.0
56	0x00000000	0.0
57	0x00000000	0.0
58	0x00000000	0.0
59	0x00000000	0.0
60	0x00000000	0.0
61	0x00000000	0.0
62	0x00000000	0.0
63	0x00000000	0.0

running_var f4 [64]
0	0x3f800000	1.0
1	0x3f800000	1.0
2	0x3f800000	1.0
3	0x3f800000	1.0
4	0x3f800000	1.0
5	0x3f800000	1.0
6	0x3f800000	1.0
7	0x3f800000	1.0
8	0x3f800000	1.0
9	0x3f800000	1.0
10	0x3f800000	1.0
11	0x3f800000	1.0
12	0x3f800000	1.0
13	0x3f800000	1.0
14	0x3f800000	1.0
15	0x3f800000	1.0
16	0x3f800000	1.0
17	0x3f800000	1.0
18	0x3f800000	1.0
19	0x3f800000	1.0
20	0x3f800000	1.0
21	0x3f800000	1.0
22	0x3f800000	1.0
23	0x3f800000	1.0
24	0x3f800000	1.0
25	0x3f800000	1.0
26	0x3f800000	1.0
27	0x3f800000	1.0
28	0x3f800000	1.0
29	0x3f800000	1.0
30	0x3f800000	1.0
31	0x3f800000	1.0
32	0x3f800000	1.0
33	0x3f800000	1.0
34	0x3f800000	1.0
35	0x3f800000	1.0
36	0x3f800000	1.0
37	0x3f800000	1.0
38	0x3f800000	1.0
39	0x3f800000	1.0
40	0x3f800000	1.0
41	0x3f800000	1.0
42	0x3f800000	1.0
43	0x3f800000	1.0
44	0x3f800000	1.0
45	0x3f800000	1.0
46	0x3f800000	1.0
47	0x3f800000	1.0
48	0x3f800000	1.0
49	0x3f800000	1.0
50	0x3f800000	1.0
51	0x3f800000	1.0
52	0x3f800000	1.0
53	0x3f800000	1.0
54	0x3f800000	1.0
55	0x3f800000	1.0
56	0x3f800000	1.0
57	0x3f800000	1.0
58	0x3f800000	1.0
59	0x3f800000	1.0
60	0x3f800000	1.0
61	0x3f800000	1.0
62	0x3f800000	1.0
63	0x3f800000	1.0
