Code_darts/Search/operator_pt/wisdm2019/DepthConv-23x64-23x64-7-1-1.pt (torch, 125456 bytes, 5 tensors)

weight f4 [64, 64, 7]
-0.039229855 0.033868555 -0.011516988 0.03488939 -0.038199496 0.02048603 0.024711933 0.039283518
0.039972987 0.015338834 0.014992163 0.022707734 0.011212926 -0.022892829 0.0038641393 0.037942957
0.018074248 0.020955969 -0.04588586 0.023036215 0.008202113 0.016173128 -0.02055481 0.043197114
0.029115882 0.046773005 -0.033808608 0.029746685 0.015941683 -0.024898587 0.0088019 -0.020127498
-0.0038252622 0.031155784 0.04487097 0.016312916 0.031195592 -0.009814594 0.0031700656 0.033941727
0.0302164 -0.045929402 0.023919586 0.013207268 -0.019702656 0.019673761 -0.0031260252 0.0408306
-0.044585288 -0.03502199 0.017865341 -0.034145903 0.035687376 0.021307591 -0.004118819 0.039546657
-0.028988017 -0.010618988 -0.013252687 0.042479116 0.029016983 -0.029907638 -0.02050348 0.037484642
-0.034210954 -0.0053976662 0.02274746 -0.008461356 -0.044555392 -0.026606608 -0.027331427 -0.026117116
-0.018571194 0.03605498 -0.044423938 -0.043388393 0.042885903 0.005379826 -0.028719168 -0.031904425
-0.031784657 -0.01871546 0.021273497 0.014268056 -0.0021313578 0.029960271 0.029328544 -0.040692426
0.009418525 -0.037834197 -0.033791825 -0.0348311 0.005982369 0.037382532 -0.0050639585 0.00867587
-0.044909034 0.0098779015 -0.005680613 -0.0016506314 -0.020521864 -0.041097954 -0.011170812 0.0091944225
-0.019318756 0.006963011 -0.043079577 0.02810904 -0.03691918 0.041336272 0.019162323 -0.032845568
-0.019544106 0.036642123 -0.04670265 0.03924076 -0.0135276355 -0.026993569 0.0056116693 0.029589612
0.042399514 -0.013949461 0.01206078 -0.0120976195 0.0037871674 -0.018569753 0.034837026 -0.036195997
-0.023560539 0.01632798 0.013329536 -0.020148095 -0.044706292 0.017628375 0.0202001 -0.045173787
-0.027931089 0.041234005 -0.04289074 -0.016407479 0.006783657 -0.0424675 0.020968746 0.023115125
0.035910916 0.03215674 -0.04609818 -0.045397107 -0.009487599 -0.03732876 -0.014974378 -0.0243166
-0.016259415 -0.0054344162 -0.04656156 -0.04505187 0.01215687 0.02309208 -0.019680556 -0.012599982
-0.015024476 0.018387351 -0.045354098 -0.012445085 -0.04428953 0.004273165 -0.010111477 0.027296979
0.026723463 0.0023739636 -0.039253756 0.015309665 -0.04463018 -0.01041729 -0.04202742 -0.04250553
-0.016565785 -0.015018329 -0.026859017 -0.015657082 0.019537289 0.02657425 -0.018356515 -0.043887567
-0.04009051 -0.027498646 -0.01302791 0.014313865 0.046749417 0.027172912 0.030581523 -0.017780457
-0.032581966 -0.026745992 -0.027124623 -0.04206317 -0.018214185 -0.04056657 0.026807401 0.040234555
-0.010052346 0.0063084364 0.02397566 0.03329805 -0.0321614 0.044270445 0.0064694397 -0.042612765
-0.01265553 0.027085397 -0.01650283 -0.0021395385 0.0023604408 -0.0244994 -0.01760425 0.005739987
0.039715942 -0.0005784109 -0.0074304976 0.0009461716 -0.033217017 -0.042517368 0.0435266 -0.0353434
-0.028900865 -0.00210277 0.02101991 0.019916262 -0.03720006 0.02674907 0.039067183 0.0050191097
0.044711765 -0.031464078 0.028761338 -0.030138787 0.047115136 0.023096655 -0.027903797 -0.03003079
0.031365786 0.04179096 0.018911306 0.027207512 -0.01676551 0.023328055 -0.015934974 -0.022175862
0.012295995 0.028457154 0.04289419 -0.042242903 0.0031960458 0.003477767 0.04590665 -0.02545171
00000000: 7caf 20bd c1b9 0a3d c0b1 3cbc 2de8 0e3d
00000010: 1377 1cbd 52d2 a73c ae70 ca3c c1e7 203d
00000020: b7ba 233d bc4f 7b3c b0a1 753c 9205 ba3c
00000030: 6cb6 373c be89 bbbc 803d 7d3b 136a 1b3d
00000040: 7210 943c daab ab3c d0f2 3bbd 72b6 bc3c
00000050: 2862 063c 827d 843c 9062 a8bc 75ef 303d
00000060: 6e84 ee3c 0d95 3f3d e57a 0abd 52af f33c
00000070: 2298 823c 1ff8 cbbc d835 103c 6ce2 a4bc
00000080: 40b1 7abb 6a3a ff3c 9fca 373d aaa2 853c
00000090: e68d ff3c 64cd 20bc e0c0 4f3b 7b06 0b3d
000000a0: 6288 f73c 7820 3cbd 02f3 c33c 4c63 583c
000000b0: 7767 a1bc de2a a13c 00de 4cbb fd3d 273d
000000c0: 109f 36bd 3873 0fbd 565a 923c 93dc 0bbd
000000d0: ed2c 123d 428d ae3c 28f7 86bb adfb 213d
000000e0: 4778 edbc 44fb 2dbc cc21 59bc 95fe 2d3d
000000f0: 06b5 ed3c dd00 f5bc eaf6 a7bc 7f89 193d
00000100: c920 0cbd e8de b0bb e258 ba3c 80a1 0abc
00000110: b77f 36bd 1af6 d9bc 28e6 dfbc 90f3 d5bc
00000120: 9e22 98bc 63ae 133d e0f5 35bd 07b8 31bd
00000130: 21a9 2f3d 4049 b03b 7644 ebbc 37ae 02bd
00000140: a130 02bd 2a51 99bc c245 ae3c 90c4 693c
00000150: 40ae 0bbb 3e6f f53c 6a42 f03c 1aad 26bd
00000160: 2850 1a3c 08f8 1abd 4c69 0abd 0eab 0ebd
00000170: c007 c43b 6d1e 193d 90ef a5bb 3c25 0e3c
00000180: 89f2 37bd ecd6 213c 7024 babb 005a d8ba
00000190: 781d a8bc 5456 28bd c805 37bc 34a4 163c
000001a0: 5e42 9ebc f829 e43b 3674 30bd ee44 e63c
000001b0: 9138 17bd 3950 293d 4efa 9c3c 1389 06bd
000001c0: f61a a0bc 0d16 163d 474b 3fbd ebba 203d
000001d0: 04a3 5dbc 9e21 ddbc 18e2 b73b ea65 f23c
000001e0: 1dab 2d3d 488c 64bc 949a 453c 1835 46bc
000001f0: 2032 783b 981f 98bc 45b1 0e3d 4142 14bd
00000200: 0802 c1bc 42c2 853c 2064 5a3c 9e0d a5bc
00000210: f21d 37bd 6269 903c ae7a a53c 2608 39bd
00000220: bdcf e4bc fde4 283d 33ae 2fbd fa68 86bc
00000230: 7049 de3b 67f2 2dbd a6c6 ab3c ee5b bd3c
00000240: 5317 133d c9b6 033d 72d1 3cbd 51f2 39bd
00000250: e071 1bbc 0be6 18bd 1857 75bc 9b33 c7bc
00000260: 7732 85bc 3013 b2bb 56b7 3ebd 4f88 38bd
00000270: 9c2d 473c 9a2b bd3c 1e39 a1bc 2870 4ebc
00000280: 3829 76bc 12a1 963c 38c5 39bd 78e6 4bbc
00000290: f068 35bd e805 8c3b 9caa 25bc ea9d df3c
000002a0: 2aeb da3c 8094 1b3b 8cc8 20bd 64d5 7a3c
000002b0: 23ce 36bd 48ad 2abc f224 2cbd 471a 2ebd
000002c0: f8b4 87bc 700f 76bc 7107 dcbc 4843 80bc
000002d0: aa0c a03c 3eb2 d93c 6760 96bc 73c3 33bd
000002e0: f235 24bd d744 e1bc 0473 55bc b484 6a3c
000002f0: 517c 3f3d ba99 de3c 1a86 fa3c 52a8 91bc
00000300: ab74 05bd 691a dbbc 7534 debc 6e4a 2cbd
00000310: ea35 95bc 2229 26bd 329b db3c fdcc 243d
00000320: 98b2 24bc 00b7 ce3b 9a68 c43c 8963 083d
00000330: acbb 03bd ed54 353d 98fd d33b b98a 2ebd
00000340: 2459 4fbc 32e2 dd3c f130 87bc 8037 0cbb
00000350: a0b1 1a3b f7b2 c8bc ca36 90bc 8016 bc3b
00000360: 2fad 223d 80a0 17ba 887b f3bb 8008 783a
00000370: 910e 08bd b126 2ebd f348 323d 3ec4 10bd
00000380: 82c1 ecbc a0ce 09bb f231 ac3c 6e27 a33c
00000390: 175f 18bd de20 db3c e904 203d 5877 a43b
000003a0: af23 373d 7ae0 00bd e69c eb3c 9ee5 f6bc
000003b0: cdfb 403d 3235 bd3c 8196 e4bc 2203 f6bc
000003c0: 6979 003d ff2c 2b3d e2eb 9a3c 4ae2 de3c
000003d0: d357 89bc 7a1a bf3c 108a 82bc 27aa b5bc
000003e0: 2475 493c fa1e e93c d1b1 2f3d e506 2dbd
000003f0: c074 513b 40eb 633b 9d08 3c3d 1b80 d0bc

weight f4 [64]
1.0 1.0 1.0 1.0 1.0 1.0 1.0 1.0
1.0 1.0 1.0 1.0 1.0 1.0 1.0 1.0
1.0 1.0 1.0 1.0 1.0 1.0 1.0 1.0
1.0 1.0 1.0 1.0 1.0 1.0 1.0 1.0
1.0 1.0 1.0 1.0 1.0 1.0 1.0 1.0
1.0 1.0 1.0 1.0 1.0 1.0 1.0 1.0
1.0 1.0 1.0 1.0 1.0 1.0 1.0 1.0
1.0 1.0 1.0 1.0 1.0 1.0 1.0 1.0
00000000: 0000 803f 0000 803f 0000 803f 0000 803f
00000010: 0000 803f 0000 803f 0000 803f 0000 803f
00000020: 0000 803f 0000 803f 0000 803f 0000 803f
00000030: 0000 803f 0000 803f 0000 803f 0000 803f
00000040: 0000 803f 0000 803f 0000 803f 0000 803f
00000050: 0000 803f 0000 803f 0000 803f 0000 803f
00000060: 0000 803f 0000 803f 0000 803f 0000 803f
00000070: 0000 803f 0000 803f 0000 803f 0000 803f
00000080: 0000 803f 0000 803f 0000 803f 0000 803f
00000090: 0000 803f 0000 803f 0000 803f 0000 803f
000000a0: 0000 803f 0000 803f 0000 803f 0000 803f
000000b0: 0000 803f 0000 803f 0000 803f 0000 803f
000000c0: 0000 803f 0000 803f 0000 803f 0000 803f
000000d0: 0000 803f 0000 803f 0000 803f 0000 803f
000000e0: 0000 803f 0000 803f 0000 803f 0000 803f
000000f0: 0000 803f 0000 803f 0000 803f 0000 803f

bias f4 [64]
0.0 0.0 0.0 0.0 0.0 0.0 0.0 0.0
0.0 0.0 0.0 0.0 0.0 0.0 0.0 0.0
0.0 0.0 0.0 0.0 0.0 0.0 0.0 0.0
0.0 0.0 0.0 0.0 0.0 0.0 0.0 0.0
0.0 0.0 0.0 0.0 0.0 0.0 0.0 0.0
0.0 0.0 0.0 0.0 0.0 0.0 0.0 0.0
0.0 0.0 0.0 0.0 0.0 0.0 0.0 0.0
0.0 0.0 0.0 0.0 0.0 0.0 0.0 0.0
00000000: 0000 0000 0000 0000 0000 0000 0000 0000
00000010: 0000 0000 0000 0000 0000 0000 0000 0000
00000020: 0000 0000 0000 0000 0000 0000 0000 0000
00000030: 0000 0000 0000 0000 0000 0000 0000 0000
00000040: 0000 0000 0000 0000 0000 0000 0000 0000
00000050: 0000 0000 0000 0000 0000 0000 0000 0000
00000060: 0000 0000 0000 0000 0000 0000 0000 0000
00000070: 0000 0000 0000 0000 0000 0000 0000 0000
00000080: 0000 0000 0000 0000 0000 0000 0000 0000
00000090: 0000 0000 0000 0000 0000 0000 0000 0000
000000a0: 0000 0000 0000 0000 0000 0000 0000 0000
000000b0: 0000 0000 0000 0000 0000 0000 0000 0000
000000c0: 0000 0000 0000 0000 0000 0000 0000 0000
000000d0: 0000 0000 0000 0000 0000 0000 0000 0000
000000e0: 0000 0000 0000 0000 0000 0000 0000 0000
000000f0: 0000 0000 0000 0000 0000 0000 0000 0000

running_mean f4 [64]
0.0 0.0 0.0 0.0 0.0 0.0 0.0 0.0
0.0 0.0 0.0 0.0 0.0 0.0 0.0 0.0
0.0 0.0 0.0 0.0 0.0 0.0 0.0 0.0
0.0 0.0 0.0 0.0 0.0 0.0 0.0 0.0
0.0 0.0 0.0 0.0 0.0 0.0 0.0 0.0
0.0 0.0 0.0 0.0 0.0 0.0 0.0 0.0
0.0 0.0 0.0 0.0 0.0 0.0 0.0 0.0
0.0 0.0 0.0 0.0 0.0 0.0 0.0 0.0
00000000: 0000 0000 0000 0000 0000 0000 0000 0000
00000010: 0000 0000 0000 0000 0000 0000 0000 0000
00000020: 0000 0000 0000 0000 0000 0000 0000 0000
00000030: 0000 0000 0000 0000 0000 0000 0000 0000
00000040: 0000 0000 0000 0000 0000 0000 0000 0000
00000050: 0000 0000 0000 0000 0000 0000 0000 0000
00000060: 0000 0000 0000 0000 0000 0000 0000 0000
00000070: 0000 0000 0000 0000 0000 0000 0000 0000
00000080: 0000 0000 0000 0000 0000 0000 0000 0000
00000090: 0000 0000 0000 0000 0000 0000 0000 0000
000000a0: 0000 0000 0000 0000 0000 0000 0000 0000
000000b0: 0000 0000 0000 0000 0000 0000 0000 0000
000000c0: 0000 0000 0000 0000 0000 0000 0000 0000
000000d0: 0000 0000 0000 0000 0000 0000 0000 0000
000000e0: 0000 0000 0000 0000 0000 0000 0000 0000
000000f0: 0000 0000 0000 0000 0000 0000 0000 0000

running_var f4 [64]
1.0 1.0 1.0 1.0 1.0 1.0 1.0 1.0
1.0 1.0 1.0 1.0 1.0 1.0 1.0 1.0
1.0 1.0 1.0 1.0 1.0 1.0 1.0 1.0
1.0 1.0 1.0 1.0 1.0 1.0 1.0 1.0
1.0 1.0 1.0 1.0 1.0 1.0 1.0 1.0
1.0 1.0 1.0 1.0 1.0 1.0 1.0 1.0
1.0 1.0 1.0 1.0 1.0 1.0 1.0 1.0
1.0 1.0 1.0 1.0 1.0 1.0 1.0 1.0
00000000: 0000 803f 0000 803f 0000 803f 0000 803f
00000010: 0000 803f 0000 803f 0000 803f 0000 803f
00000020: 0000 803f 0000 803f 0000 803f 0000 803f
00000030: 0000 803f 0000 803f 0000 803f 0000 803f
00000040: 0000 803f 0000 803f 0000 803f 0000 803f
00000050: 0000 803f 0000 803f 0000 803f 0000 803f
00000060: 0000 803f 0000 803f 0000 803f 0000 803f
00000070: 0000 803f 0000 803f 0000 803f 0000 803f
00000080: 0000 803f 0000 803f 0000 803f 0000 803f
00000090: 0000 803f 0000 803f 0000 803f 0000 803f
000000a0: 0000 803f 0000 803f 0000 803f 0000 803f
000000b0: 0000 803f 0000 803f 0000 803f 0000 803f
000000c0: 0000 803f 0000 803f 0000 803f 0000 803f
000000d0: 0000 803f 0000 803f 0000 803f 0000 803f
000000e0: 0000 803f 0000 803f 0000 803f 0000 803f
000000f0: 0000 803f 0000 803f 0000 803f 0000 803f
