Code_darts/Search/operator_pt/wisdm2019/DepthConv-23x64-23x64-9-1-1.pt (torch, 158224 bytes, 5 tensors)

weight f4 [64, 64, 9]
0	0x3d0a6615	0.03378876
1	0xbcf2f56e	-0.029658046
2	0x3c7d6110	0.015465036
3	0xbc4cbfd6	-0.012496909
4	0xbd03fb0c	-0.03222184
5	0x3ce68f2e	0.028144445
6	0x3cde3c52	0.027128372
7	0x3c09bccc	0.008406829
8	0x3cb15a66	0.02164955
9	0xbc6107fc	-0.013734814
10	0x3d0579b7	0.03258678
11	0xbc8b81c0	-0.017029643
12	0x3d0c2c41	0.03422189
13	0x3d06de6d	0.032926966
14	0x3cec7db6	0.028868537
15	0x3d05fba9	0.032710705
16	0xbd09962a	-0.033590473
17	0xbd1098b3	-0.035301875
18	0xbce85896	-0.028362554
19	0x3cf308e2	0.029667322
20	0xbcaf7413	-0.021417653
21	0x3caff242	0.021477822
22	0x3b6513c0	0.00349544
23	0xbc02c5ec	-0.007981759
24	0xbcd1dafb	-0.025617113
25	0x3c8ae618	0.01695542
26	0x3c1e4f2c	0.009662431
27	0xbbd6e1c0	-0.006557673
28	0x3cebae7a	0.02876972
29	0x3cf6563a	0.030070413
30	0x3cbe0242	0.023194436
31	0xbc85c778	-0.016330466
32	0xbd01f947	-0.03173187
33	0x3d21a691	0.03946549
34	0x3c7ef604	0.015561584
35	0x3b65a530	0.0035041086
36	0x3bf47548	0.00746027
37	0xbceea386	-0.029130708
38	0x3c7953ec	0.015217762
39	0xbcf55256	-0.029946487
40	0x3cc6883a	0.02423488
41	0xbd00567c	-0.031332478
42	0x3c022784	0.007943992
43	0xbc902b23	-0.017598694
44	0x3a486c00	0.0007645488
45	0xbc8f66b3	-0.017505025
46	0xbc7bbe3c	-0.01536518
47	0xbcd19f63	-0.025588697
48	0xbc2666e4	-0.010156367
49	0xbbeddf68	-0.007259298
50	0x3bf44718	0.007454764
51	0xbb076a30	-0.0020662658
52	0xbca0bf68	-0.01962252
53	0x3b2e0d10	0.0026558079
54	0xbb535990	-0.0032249428
55	0xbc29f040	-0.0103722215
56	0x3d0ed38b	0.03486971
57	0xbc25be40	-0.01011616
58	0x3d03c991	0.03217465
59	0x3cbf0352	0.023317013
60	0x3cf58d3a	0.029974569
61	0x3c65215c	0.013985004
62	0xbcdd5886	-0.02701975
63	0xbc35cb90	-0.011095896
64	0x3d1a0509	0.03760246
65	0xbd02627e	-0.03183221
66	0x3d1d6a99	0.038431738
67	0x3d127181	0.035752777
68	0x3d0037f9	0.03130338
69	0x3bcf06a0	0.0063179284
70	0x3c966c2e	0.018362131
71	0xbca68290	-0.020325929
72	0x3c71dc30	0.014761969
73	0xbcf47b0e	-0.029843833
74	0x3b159680	0.00228253
75	0xbd17c01e	-0.03704845
76	0xbd261744	-0.04054953
77	0xbd1eff9a	-0.03881798
78	0xbc448e9c	-0.011996891
79	0xbcc8238b	-0.02443101
80	0xbcc43188	-0.0239494
81	0x3cca7582	0.024714235
82	0xbcf3a796	-0.029742997
83	0x3bc88d88	0.0061203875
84	0x3bc9fad8	0.006163936
85	0xbced9433	-0.029001331
86	0x3c5a779c	0.013334181
87	0x3ce95cf2	0.028486703
88	0xbd252bdc	-0.04032503
89	0xbd222db0	-0.039594352
90	0x3cd5982a	0.026073534
91	0x3b76b440	0.0037644058
92	0x3cac641e	0.021043833
93	0x3cc63192	0.024193559
94	0x3b9442c8	0.0045245625
95	0xbd209dc0	-0.039212942
96	0xbc44cf66	-0.012012338
97	0x3c7ab5fc	0.0153021775
98	0xbd2a98ef	-0.041649755
99	0x3b20f880	0.002456218
100	0xba2e5240	-0.00066498294
101	0x3cc66e36	0.024222475
102	0xbd139304	-0.036028877
103	0x38a61e00	7.921085e-05
104	0x3ca39348	0.01996769
105	0xbb49b840	-0.0030779988
106	0xbd01d053	-0.031692814
107	0xbc9ac378	-0.018892035
108	0x3cc5f3aa	0.02416404
109	0xbcfb4d83	-0.030676609
110	0xbc24d594	-0.010060687
111	0x3a73b500	0.00092966855
112	0x3a8e0380	0.0010834783
113	0x3c8e6620	0.017382681
114	0xbd286c6f	-0.041119035
115	0xbcf986d6	-0.030459803
116	0xbb84bae0	-0.0040505975
117	0xbc43f7dc	-0.01196095
118	0xbd213454	-0.039356545
119	0x3ca95c4a	0.02067389
120	0x3cb35112	0.021889243
121	0x3ced402a	0.02896126
122	0x3b7df1f0	0.0038748942
123	0xbd25f0fb	-0.04051302
124	0xbd080152	-0.033204384
125	0xbc4820a6	-0.012214815
126	0x3d0eb90b	0.03484444
127	0xbd1a89a8	-0.037728935
128	0x3cc3b0ea	0.02388807
129	0xbb6097d0	-0.0034270175
130	0xbc32c800	-0.0109119415
131	0xbd185ee7	-0.03719988
132	0xbd0b265c	-0.03397213
133	0xbbc9b580	-0.0061556697
134	0xbd2068d8	-0.039162487
135	0x3bae6d00	0.0053230524
136	0x3c779b34	0.015112687
137	0xbc158574	-0.009126056
138	0x3c272f4c	0.010204148
139	0xbc63a776	-0.013894906
140	0xbd159ff2	-0.03652949
141	0xbbdd6de8	-0.0067574866
142	0x3acc5e60	0.0015592091
143	0x3d29789b	0.041374784
144	0x3cdf083e	0.02722561
145	0x3d03e363	0.032199275
146	0xbd170cc4	-0.03687741
147	0x3cd2710e	0.025688674
148	0x3cf32b2a	0.029683668
149	0xbce49a0e	-0.02790549
150	0x3c8421f0	0.016129464
151	0xbd2423e7	-0.0400733
152	0xbcd7656b	-0.026293477
153	0x3d25ff5d	0.040526737
154	0xbcb89423	-0.022531575
155	0x39a34880	0.000311438
156	0x3c48a0dc	0.012245383
157	0xbcf92b78	-0.030416235
158	0xbcafa743	-0.021442061
159	0xbd22d94e	-0.03975802
160	0xbd16d52b	-0.036824387
161	0x3d28cdc3	0.041211855
162	0xbc72ad36	-0.0148118045
163	0xbd0842e4	-0.033266917
164	0x3cc2e76a	0.023791987
165	0xbbb11ca0	-0.0054050237
166	0xbc0d9f34	-0.008643914
167	0xbb1466c0	-0.0022644252
168	0xbcc58076	-0.024109107
169	0xbcacfcf0	-0.021116704
170	0xbd1e95b3	-0.038716983
171	0x3c8a64f8	0.016893849
172	0xbcf626be	-0.03004777
173	0x3cc6664e	0.024218705
174	0xbd044cac	-0.032299682
175	0x3ba08f98	0.00489993
176	0x3cff6792	0.031177316
177	0x3c400224	0.01171926
178	0xbca01443	-0.019540912
179	0x3d0a9d91	0.033841673
180	0x3c77b5ac	0.015118998
181	0x3cda0da6	0.026617836
182	0xbc2fff76	-0.010742059
183	0x3d1a8bad	0.03773086
184	0xbc446e8c	-0.011989247
185	0x3c8d8c3a	0.01727878
186	0xbbf3cce0	-0.0074401945
187	0x3c39c454	0.011338312
188	0xbceb8518	-0.028749987
189	0xbc1458b4	-0.009054352
190	0xbc2426fc	-0.01001906
191	0xbca657d3	-0.02030555
192	0x3d18743b	0.03722022
193	0xbccd9268	-0.025094226
194	0x3cf219ca	0.029553313
195	0x3b92d478	0.0044808947
196	0x3c7b3290	0.015331879
197	0x3d0ed2a1	0.03486884
198	0xbc59a990	-0.013285056
199	0x3c49163c	0.0122733675
200	0x3c18aa00	0.009317875
201	0xbceddc0e	-0.029035594
202	0xbc7057b0	-0.014669344
203	0x3c865892	0.016399655
204	0x3c2d10f4	0.010563124
205	0xbd2014f2	-0.039082475
206	0x3d057a4f	0.032587346
207	0x3c92506a	0.01786061
208	0x3c8ff668	0.01757355
209	0xbcaa931b	-0.020822098
210	0xbcbec646	-0.023287904
211	0x3c288ce0	0.0102874935
212	0xbd172452	-0.036899872
213	0xbd0d3fc8	-0.034484655
214	0x3c80fc2e	0.015745249
215	0xbc65da56	-0.014029106
216	0xbc35a3fc	-0.01108646
217	0x3d1700d5	0.036866028
218	0xbd1d61f2	-0.038423486
219	0x3c0c93dc	0.008580174
220	0x3c985b9a	0.018598367
221	0xbab45be0	-0.0013760291
222	0x3af357a0	0.0018565543
223	0x3cf1b7d2	0.029506598
224	0x3d01a95d	0.031655658
225	0x3cba613e	0.022751447
226	0xbb760f90	-0.0037545897
227	0x39ad3780	0.00033038482
228	0x3d1b4939	0.037911627
229	0xbbcac5f8	-0.0061881505
230	0xbd28cd4b	-0.041211408
231	0xbcebef73	-0.028800702
232	0xbcd64d86	-0.026160013
233	0x3cf0d9c2	0.02940071
234	0xbbb1ae20	-0.0054223686
235	0x3c5bf860	0.013425916
236	0xbc20981c	-0.009801891
237	0xbc85cd6b	-0.016333302
238	0x3bdc3f20	0.0067213923
239	0x3d175d29	0.03695408
240	0xbaf6a4e0	-0.0018817447
241	0xbd18ddcc	-0.037320897
242	0x3c5ab844	0.013349596
243	0x3ce837be	0.028346892
244	0x3ccf6cba	0.0253204
245	0x3ca5f662	0.020259086
246	0x3cb7862e	0.022402849
247	0xbc83694b	-0.016041419
248	0x3c7bc6cc	0.015367221
249	0xbd275374	-0.04085107
250	0x3cb957d2	0.022624884
251	0x3bae26c8	0.0053146817
252	0x3cc713ae	0.024301376
253	0xbcf3dc58	-0.029768154
254	0x3ccaaec6	0.024741542
255	0x3c283be0	0.010268182

weight f4 [64]
0	0x3f800000	1.0
1	0x3f800000	1.0
2	0x3f800000	1.0
3	0x3f800000	1.0
4	0x3f800000	1.0
5	0x3f800000	1.0
6	0x3f800000	1.0
7	0x3f800000	1.0
8	0x3f800000	1.0
9	0x3f800000	1.0
10	0x3f800000	1.0
11	0x3f800000	1.0
12	0x3f800000	1.0
13	0x3f800000	1.0
14	0x3f800000	1.0
15	0x3f800000	1.0
16	0x3f800000	1.0
17	0x3f800000	1.0
18	0x3f800000	1.0
19	0x3f800000	1.0
20	0x3f800000	1.0
21	0x3f800000	1.0
22	0x3f800000	1.0
23	0x3f800000	1.0
24	0x3f800000	1.0
25	0x3f800000	1.0
26	0x3f800000	1.0
27	0x3f800000	1.0
28	0x3f800000	1.0
29	0x3f800000	1.0
30	0x3f800000	1.0
31	0x3f800000	1.0
32	0x3f800000	1.0
33	0x3f800000	1.0
34	0x3f800000	1.0
35	0x3f800000	1.0
36	0x3f800000	1.0
37	0x3f800000	1.0
38	0x3f800000	1.0
39	0x3f800000	1.0
40	0x3f800000	1.0
41	0x3f800000	1.0
42	0x3f800000	1.0
43	0x3f800000	1.0
44	0x3f800000	1.0
45	0x3f800000	1.0
46	0x3f800000	1.0
47	0x3f800000	1.0
48	0x3f800000	1.0
49	0x3f800000	1.0
50	0x3f800000	1.0
51	0x3f800000	1.0
52	0x3f800000	1.0
53	0x3f800000	1.0
54	0x3f800000	1.0
55	0x3f800000	1.0
56	0x3f800000	1.0
57	0x3f800000	1.0
58	0x3f800000	1.0
59	0x3f800000	1.0
60	0x3f800000	1.0
61	0x3f800000	1.0
62	0x3f800000	1.0
63	0x3f800000	1.0

bias f4 [64]
0	0x00000000	0.0
1	0x00000000	0.0
2	0x00000000	0.0
3	0x00000000	0.0
4	0x00000000	0.0
5	0x00000000	0.0
6	0x00000000	0.0
7	0x00000000	0.0
8	0x00000000	0.0
9	0x00000000	0.0
10	0x00000000	0.0
11	0x00000000	0.0
12	0x00000000	0.0
13	0x00000000	0.0
14	0x00000000	0.0
15	0x00000000	0.0
16	0x00000000	0.0
17	0x00000000	0.0
18	0x00000000	0.0
19	0x00000000	0.0
20	0x00000000	0.0
21	0x00000000	0.0
22	0x00000000	0.0
23	0x00000000	0.0
24	0x00000000	0.0
25	0x00000000	0.0
26	0x00000000	0.0
27	0x00000000	0.0
28	0x00000000	0.0
29	0x00000000	0.0
30	0x00000000	0.0
31	0x00000000	0.0
32	0x00000000	0.0
33	0x00000000	0.0
34	0x00000000	0.0
35	0x00000000	0.0
36	0x00000000	0.0
37	0x00000000	0.0
38	0x00000000	0.0
39	0x00000000	0.0
40	0x00000000	0.0
41	0x00000000	0.0
42	0x00000000	0.0
43	0x00000000	0.0
44	0x00000000	0.0
45	0x00000000	0.0
46	0x00000000	0.0
47	0x00000000	0.0
48	0x00000000	0.0
49	0x00000000	0.0
50	0x00000000	0.0
51	0x00000000	0.0
52	0x00000000	0.0
53	0x00000000	0.0
54	0x00000000	0.0
55	0x00000000	0.0
56	0x00000000	0.0
57	0x00000000	0.0
58	0x00000000	0.0
59	0x00000000	0.0
60	0x00000000	0.0
61	0x00000000	0.0
62	0x00000000	0.0
63	0x00000000	0.0

running_mean f4 [64]
0	0x00000000	0.0
1	0x00000000	0.0
2	0x00000000	0.0
3	0x00000000	0.0
4	0x00000000	0.0
5	0x00000000	0.0
6	0x00000000	0.0
7	0x00000000	0.0
8	0x00000000	0.0
9	0x00000000	0.0
10	0x00000000	0.0
11	0x00000000	0.0
12	0x00000000	0.0
13	0x00000000	0.0
14	0x00000000	0.0
15	0x00000000	0.0
16	0x00000000	0.0
17	0x00000000	0.0
18	0x00000000	0.0
19	0x00000000	0.0
20	0x00000000	0.0
21	0x00000000	0.0
22	0x00000000	0.0
23	0x00000000	0.0
24	0x00000000	0.0
25	0x00000000	0.0
26	0x00000000	0.0
27	0x00000000	0.0
28	0x00000000	0.0
29	0x00000000	0.0
30	0x00000000	0.0
31	0x00000000	0.0
32	0x00000000	0.0
33	0x00000000	0.0
34	0x00000000	0.0
35	0x00000000	0.0
36	0x00000000	0.0
37	0x00000000	0.0
38	0x00000000	0.0
39	0x00000000	0.0
40	0x00000000	0.0
41	0x00000000	0.0
42	0x00000000	0.0
43	0x00000000	0.0
44	0x00000000	0.0
45	0x00000000	0.0
46	0x00000000	0.0
47	0x00000000	0.0
48	0x00000000	0.0
49	0x00000000	0.0
50	0x00000000	0.0
51	0x00000000	0.0
52	0x00000000	0.0
53	0x00000000	0.0
54	0x00000000	0.0
55	0x00000000	0.0
56	0x00000000	0.0
57	0x00000000	0.0
58	0x00000000	0.0
59	0x00000000	0.0
60	0x00000000	0.0
61	0x00000000	0.0
62	0x00000000	0.0
63	0x00000000	0.0

running_var f4 [64]
0	0x3f800000	1.0
1	0x3f800000	1.0
2	0x3f800000	1.0
3	0x3f800000	1.0
4	0x3f800000	1.0
5	0x3f800000	1.0
6	0x3f800000	1.0
7	0x3f800000	1.0
8	0x3f800000	1.0
9	0x3f800000	1.0
10	0x3f800000	1.0
11	0x3f800000	1.0
12	0x3f800000	1.0
13	0x3f800000	1.0
14	0x3f800000	1.0
15	0x3f800000	1.0
16	0x3f800000	1.0
17	0x3f800000	1.0
18	0x3f800000	1.0
19	0x3f800000	1.0
20	0x3f800000	1.0
21	0x3f800000	1.0
22	0x3f800000	1.0
23	0x3f800000	1.0
24	0x3f800000	1.0
25	0x3f800000	1.0
26	0x3f800000	1.0
27	0x3f800000	1.0
28	0x3f800000	1.0
29	0x3f800000	1.0
30	0x3f800000	1.0
31	0x3f800000	1.0
32	0x3f800000	1.0
33	0x3f800000	1.0
34	0x3f800000	1.0
35	0x3f800000	1.0
36	0x3f800000	1.0
37	0x3f800000	1.0
38	0x3f800000	1.0
39	0x3f800000	1.0
40	0x3f800000	1.0
41	0x3f800000	1.0
42	0x3f800000	1.0
43	0x3f800000	1.0
44	0x3f800000	1.0
45	0x3f800000	1.0
46	0x3f800000	1.0
47	0x3f800000	1.0
48	0x3f800000	1.0
49	0x3f800000	1.0
50	0x3f800000	1.0
51	0x3f800000	1.0
52	0x3f800000	1.0
53	0x3f800000	1.0
54	0x3f800000	1.0
55	0x3f800000	1.0
56	0x3f800000	1.0
57	0x3f800000	1.0
58	0x3f800000	1.0
59	0x3f800000	1.0
60	0x3f800000	1.0
61	0x3f800000	1.0
62	0x3f800000	1.0
63	0x3f800000	1.0
