Code_darts/Search/operator_pt/wisdm2019/DilatedDepthConv-23x64-23x64-3-1-2.pt (torch, 60039 bytes, 5 tensors)

weight f4 [64, 64, 3]
00000000: 0b47 10bd 9a2a 37bd 3253 0dbd 9ecc 2d3d
00000010: 603a 0bbd 0007 d03b d716 61bd cc92 7e3d
00000020: 4114 26bd 60f2 78bb e422 cd3c 3c4e 873d
00000030: 4843 02bd c468 45bc 0e9a 62bd 3846 c8bc
00000040: 7603 c7bc 8495 103d 1603 483d 6411 6bbc
00000050: 6c36 4abc 3f6a 85bd e056 29bb 081d 3a3c
00000060: d8cd 99bc d5ba 46bd 7487 0bbd b695 1d3d
00000070: 9184 03bd c8f4 803c 0daa 5cbd 5ef2 babc
00000080: fee3 4a3d 24f4 7fbd d04a 033c 487c 20bc
00000090: 1a79 3ebd 2619 70bd 589d 14bd e03a d03c
000000a0: c071 453c 80ec 863a 9ce0 7c3d b6ad 19bd
000000b0: e465 703d 7ddd 02bd d025 4d3d 7da1 01bd
000000c0: 6093 24bb fd84 7abd a01b 393b 617d 69bd
000000d0: 48d9 673d 0c9a 9cbc 9ce4 06bd b07e 063d
000000e0: a4b5 8a3d f0f2 763c 0803 98bc c6c1 aebc
000000f0: 1249 193d 5000 5bbc 6000 ef3b 2c85 753d
00000100: b0c0 de3c 2837 873d 6848 ba3c 5989 40bd
00000110: 8e32 85bd 0297 883d 3434 983c 9d04 4ebd
00000120: 90c9 b5bb 046c 073d 00d4 6d3a 0021 663a
00000130: 6934 82bd 6485 883d 168a 65bd 1267 8c3d
00000140: 6059 33bd 5a2b 563d ca6f 28bd 7614 473d
00000150: 98e6 5abc ea0e 3d3d d008 49bd 6056 de3b
00000160: 782c 693c 0100 1dbd 6a99 50bd 648e 9abc
00000170: 48fb e53c bc72 62bc 387a ac3c aeb8 4d3d
00000180: d86f 173d d826 00bc ce4a afbc c892 64bd
00000190: b8db 01bc 76b6 213d d0a0 fbbc e725 1dbd
000001a0: e631 213d 5894 823d ac4b 1e3d b04a 8abd
000001b0: 522f 75bd 0ea4 453d aa29 cdbc 5cd6 063d
000001c0: 9687 6cbd b42d b63c d4d0 45bc f04a d8bc
000001d0: 7cf4 463d d06e 9e3b be1c e5bc c194 14bd
000001e0: 8ca5 0c3d c4d8 70bd 74ff 973c 6abe 463d
000001f0: b37c 4cbd fc8e ab3c 0b99 00bd a4ae 70bd
00000200: 5806 453d 6cee 2cbd 6ac1 10bd 2dff 21bd
00000210: 7eef 4dbd a07b 683d 3081 163c ba3c dabc
00000220: 1160 1bbd 4083 7e3d 081a 143d e04a 593d
00000230: a598 14bd d6a7 073d 9412 60bd f0fa 333c
00000240: 8ccf 9d3c 565d 4f3d c0c0 bfba f049 54bc
00000250: dbe8 34bd 30c9 4f3c 187a 913d 0aaa 0f3d
00000260: 6b3a 8fbd 6c2a 493d 3c42 903d ac06 c23c
00000270: e85c 133d ed2d 23bd 2cca 4cbd e258 16bd
00000280: 00a7 653a 2081 c73c c4f5 bfbc 20f4 2c3b
00000290: f2ec c3bc 04a1 ecbc f879 5f3d aa82 d1bc
000002a0: acf1 bd3c 80e8 d7bc 0271 25bd b899 0cbc
000002b0: 167a 0e3d 2af1 64bd ec71 643d b72d 07bd
000002c0: 3032 abbc 1631 01bd e08c aa3b b0dd ea3c
000002d0: 30e0 f4bb 3877 5e3d 0e33 1d3d 5076 6d3d
000002e0: e815 6d3c e0e7 513c 4700 6cbd d05d 403d
000002f0: 0072 5c3b 406b 4abd 284a f63c 0ca5 833d
00000300: d085 d13b 940f 16bd ce46 8c3d a237 3ebd
00000310: 0c9b b13c 40d2 ee3c 4861 113d 00ef 2f3b
00000320: 8673 883d 86a9 59bd 45f2 16bd 642b 873d
00000330: 48e0 8d3c 1aea 2f3d c0e8 72bb 47d9 69bd
00000340: 4c2f 173d 08e7 ac3c 28da 5f3d a1ec 39bd
00000350: 3ce8 8f3d 46b6 223d cc6c b0bc a465 34bc
00000360: e411 23bc 52cb 6bbd 9a66 f9bc 9460 0b3d
00000370: ec39 113d be0b 453d 2b29 04bd 00f9 c239
00000380: d077 113d 2cfa 7cbd 7c50 5ebd 16d1 a6bc
00000390: 9890 f23c d0fa 86bd 544e 70bd d4ef dabc
000003a0: 7825 603c a8ec 283c 5c63 e9bc f826 153d
000003b0: b604 1b3d b044 e33c 029f d2bc e440 153d
000003c0: 5f66 64bd 5c8a 4bbc 1027 99bb ef38 1abd
000003d0: babb 8a3d ff8c 88bd 1ded 4dbd 1193 45bd
000003e0: c279 4abd 74a8 7e3d caea 52bd 82fa 88bc
000003f0: e590 54bd ec49 c83c b479 823c 98ec 49bd
-0.035224 -0.044718362 -0.03450317 0.042431466 -0.033991218 0.0063484907 -0.054953422 0.062151715
-0.04054666 -0.0037986264 0.025041051 0.06606719 -0.031802446 -0.012048904 -0.0553227 -0.024447545
-0.024293642 0.03529884 0.048831068 -0.014347408 -0.012342077 -0.065144055 -0.0025839135 0.011359461
-0.018774912 -0.04851802 -0.034064725 0.038472854 -0.032108847 0.01574172 -0.05387311 -0.022820648
0.049533837 -0.06248869 0.008013442 -0.009795256 -0.04650221 -0.058617733 -0.036282867 0.025418699
0.012051046 0.0010293871 0.06173764 -0.03751918 0.05869092 -0.03194951 0.05008489 -0.031648148
-0.0025112256 -0.061161984 0.0028245226 -0.057004336 0.0566037 -0.019116424 -0.032932863 0.032835662
0.067729264 0.015072569 -0.018556133 -0.021332633 0.0374232 -0.013366774 0.007293746 0.059941456
0.02719149 0.06602317 0.022739604 -0.047005985 -0.06503783 0.066694275 0.01857958 -0.05029737
-0.0055477098 0.033061996 0.0009072423 0.0008778721 -0.06357653 0.06666067 -0.056039892 0.068555966
-0.043786407 0.052287437 -0.041122235 0.048603497 -0.013360642 0.0461568 -0.04908067 0.006785199
0.014231794 -0.03833008 -0.050927557 -0.018866725 0.028073922 -0.0138213 0.021054372 0.050224952
0.036971897 -0.007821761 -0.021397974 -0.055804044 -0.00792592 0.03948065 -0.03071633 -0.038366225
0.039354227 0.063759506 0.038646385 -0.06752527 -0.05985958 0.048252158 -0.025044281 0.032919273
-0.057746492 0.02223859 -0.012073714 -0.02640292 0.048573002 0.004834987 -0.027967807 -0.036274675
0.034337565 -0.058800474 0.018554427 0.048521437 -0.04992361 0.020942204 -0.031395953 -0.0587603
0.048101753 -0.042219564 -0.035340704 -0.039549995 -0.050277226 0.056758523 0.009186074 -0.026640285
-0.037933413 0.06213689 0.036157638 0.053049922 -0.036278386 0.033119045 -0.054705217 0.010985121
0.019264005 0.05062612 -0.0014629588 -0.012957081 -0.04416738 0.012682244 0.07103366 0.03507427
-0.06993564 0.049112722 0.07043883 0.023684822 0.035977274 -0.03983872 -0.049997494 -0.03670586
0.00087605417 0.024353564 -0.02343262 0.0026390627 -0.023916695 -0.028885372 0.054559678 -0.025575
0.023186527 -0.026355982 -0.040390976 -0.008581571 0.0347844 -0.055894054 0.055772707 -0.03300258
-0.020897955 -0.031540953 0.005204782 0.028670162 -0.0074730143 0.054312915 0.038378768 0.05797416
0.014470555 0.012811631 -0.057617452 0.046964467 0.0033637285 -0.049418688 0.030064657 0.064279646
0.0063941255 -0.03663595 0.068494424 -0.046439774 0.021680377 0.02915299 0.035493165 0.0026845336
0.06662659 -0.053140186 -0.03685214 0.06600073 0.01731886 0.042947866 -0.0037065 -0.057091977
0.03691034 0.021106258 0.05465141 -0.045391683 0.07026717 0.03972461 -0.021536253 -0.011010561
-0.009952996 -0.05756695 -0.030444432 0.03402765 0.03545563 0.0481069 -0.032265823 0.00037188083
0.035514653 -0.06176202 -0.054275975 -0.020363372 0.029609963 -0.065908074 -0.05866845 -0.026725687
0.013680808 0.0103103295 -0.028489761 0.036414117 0.03784629 0.027742714 -0.025710586 0.036438838
-0.05576169 -0.012423124 -0.004673846 -0.037651952 0.06774087 -0.06667518 -0.050274957 -0.048235957
-0.049432524 0.06217237 -0.051493444 -0.016721014 -0.051895995 0.024449311 0.015927173 -0.0492979

weight f4 [64]
00000000: 0000 803f 0000 803f 0000 803f 0000 803f
00000010: 0000 803f 0000 803f 0000 803f 0000 803f
00000020: 0000 803f 0000 803f 0000 803f 0000 803f
00000030: 0000 803f 0000 803f 0000 803f 0000 803f
00000040: 0000 803f 0000 803f 0000 803f 0000 803f
00000050: 0000 803f 0000 803f 0000 803f 0000 803f
00000060: 0000 803f 0000 803f 0000 803f 0000 803f
00000070: 0000 803f 0000 803f 0000 803f 0000 803f
00000080: 0000 803f 0000 803f 0000 803f 0000 803f
00000090: 0000 803f 0000 803f 0000 803f 0000 803f
000000a0: 0000 803f 0000 803f 0000 803f 0000 803f
000000b0: 0000 803f 0000 803f 0000 803f 0000 803f
000000c0: 0000 803f 0000 803f 0000 803f 0000 803f
000000d0: 0000 803f 0000 803f 0000 803f 0000 803f
000000e0: 0000 803f 0000 803f 0000 803f 0000 803f
000000f0: 0000 803f 0000 803f 0000 803f 0000 803f
1.0 1.0 1.0 1.0 1.0 1.0 1.0 1.0
1.0 1.0 1.0 1.0 1.0 1.0 1.0 1.0
1.0 1.0 1.0 1.0 1.0 1.0 1.0 1.0
1.0 1.0 1.0 1.0 1.0 1.0 1.0 1.0
1.0 1.0 1.0 1.0 1.0 1.0 1.0 1.0
1.0 1.0 1.0 1.0 1.0 1.0 1.0 1.0
1.0 1.0 1.0 1.0 1.0 1.0 1.0 1.0
1.0 1.0 1.0 1.0 1.0 1.0 1.0 1.0

bias f4 [64]
00000000: 0000 0000 0000 0000 0000 0000 0000 0000
00000010: 0000 0000 0000 0000 0000 0000 0000 0000
00000020: 0000 0000 0000 0000 0000 0000 0000 0000
00000030: 0000 0000 0000 0000 0000 0000 0000 0000
00000040: 0000 0000 0000 0000 0000 0000 0000 0000
00000050: 0000 0000 0000 0000 0000 0000 0000 0000
00000060: 0000 0000 0000 0000 0000 0000 0000 0000
00000070: 0000 0000 0000 0000 0000 0000 0000 0000
00000080: 0000 0000 0000 0000 0000 0000 0000 0000
00000090: 0000 0000 0000 0000 0000 0000 0000 0000
000000a0: 0000 0000 0000 0000 0000 0000 0000 0000
000000b0: 0000 0000 0000 0000 0000 0000 0000 0000
000000c0: 0000 0000 0000 0000 0000 0000 0000 0000
000000d0: 0000 0000 0000 0000 0000 0000 0000 0000
000000e0: 0000 0000 0000 0000 0000 0000 0000 0000
000000f0: 0000 0000 0000 0000 0000 0000 0000 0000
0.0 0.0 0.0 0.0 0.0 0.0 0.0 0.0
0.0 0.0 0.0 0.0 0.0 0.0 0.0 0.0
0.0 0.0 0.0 0.0 0.0 0.0 0.0 0.0
0.0 0.0 0.0 0.0 0.0 0.0 0.0 0.0
0.0 0.0 0.0 0.0 0.0 0.0 0.0 0.0
0.0 0.0 0.0 0.0 0.0 0.0 0.0 0.0
0.0 0.0 0.0 0.0 0.0 0.0 0.0 0.0
0.0 0.0 0.0 0.0 0.0 0.0 0.0 0.0

running_mean f4 [64]
00000000: 0000 0000 0000 0000 0000 0000 0000 0000
00000010: 0000 0000 0000 0000 0000 0000 0000 0000
00000020: 0000 0000 0000 0000 0000 0000 0000 0000
00000030: 0000 0000 0000 0000 0000 0000 0000 0000
00000040: 0000 0000 0000 0000 0000 0000 0000 0000
00000050: 0000 0000 0000 0000 0000 0000 0000 0000
00000060: 0000 0000 0000 0000 0000 0000 0000 0000
00000070: 0000 0000 0000 0000 0000 0000 0000 0000
00000080: 0000 0000 0000 0000 0000 0000 0000 0000
00000090: 0000 0000 0000 0000 0000 0000 0000 0000
000000a0: 0000 0000 0000 0000 0000 0000 0000 0000
000000b0: 0000 0000 0000 0000 0000 0000 0000 0000
000000c0: 0000 0000 0000 0000 0000 0000 0000 0000
000000d0: 0000 0000 0000 0000 0000 0000 0000 0000
000000e0: 0000 0000 0000 0000 0000 0000 0000 0000
000000f0: 0000 0000 0000 0000 0000 0000 0000 0000
0.0 0.0 0.0 0.0 0.0 0.0 0.0 0.0
0.0 0.0 0.0 0.0 0.0 0.0 0.0 0.0
0.0 0.0 0.0 0.0 0.0 0.0 0.0 0.0
0.0 0.0 0.0 0.0 0.0 0.0 0.0 0.0
0.0 0.0 0.0 0.0 0.0 0.0 0.0 0.0
0.0 0.0 0.0 0.0 0.0 0.0 0.0 0.0
0.0 0.0 0.0 0.0 0.0 0.0 0.0 0.0
0.0 0.0 0.0 0.0 0.0 0.0 0.0 0.0

running_var f4 [64]
00000000: 0000 803f 0000 803f 0000 803f 0000 803f
00000010: 0000 803f 0000 803f 0000 803f 0000 803f
00000020: 0000 803f 0000 803f 0000 803f 0000 803f
00000030: 0000 803f 0000 803f 0000 803f 0000 803f
00000040: 0000 803f 0000 803f 0000 803f 0000 803f
00000050: 0000 803f 0000 803f 0000 803f 0000 803f
00000060: 0000 803f 0000 803f 0000 803f 0000 803f
00000070: 0000 803f 0000 803f 0000 803f 0000 803f
00000080: 0000 803f 0000 803f 0000 803f 0000 803f
00000090: 0000 803f 0000 803f 0000 803f 0000 803f
000000a0: 0000 803f 0000 803f 0000 803f 0000 803f
000000b0: 0000 803f 0000 803f 0000 803f 0000 803f
000000c0: 0000 803f 0000 803f 0000 803f 0000 803f
000000d0: 0000 803f 0000 803f 0000 803f 0000 803f
000000e0: 0000 803f 0000 803f 0000 803f 0000 803f
000000f0: 0000 803f 0000 803f 0000 803f 0000 803f
1.0 1.0 1.0 1.0 1.0 1.0 1.0 1.0
1.0 1.0 1.0 1.0 1.0 1.0 1.0 1.0
1.0 1.0 1.0 1.0 1.0 1.0 1.0 1.0
1.0 1.0 1.0 1.0 1.0 1.0 1.0 1.0
1.0 1.0 1.0 1.0 1.0 1.0 1.0 1.0
1.0 1.0 1.0 1.0 1.0 1.0 1.0 1.0
1.0 1.0 1.0 1.0 1.0 1.0 1.0 1.0
1.0 1.0 1.0 1.0 1.0 1.0 1.0 1.0
