Code_darts/Search/operator_pt/wisdm2019/DilatedDepthConv-67x64-67x64-9-1-2.pt (torch, 158343 bytes, 5 tensors)

weight f4 [64, 64, 9]
-0.037047513 -0.009533554 0.0012466349 -0.021713283 -0.00868899 0.0054729916 -0.03750106 0.0046620257
0.0020016842 -0.011044657 0.03612717 0.04072765 0.005989436 -0.032092527 0.008794576 -0.00037115812
0.039217588 0.028363887 -0.004208844 -0.0007841885 -0.04142272 -0.032549366 0.0026489496 -0.005237799
0.015044954 -0.0014468431 -0.018941179 -0.039055698 -0.0031819157 0.008950356 0.008779723 0.032656845
0.020355854 0.02022222 -0.029184997 0.010361757 0.011530891 -0.0023773164 0.009622514 -0.020755515
0.0073908903 0.006282527 0.033623394 0.028930452 -0.0063499957 -0.029936846 0.01906212 -0.004725624
-0.0024870299 0.0393132 -0.0057659 -0.009469673 -0.014489409 -0.011119273 -0.016536972 0.022549357
-0.03004334 0.015372183 0.02181432 -0.025903186 0.038540635 0.04073784 -0.033935905 -0.037030876
-0.03356379 -0.040958457 -0.0347345 -0.011776596 0.035319325 0.03224094 -0.005018171 -0.020772537
-0.037458576 -0.016462699 -0.039673753 0.02095374 -0.0014304519 0.03748939 -0.010044504 0.022008602
-0.004479032 -0.020285528 0.030795995 -0.020612037 -0.011189729 0.006112989 0.023141023 0.024282653
0.013250995 0.007869724 0.030537773 0.034667503 0.019104298 -0.017128587 0.017845705 -0.002545461
0.023630004 0.014836606 0.039975513 0.024334054 0.038175065 0.032090146 -0.016968772 0.030336197
0.0130152255 -0.020976812 -0.0057434104 0.026219826 -0.007407699 0.011475727 -0.025134563 -0.040083136
-0.005851995 -0.01864491 -0.020249074 0.028750326 -0.0010085255 -0.032896362 0.014713574 0.0052386075
0.005610794 0.024804782 0.038176607 0.0077331774 -0.009628743 -0.033441894 0.02503312 0.01371545
0.012371544 0.013189275 0.011964489 -0.034681864 -0.041312627 -0.04154115 -0.024023905 0.03449372
0.031447027 -0.018325161 -0.0021286942 -0.027411774 -0.022369295 -0.012567263 0.035155375 -0.036458135
0.021363292 0.022354607 -0.00139324 0.00073692575 -0.0032656789 0.026627723 -0.004124973 0.01605023
-0.0039147437 0.0406428 -0.00037266687 0.0083493255 -0.032946482 -0.040327143 -0.030405328 -0.0067673363
0.011316702 0.00564925 0.01923551 -0.02352288 0.0042396635 0.029596034 0.022143457 0.02787118
0.039108258 0.0011007823 0.019712593 0.015641917 0.03898957 0.013149247 -0.007342983 0.010146618
0.02188259 0.0362886 -0.026494792 -0.00066007674 -0.01287893 0.0012659132 -0.0049831383 0.00061843917
0.029355187 0.014536809 0.015561793 0.008679196 0.040179346 -0.019492676 -0.021360766 0.008598406
0.024211291 -0.03488253 0.04062589 -0.01441966 0.023619596 0.008701652 0.01836102 -0.034687977
-0.009161115 -0.033534534 0.009986997 0.03861538 0.02425867 0.030235585 0.0014827885 0.022959683
0.030470151 -0.01392005 0.020686809 -0.011267673 0.036398906 0.009070087 -0.039124053 0.002219785
-0.013342362 0.011490773 0.005713284 -0.025909355 -0.025512105 0.007359922 0.008811396 0.009704683
-0.010635331 0.013956606 -0.027022123 0.0137200095 -0.0203975 -0.012172064 0.01597945 -0.029453423
0.039747577 0.008620277 0.011334535 0.003642086 0.01730908 0.03703543 -0.031110764 -0.031147983
-0.025552318 0.020181406 -0.022467777 0.010375008 -0.04118789 0.010591958 -0.00077813864 -0.028957209
-0.012354583 0.039565753 0.021725837 -0.02618885 -0.028841194 0.026478563 0.005879972 0.022531468
00000000: 22bf 17bd a032 1cbc 2066 a33a 0ee0 b1bc
00000010: 445c 0ebc c856 b33b b69a 19bd e8c3 983b
00000020: b02e 033b a6f4 34bc 15fa 133d 09d2 263d
00000030: 0843 c43b 7473 03bd 2017 103c 0098 c2b9
00000040: 9fa2 203d 625b e83c 58ea 89bb 0092 4dba
00000050: dfaa 29bd 7c52 05bd 009a 2d3b d8a1 abbb
00000060: 1c7f 763c 00a4 bdba 882a 9bbc def8 1fbd
00000070: b087 50bb 84a4 123c d4d8 0f3c 2fc3 053d
00000080: 52c1 a63c 12a9 a53c 6015 efbc 5cc4 293c
00000090: 10ec 3c3c c0cc 1bbb c0a7 1d3c 7807 aabc
000000a0: 482f f23b a8dd cd3b afb8 093d 8eff ec3c
000000b0: a013 d0bb 1e3e f5bc 2a28 9c3c 68d9 9abb
000000c0: 70fd 22bb e106 213d e0ef bcbb b026 1bbc
000000d0: fc64 6dbc 9c2d 36bc 8b78 87bc 6eb9 b83c
000000e0: 731d f6bc 9cdb 7b3c f2b3 b23c eb32 d4bc
000000f0: c9dc 1d3d b9dc 263d 6000 0bbd b0ad 17bd
00000100: 2f7a 09bd 0ec4 27bd c345 0ebd a0f2 40bc
00000110: ffaa 103d 130f 043d 786f a4bb 2b2b aabc
00000120: 2a6e 19bd c8dc 86bc f280 22bd 2ea7 ab3c
00000130: 007e bbba 798e 193d b491 24bc 624b b43c
00000140: d8c4 92bb d62d a6bc e247 fc3c 93da a8bc
00000150: 2055 37bc 784f c83b 3e92 bd3c 6aec c63c
00000160: b41a 593c 04f0 003c 5a2a fa3c 83ff 0d3d
00000170: 9e80 9c3c 4051 8cbc 2831 923c c0d1 26bb
00000180: b693 c13c 3c15 733c 5dbd 233d 3658 c73c
00000190: 755d 1c3d f570 033d 1802 8bbc 9e83 f83c
000001a0: d03d 553c 90d7 abbc 3833 bcbb f6ca d63c
000001b0: 48bc f2bb b004 3c3c 00e7 cdbc 372e 24bd
000001c0: 18c2 bfbb 36bd 98bc 63e1 a5bc ce85 eb3c
000001d0: 8030 84ba 56be 06bd 3411 713c a0a8 ab3b
000001e0: c0da b73b 6633 cb3c 135f 1c3d 9866 fd3b
000001f0: e0c1 1dbc 5efa 08bd 4212 cd3c c4b6 603c
00000200: 04b2 4a3c d417 583c b406 443c 920e 0ebd
00000210: 6e37 29bd 0e27 2abd c8cd c4bc 4949 0d3d
00000220: 99ce 003d a61e 96bc 9081 0bbb a88e e0bc
00000230: d03f b7bc ece6 4dbc 15ff 0f3d 2055 15bd
00000240: 1202 af3c 0221 b73c 609d b6ba 402e 413a
00000250: 0005 56bb 6222 da3c c82a 87bb c67b 833c
00000260: 4047 80bb 1179 263d 8062 c3b9 9ccb 083c
00000270: e4f2 06bd 132e 25bd 9814 f9bc 88c0 ddbb
00000280: b069 393c 581d b93b ca93 9d3c 0eb3 c0bc
00000290: e0ec 8a3b 6273 f23c 3266 b53c 1a52 e43c
000002a0: fb2f 203d 2048 903a 4e7c a13c 7a23 803c
000002b0: 87b3 1f3d f06f 573c 689d f0bb 003e 263c
000002c0: 1e43 b33c 5ba3 143d 9b0b d9bc 0009 2dba
000002d0: 2602 53bc 00ed a53a 9849 a3bb c01e 223a
000002e0: 4a7a f03c cc2b 6e3c e4f6 7e3c 3033 0e3c
000002f0: 1993 243d 1baf 9fbc c6fc aebc 54e0 0c3c
00000300: c256 c63c fce0 0ebd 5567 263d 7040 6cbc
00000310: e27d c13c 6091 0e3c da69 963c fb14 0ebd
00000320: 8018 16bc 825b 09bd 80a0 233c 292b 1e3d
00000330: 1eba c63c 9eb0 f73c 205a c23a f215 bc3c
00000340: 8a9c f93c ec10 64bc 6277 a93c 0c9c 38bc
00000350: 0517 153d b49a 143c 8b40 20bd d079 113b
00000360: ec99 5abc cc43 3c3c 8036 bb3b db3f d4bc
00000370: c3fe d0bc 802b f13b ac5d 103c 6400 1f3c
00000380: d03f 2ebc 40aa 643c 805d ddbc e4c9 603c
00000390: a818 a7bc 566d 47bc 56e7 823c 4e48 f1bc
000003a0: 5bce 223d 103c 0d3c 7cb4 393c 10b0 6e3b
000003b0: c6cb 8d3c 77b2 173d 00dc febc 0e2a ffbc
000003c0: 1853 d1bc 7a53 a53c 580e b8bc f0fb 293c
000003d0: a2b4 28bd e489 2d3c 00fc 4bba ab37 edbc
000003e0: e06a 4abc b30f 223d 62fa b13c 008a d6bc
000003f0: 5e44 ecbc 92e9 d83c c8ac c03b ea93 b83c

weight f4 [64]
1.0 1.0 1.0 1.0 1.0 1.0 1.0 1.0
1.0 1.0 1.0 1.0 1.0 1.0 1.0 1.0
1.0 1.0 1.0 1.0 1.0 1.0 1.0 1.0
1.0 1.0 1.0 1.0 1.0 1.0 1.0 1.0
1.0 1.0 1.0 1.0 1.0 1.0 1.0 1.0
1.0 1.0 1.0 1.0 1.0 1.0 1.0 1.0
1.0 1.0 1.0 1.0 1.0 1.0 1.0 1.0
1.0 1.0 1.0 1.0 1.0 1.0 1.0 1.0
00000000: 0000 803f 0000 803f 0000 803f 0000 803f
00000010: 0000 803f 0000 803f 0000 803f 0000 803f
00000020: 0000 803f 0000 803f 0000 803f 0000 803f
00000030: 0000 803f 0000 803f 0000 803f 0000 803f
00000040: 0000 803f 0000 803f 0000 803f 0000 803f
00000050: 0000 803f 0000 803f 0000 803f 0000 803f
00000060: 0000 803f 0000 803f 0000 803f 0000 803f
00000070: 0000 803f 0000 803f 0000 803f 0000 803f
00000080: 0000 803f 0000 803f 0000 803f 0000 803f
00000090: 0000 803f 0000 803f 0000 803f 0000 803f
000000a0: 0000 803f 0000 803f 0000 803f 0000 803f
000000b0: 0000 803f 0000 803f 0000 803f 0000 803f
000000c0: 0000 803f 0000 803f 0000 803f 0000 803f
000000d0: 0000 803f 0000 803f 0000 803f 0000 803f
000000e0: 0000 803f 0000 803f 0000 803f 0000 803f
000000f0: 0000 803f 0000 803f 0000 803f 0000 803f

bias f4 [64]
0.0 0.0 0.0 0.0 0.0 0.0 0.0 0.0
0.0 0.0 0.0 0.0 0.0 0.0 0.0 0.0
0.0 0.0 0.0 0.0 0.0 0.0 0.0 0.0
0.0 0.0 0.0 0.0 0.0 0.0 0.0 0.0
0.0 0.0 0.0 0.0 0.0 0.0 0.0 0.0
0.0 0.0 0.0 0.0 0.0 0.0 0.0 0.0
0.0 0.0 0.0 0.0 0.0 0.0 0.0 0.0
0.0 0.0 0.0 0.0 0.0 0.0 0.0 0.0
00000000: 0000 0000 0000 0000 0000 0000 0000 0000
00000010: 0000 0000 0000 0000 0000 0000 0000 0000
00000020: 0000 0000 0000 0000 0000 0000 0000 0000
00000030: 0000 0000 0000 0000 0000 0000 0000 0000
00000040: 0000 0000 0000 0000 0000 0000 0000 0000
00000050: 0000 0000 0000 0000 0000 0000 0000 0000
00000060: 0000 0000 0000 0000 0000 0000 0000 0000
00000070: 0000 0000 0000 0000 0000 0000 0000 0000
00000080: 0000 0000 0000 0000 0000 0000 0000 0000
00000090: 0000 0000 0000 0000 0000 0000 0000 0000
000000a0: 0000 0000 0000 0000 0000 0000 0000 0000
000000b0: 0000 0000 0000 0000 0000 0000 0000 0000
000000c0: 0000 0000 0000 0000 0000 0000 0000 0000
000000d0: 0000 0000 0000 0000 0000 0000 0000 0000
000000e0: 0000 0000 0000 0000 0000 0000 0000 0000
000000f0: 0000 0000 0000 0000 0000 0000 0000 0000

running_mean f4 [64]
0.0 0.0 0.0 0.0 0.0 0.0 0.0 0.0
0.0 0.0 0.0 0.0 0.0 0.0 0.0 0.0
0.0 0.0 0.0 0.0 0.0 0.0 0.0 0.0
0.0 0.0 0.0 0.0 0.0 0.0 0.0 0.0
0.0 0.0 0.0 0.0 0.0 0.0 0.0 0.0
0.0 0.0 0.0 0.0 0.0 0.0 0.0 0.0
0.0 0.0 0.0 0.0 0.0 0.0 0.0 0.0
0.0 0.0 0.0 0.0 0.0 0.0 0.0 0.0
00000000: 0000 0000 0000 0000 0000 0000 0000 0000
00000010: 0000 0000 0000 0000 0000 0000 0000 0000
00000020: 0000 0000 0000 0000 0000 0000 0000 0000
00000030: 0000 0000 0000 0000 0000 0000 0000 0000
00000040: 0000 0000 0000 0000 0000 0000 0000 0000
00000050: 0000 0000 0000 0000 0000 0000 0000 0000
00000060: 0000 0000 0000 0000 0000 0000 0000 0000
00000070: 0000 0000 0000 0000 0000 0000 0000 0000
00000080: 0000 0000 0000 0000 0000 0000 0000 0000
00000090: 0000 0000 0000 0000 0000 0000 0000 0000
000000a0: 0000 0000 0000 0000 0000 0000 0000 0000
000000b0: 0000 0000 0000 0000 0000 0000 0000 0000
000000c0: 0000 0000 0000 0000 0000 0000 0000 0000
000000d0: 0000 0000 0000 0000 0000 0000 0000 0000
000000e0: 0000 0000 0000 0000 0000 0000 0000 0000
000000f0: 0000 0000 0000 0000 0000 0000 0000 0000

running_var f4 [64]
1.0 1.0 1.0 1.0 1.0 1.0 1.0 1.0
1.0 1.0 1.0 1.0 1.0 1.0 1.0 1.0
1.0 1.0 1.0 1.0 1.0 1.0 1.0 1.0
1.0 1.0 1.0 1.0 1.0 1.0 1.0 1.0
1.0 1.0 1.0 1.0 1.0 1.0 1.0 1.0
1.0 1.0 1.0 1.0 1.0 1.0 1.0 1.0
1.0 1.0 1.0 1.0 1.0 1.0 1.0 1.0
1.0 1.0 1.0 1.0 1.0 1.0 1.0 1.0
00000000: 0000 803f 0000 803f 0000 803f 0000 803f
00000010: 0000 803f 0000 803f 0000 803f 0000 803f
00000020: 0000 803f 0000 803f 0000 803f 0000 803f
00000030: 0000 803f 0000 803f 0000 803f 0000 803f
00000040: 0000 803f 0000 803f 0000 803f 0000 803f
00000050: 0000 803f 0000 803f 0000 803f 0000 803f
00000060: 0000 803f 0000 803f 0000 803f 0000 803f
00000070: 0000 803f 0000 803f 0000 803f 0000 803f
00000080: 0000 803f 0000 803f 0000 803f 0000 803f
00000090: 0000 803f 0000 803f 0000 803f 0000 803f
000000a0: 0000 803f 0000 803f 0000 803f 0000 803f
000000b0: 0000 803f 0000 803f 0000 803f 0000 803f
000000c0: 0000 803f 0000 803f 0000 803f 0000 803f
000000d0: 0000 803f 0000 803f 0000 803f 0000 803f
000000e0: 0000 803f 0000 803f 0000 803f 0000 803f
000000f0: 0000 803f 0000 803f 0000 803f 0000 803f
