Code_darts/Search/operator_pt/wisdm2019/DilatedConv-67x64-67x64-3-1-2.pt (torch, 59954 bytes, 5 tensors)

weight f4 [64, 64, 3]
000000 e4 48 43 3d ce 53 4e 3d d4 e9 b6 bc 69 72 38 bd
       0.047676936 0.05037289 -0.022328295 -0.045030985
000010 90 a7 0f bd 70 04 8e bd b5 89 87 bd 4e cd 43 3d
       -0.03507191 -0.0693444 -0.066180624 0.047803216
000020 84 b5 92 3d da c9 0f bd 08 67 07 bc f6 5b 80 bd
       0.071635276 -0.03510461 -0.008264311 -0.0626754
000030 1b 92 70 bd 1a 02 47 bd e4 8d 2f 3d 0c 78 52 bd
       -0.058733087 -0.04858599 0.042859927 -0.051384017
000040 d5 bd 87 bd b0 2b 1c 3c aa 11 96 bc 18 b4 d5 3c
       -0.066280045 0.0095319 -0.01831897 0.026086852
000050 00 60 1b 38 90 85 e3 3b a0 9d 0b 3b b8 db 43 3d
       3.7044287e-05 0.006943412 0.0021303669 0.047816962
000060 78 91 f0 bc 20 8d c5 3c a0 65 02 3c 78 cd 37 3d
       -0.02936624 0.024115145 0.0079588 0.044873685
000070 98 0d 6f 3d 38 0a 67 3d 60 de a7 bb ae 04 4c 3d
       0.058362573 0.05640623 -0.0051229447 0.04980915
000080 16 7a 5f bd 56 e4 04 bd 28 52 dc bc 09 fe 8e bd
       -0.05455979 -0.03244432 -0.026894644 -0.06982047
000090 34 16 62 bc 60 2f 7d 3b 8c 80 79 bc 93 36 79 bd
       -0.013799239 0.0038632974 -0.015228402 -0.06084306
0000a0 b0 d8 4c 3c 91 b5 61 bd cc 47 3e bd 70 4a 1e 3d
       0.012502834 -0.055104796 -0.04645519 0.038645208
0000b0 60 bd 77 bb 00 34 6f 39 d8 30 b2 3c 6e c1 28 3d
       -0.0037802085 0.00022812188 0.021751806 0.041200094
0000c0 c8 1b 20 bd 3c f7 5e 3d 2e 2e 02 bd e8 5b 48 3d
       -0.039088994 0.054435 -0.03178232 0.048915774
0000d0 06 1b 4e bd d0 57 ee 3b ba 10 b2 bc 40 9d 25 bc
       -0.05031874 0.0072736517 -0.021736491 -0.010108292
0000e0 10 1c 8e bb e8 67 8e 3d 7c 64 8a 3c 90 cf 44 3d
       -0.0043368414 0.06953412 0.016893618 0.04804951
0000f0 80 d4 47 bd 28 26 73 3d dc ca 53 bc 40 0d f4 3c
       -0.04878664 0.05936256 -0.012926783 0.029791474
000100 f4 40 58 3d de ed 58 bd 94 9d 2d 3d 24 1d 6a 3d
       0.05279632 -0.052961223 0.042386606 0.057156697
000110 b0 4c e6 3b 6a 6b 67 bd 32 ea 8b bd 98 6a 2a 3c
       0.007028185 -0.056498922 -0.068317786 0.0104013905
000120 0c 95 34 3d 70 cb 8b 3b b0 42 03 3d d8 f2 84 3d
       0.044087455 0.004266195 0.03204602 0.06491631
000130 01 13 21 bd c0 06 11 3b 3b f4 01 bd 80 85 33 ba
       -0.039324764 0.0022129267 -0.031727057 -0.0006848201
000140 c0 39 83 bb 6f 05 26 bd 5e 73 78 bd 00 ca 73 3b
       -0.004004687 -0.040532526 -0.060656898 0.0037199259
000150 88 f8 55 3d 44 cb 5c bd a0 16 4e bd 0e 1f 93 3d
       0.05223897 -0.053904787 -0.050314546 0.071836576
000160 24 f3 0e 3d 60 c0 26 3d ce 09 60 bd 78 e3 63 bd
       0.034899846 0.040710807 -0.05469685 -0.055636853
000170 07 67 39 bd 40 90 9b 3b c6 dd 83 bd 06 4d 35 3d
       -0.04526427 0.0047474205 -0.06438784 0.04426291
000180 3b 30 69 bd 4a 09 07 bd 0c 58 b2 bc 24 9d 1c 3d
       -0.05693076 -0.032967843 -0.0217705 0.0382358
000190 f0 3d 6a 3d ac 62 6d bd e0 b2 ce 3b 0e 62 40 bd
       0.057187974 -0.05795543 0.0063079447 -0.046968512
0001a0 b2 30 2f 3d 0c ff 39 bc d8 7f 02 3c ba fc 48 bd
       0.04277105 -0.011352312 0.007965051 -0.049069144
0001b0 6e f5 0b 3d 74 b1 da bc 9c db 58 3d c4 0f e4 3c
       0.034169607 -0.026695944 0.05294381 0.027839549
0001c0 e0 44 cd 3b 18 17 52 3d 00 80 d8 3a ec a7 62 3d
       0.006264314 0.051291555 0.0016517639 0.055335924
0001d0 40 c8 94 3a 90 09 c7 bb 40 02 05 bd 1e fa 8c 3d
       0.0011351183 -0.006074138 -0.03247285 0.068836436
0001e0 04 b3 fb bc cf b3 3d bd 22 0f 51 bd 58 d6 cd bc
       -0.03072501 -0.046314057 -0.051039822 -0.025126621
0001f0 03 d4 7c bd d0 58 41 bc ec ad c5 bc 6f ab 3a bd
       -0.061725628 -0.01180096 -0.024130784 -0.045573648
000200 24 81 8f bc 24 e5 d6 bc 48 0f 0e 3c 80 b0 78 3d
       -0.017517634 -0.02623231 0.0086706355 0.0607152
000210 80 a9 38 3c f0 2a 16 3d 80 2a 69 bd d8 c0 7c 3d
       0.011270881 0.036662042 -0.056925297 0.061707348
000220 25 5c 4f bd fc b4 0f 3d bc 6f 4c bd d8 87 67 bd
       -0.050624985 0.03508471 -0.049911246 -0.056526035
000230 cc a8 93 3d b6 ed 5d bd f2 27 25 bd da 57 8b bd
       0.0720993 -0.054181777 -0.040321298 -0.06803866
000240 00 63 e7 39 fa fb 08 bd a0 5d 0a bb 5e f4 78 bd
       0.00044133514 -0.03344343 -0.0021112934 -0.06077992
000250 13 71 82 bd 06 74 5d bd 88 b5 fa 3c a7 6f 8e bd
       -0.063692234 -0.054065727 0.030604139 -0.0695489
000260 f0 a1 eb 3c de b3 5f bd 00 8a b4 3c e0 90 5f bd
       0.028763741 -0.054614894 0.02203846 -0.054581523
000270 82 da 31 bd 00 be 14 3d c0 54 b5 bc 70 11 91 3d
       -0.043421276 0.03631401 -0.022135139 0.07083404
000280 6e 22 2e 3d 1d 68 84 bd 88 1f 6a 3c 06 92 8c bc
       0.042513303 -0.064651705 0.014289744 -0.017159473
000290 e4 c3 42 3d 64 69 74 bc f0 d6 9a 3b 81 b0 2d bd
       0.047550097 -0.014917705 0.0047253296 -0.042404655
0002a0 a8 ae 63 3c 8e 1a 12 3d e0 e5 a3 3b f8 30 04 bd
       0.013896622 0.035669856 0.0050017685 -0.032273263
0002b0 c0 2f 4f 3d 80 45 d7 3b 10 56 81 bc 8c 09 82 bd
       0.050582647 0.0065695643 -0.015788108 -0.06349477
0002c0 be e2 b9 bc 12 00 83 bd cb 2d 4e bd a2 87 90 3d
       -0.022691127 -0.06396498 -0.05033664 0.0705712
0002d0 30 f3 e3 3b 28 c6 58 3d 88 8d e0 3c 14 7c 2f 3d
       0.0069564804 0.05292335 0.027411237 0.04284294
0002e0 f8 b2 02 3c 1c 61 6d 3d 80 79 37 bb b2 a2 a3 bc
       0.00797724 0.05795394 -0.0027996004 -0.01997504
0002f0 cc a7 6e 3d 90 c9 d3 bb 70 1a 98 bb 80 e6 7d 3d
       0.058265492 -0.006463237 -0.0046418235 0.0619874
000300 26 2b 74 bd 4c f7 b8 3c fa 11 4b bd 00 7a 1e bb
       -0.059611462 0.022578858 -0.04957769 -0.0024181604
000310 9e c1 49 3d a4 a8 3c 3d 00 d4 b9 bc 00 20 9d 38
       0.049256913 0.046059266 -0.022684097 7.492304e-05
000320 3c 11 82 bc 5b 1c 75 bd af e5 6e bd 07 ff 70 bd
       -0.015877359 -0.059841495 -0.058324512 -0.058836963
000330 80 ab 3e 3b 28 32 07 3d f6 1d 58 bd 44 62 72 3d
       0.0029093921 0.033006817 -0.052762948 0.059175745
000340 1b 41 31 bd dc 63 10 bd 00 de e3 bb 3e 15 3a bd
       -0.04327498 -0.035251483 -0.0069539547 -0.045430414
000350 f4 58 8f 3d 78 de 86 3d 80 36 3b bc 9c 08 76 3d
       0.06999388 0.06585401 -0.011426568 0.060066804
000360 84 f6 4d 3d 96 86 80 3d f2 b2 84 3d 06 7e 46 3d
       0.050283924 0.0627567 0.064794436 0.04846003
000370 48 96 13 3c a8 2a 7e 3d 7d 5e 65 bd 6a ba d1 bc
       0.009007998 0.0620524 -0.055998314 -0.025601584
000380 8e 90 82 bd 00 54 ed b9 4e 61 83 bc 7a 6e 3b bd
       -0.06375228 -0.00045266747 -0.01603761 -0.045759656
000390 74 e8 ff 3c 8e 4c 85 bc 00 b3 6f 3c f4 2b 69 3d
       0.031238772 -0.016271856 0.014630079 0.056926683
0003a0 7e 99 53 3d 78 7c 34 bd 04 0e 76 3d b8 fc 98 bc
       0.051660053 -0.044064015 0.06007196 -0.018675193
0003b0 4a 99 90 3d 78 a7 0f bd 4a 56 84 3d 90 eb 5e 3c
       0.070604876 -0.03507182 0.06461771 0.013605967
0003c0 b6 9b 2b 3d 44 fa 6f 3d 9a 2d 45 3d dd 37 8c bd
       0.041896544 0.05858828 0.048139192 -0.068465926
0003d0 34 a9 bc 3c 42 c9 88 3d 02 59 f1 bc 70 1c d1 bc
       0.023029901 0.06679012 -0.029461388 -0.025526255
0003e0 ea ab 6e bd 88 a3 1d bc 52 35 25 3d 08 28 76 bd
       -0.05826942 -0.009621508 0.040334053 -0.06009677
0003f0 fd 9d 7f bd b3 4e 7d bd bc 34 76 bd 6a 15 fd bc
       -0.06240653 -0.06184263 -0.060108885 -0.030894

weight f4 [64]
000000 00 00 80 3f 00 00 80 3f 00 00 80 3f 00 00 80 3f
       1.0 1.0 1.0 1.0
000010 00 00 80 3f 00 00 80 3f 00 00 80 3f 00 00 80 3f
       1.0 1.0 1.0 1.0
000020 00 00 80 3f 00 00 80 3f 00 00 80 3f 00 00 80 3f
       1.0 1.0 1.0 1.0
000030 00 00 80 3f 00 00 80 3f 00 00 80 3f 00 00 80 3f
       1.0 1.0 1.0 1.0
000040 00 00 80 3f 00 00 80 3f 00 00 80 3f 00 00 80 3f
       1.0 1.0 1.0 1.0
000050 00 00 80 3f 00 00 80 3f 00 00 80 3f 00 00 80 3f
       1.0 1.0 1.0 1.0
000060 00 00 80 3f 00 00 80 3f 00 00 80 3f 00 00 80 3f
       1.0 1.0 1.0 1.0
000070 00 00 80 3f 00 00 80 3f 00 00 80 3f 00 00 80 3f
       1.0 1.0 1.0 1.0
000080 00 00 80 3f 00 00 80 3f 00 00 80 3f 00 00 80 3f
       1.0 1.0 1.0 1.0
000090 00 00 80 3f 00 00 80 3f 00 00 80 3f 00 00 80 3f
       1.0 1.0 1.0 1.0
0000a0 00 00 80 3f 00 00 80 3f 00 00 80 3f 00 00 80 3f
       1.0 1.0 1.0 1.0
0000b0 00 00 80 3f 00 00 80 3f 00 00 80 3f 00 00 80 3f
       1.0 1.0 1.0 1.0
0000c0 00 00 80 3f 00 00 80 3f 00 00 80 3f 00 00 80 3f
       1.0 1.0 1.0 1.0
0000d0 00 00 80 3f 00 00 80 3f 00 00 80 3f 00 00 80 3f
       1.0 1.0 1.0 1.0
0000e0 00 00 80 3f 00 00 80 3f 00 00 80 3f 00 00 80 3f
       1.0 1.0 1.0 1.0
0000f0 00 00 80 3f 00 00 80 3f 00 00 80 3f 00 00 80 3f
       1.0 1.0 1.0 1.0

bias f4 [64]
000000 00 00 00 00 00 00 00 00 00 00 00 00 00 00 00 00
       0.0 0.0 0.0 0.0
000010 00 00 00 00 00 00 00 00 00 00 00 00 00 00 00 00
       0.0 0.0 0.0 0.0
000020 00 00 00 00 00 00 00 00 00 00 00 00 00 00 00 00
       0.0 0.0 0.0 0.0
000030 00 00 00 00 00 00 00 00 00 00 00 00 00 00 00 00
       0.0 0.0 0.0 0.0
000040 00 00 00 00 00 00 00 00 00 00 00 00 00 00 00 00
       0.0 0.0 0.0 0.0
000050 00 00 00 00 00 00 00 00 00 00 00 00 00 00 00 00
       0.0 0.0 0.0 0.0
000060 00 00 00 00 00 00 00 00 00 00 00 00 00 00 00 00
       0.0 0.0 0.0 0.0
000070 00 00 00 00 00 00 00 00 00 00 00 00 00 00 00 00
       0.0 0.0 0.0 0.0
000080 00 00 00 00 00 00 00 00 00 00 00 00 00 00 00 00
       0.0 0.0 0.0 0.0
000090 00 00 00 00 00 00 00 00 00 00 00 00 00 00 00 00
       0.0 0.0 0.0 0.0
0000a0 00 00 00 00 00 00 00 00 00 00 00 00 00 00 00 00
       0.0 0.0 0.0 0.0
0000b0 00 00 00 00 00 00 00 00 00 00 00 00 00 00 00 00
       0.0 0.0 0.0 0.0
0000c0 00 00 00 00 00 00 00 00 00 00 00 00 00 00 00 00
       0.0 0.0 0.0 0.0
0000d0 00 00 00 00 00 00 00 00 00 00 00 00 00 00 00 00
       0.0 0.0 0.0 0.0
0000e0 00 00 00 00 00 00 00 00 00 00 00 00 00 00 00 00
       0.0 0.0 0.0 0.0
0000f0 00 00 00 00 00 00 00 00 00 00 00 00 00 00 00 00
       0.0 0.0 0.0 0.0

running_mean f4 [64]
000000 00 00 00 00 00 00 00 00 00 00 00 00 00 00 00 00
       0.0 0.0 0.0 0.0
000010 00 00 00 00 00 00 00 00 00 00 00 00 00 00 00 00
       0.0 0.0 0.0 0.0
000020 00 00 00 00 00 00 00 00 00 00 00 00 00 00 00 00
       0.0 0.0 0.0 0.0
000030 00 00 00 00 00 00 00 00 00 00 00 00 00 00 00 00
       0.0 0.0 0.0 0.0
000040 00 00 00 00 00 00 00 00 00 00 00 00 00 00 00 00
       0.0 0.0 0.0 0.0
000050 00 00 00 00 00 00 00 00 00 00 00 00 00 00 00 00
       0.0 0.0 0.0 0.0
000060 00 00 00 00 00 00 00 00 00 00 00 00 00 00 00 00
       0.0 0.0 0.0 0.0
000070 00 00 00 00 00 00 00 00 00 00 00 00 00 00 00 00
       0.0 0.0 0.0 0.0
000080 00 00 00 00 00 00 00 00 00 00 00 00 00 00 00 00
       0.0 0.0 0.0 0.0
000090 00 00 00 00 00 00 00 00 00 00 00 00 00 00 00 00
       0.0 0.0 0.0 0.0
0000a0 00 00 00 00 00 00 00 00 00 00 00 00 00 00 00 00
       0.0 0.0 0.0 0.0
0000b0 00 00 00 00 00 00 00 00 00 00 00 00 00 00 00 00
       0.0 0.0 0.0 0.0
0000c0 00 00 00 00 00 00 00 00 00 00 00 00 00 00 00 00
       0.0 0.0 0.0 0.0
0000d0 00 00 00 00 00 00 00 00 00 00 00 00 00 00 00 00
       0.0 0.0 0.0 0.0
0000e0 00 00 00 00 00 00 00 00 00 00 00 00 00 00 00 00
       0.0 0.0 0.0 0.0
0000f0 00 00 00 00 00 00 00 00 00 00 00 00 00 00 00 00
       0.0 0.0 0.0 0.0

running_var f4 [64]
000000 00 00 80 3f 00 00 80 3f 00 00 80 3f 00 00 80 3f
       1.0 1.0 1.0 1.0
000010 00 00 80 3f 00 00 80 3f 00 00 80 3f 00 00 80 3f
       1.0 1.0 1.0 1.0
000020 00 00 80 3f 00 00 80 3f 00 00 80 3f 00 00 80 3f
       1.0 1.0 1.0 1.0
000030 00 00 80 3f 00 00 80 3f 00 00 80 3f 00 00 80 3f
       1.0 1.0 1.0 1.0
000040 00 00 80 3f 00 00 80 3f 00 00 80 3f 00 00 80 3f
       1.0 1.0 1.0 1.0
000050 00 00 80 3f 00 00 80 3f 00 00 80 3f 00 00 80 3f
       1.0 1.0 1.0 1.0
000060 00 00 80 3f 00 00 80 3f 00 00 80 3f 00 00 80 3f
       1.0 1.0 1.0 1.0
000070 00 00 80 3f 00 00 80 3f 00 00 80 3f 00 00 80 3f
       1.0 1.0 1.0 1.0
000080 00 00 80 3f 00 00 80 3f 00 00 80 3f 00 00 80 3f
       1.0 1.0 1.0 1.0
000090 00 00 80 3f 00 00 80 3f 00 00 80 3f 00 00 80 3f
       1.0 1.0 1.0 1.0
0000a0 00 00 80 3f 00 00 80 3f 00 00 80 3f 00 00 80 3f
       1.0 1.0 1.0 1.0
0000b0 00 00 80 3f 00 00 80 3f 00 00 80 3f 00 00 80 3f
       1.0 1.0 1.0 1.0
0000c0 00 00 80 3f 00 00 80 3f 00 00 80 3f 00 00 80 3f
       1.0 1.0 1.0 1.0
0000d0 00 00 80 3f 00 00 80 3f 00 00 80 3f 00 00 80 3f
       1.0 1.0 1.0 1.0
0000e0 00 00 80 3f 00 00 80 3f 00 00 80 3f 00 00 80 3f
       1.0 1.0 1.0 1.0
0000f0 00 00 80 3f 00 00 80 3f 00 00 80 3f 00 00 80 3f
       1.0 1.0 1.0 1.0
