Code_darts/Search/operator_pt/unimib/Conv-151x3-151x64-7-1-1.pt (torch, 15944 bytes, 5 tensors)

weight f4 [64, 3, 7]
000000 85 72 c5 bd 3a c7 88 3d 76 c3 d4 3d b2 bf c2 3d
       -0.096409835 0.066786245 0.10388844 0.09509219
000010 b2 7a 9a 3d 84 07 03 3d 42 a9 ef 3d b3 28 58 3e
       0.075429335 0.03198959 0.11702205 0.21109276
000020 cc df 17 bd 44 50 5f 3d a0 ae 9d bb be 03 be 3d
       -0.037078664 0.054519907 -0.0048120767 0.092780575
000030 2e 21 d6 3d 40 4a 35 bc 13 25 58 3e cd 2e ca bd
       0.10455547 -0.011065066 0.21107893 -0.09872208
000040 00 f8 52 bb 89 d0 30 3e 96 dd 01 be e0 a2 9d 3c
       -0.0032191277 0.1726705 -0.12682185 0.019242704
000050 bb 4a 33 3e 2c ac 2c be a0 c5 82 bc 1c 9c 55 3d
       0.17508976 -0.16862553 -0.015963376 0.05215083
000060 ec e1 75 3d 6c 97 57 bd 4c d9 61 bd dc 88 1d 3d
       0.06002991 -0.05263464 -0.05513887 0.038460597
000070 a1 b0 24 3e c0 c3 4d bd 28 1b 4c bd 8d f5 3e 3e
       0.16083004 -0.05023551 -0.049830586 0.18648358
000080 e2 03 01 be 4a 0b d3 3d 80 db 87 bc c3 3f 0c 3e
       -0.12599137 0.103048876 -0.016584158 0.13696198
000090 64 34 7f 3d 1b 98 32 3e ba 06 f1 3d 9d fe d7 bd
       0.062305823 0.17440836 0.11768861 -0.105466105
0000a0 a0 e3 f4 3b db 0c 41 be 40 5e 3b 3c 04 af 44 3d
       0.007473424 -0.1885256 0.011436045 0.04801847
0000b0 c4 e7 3c be 94 82 bf bd 1a 0d 02 be 08 cc 08 be
       -0.18447787 -0.09351078 -0.1270031 -0.13359082
0000c0 eb d4 e5 bd 28 49 36 bd 4b 95 42 3e 8e 6a e4 bd
       -0.112222515 -0.04450336 0.19002263 -0.11153136
0000d0 85 37 02 3e 65 a3 5b be 3f c5 0d 3e 80 d2 bc 3b
       0.12716492 -0.21449049 0.13844775 0.0057623982
0000e0 ce 6d b2 3d 33 df 29 be 7e b1 b6 3d 4a 8f a1 3d
       0.0871235 -0.1658905 0.08920573 0.07888658
0000f0 aa d5 a0 3d 44 b2 20 be cc 3a 46 bd 80 d1 c0 bd
       0.07853253 -0.15693003 -0.048395917 -0.09414959
000100 00 34 d4 39 9b 9f 51 be 40 88 10 bb 60 75 80 bb
       0.00040474534 -0.20471041 -0.0022053868 -0.003920242
000110 08 28 04 be bd 82 d2 bd 0f 54 cc bd 02 90 bd 3d
       -0.12905896 -0.102788426 -0.099769704 0.09255983
000120 e0 94 16 3c be bf ea 3d 92 74 4a be d4 c3 39 be
       0.009190768 0.11462353 -0.1977103 -0.18141109
000130 0e 1c e3 3d 20 c3 e5 bb 80 fc 73 3b 04 78 03 3d
       0.110893354 -0.007011786 0.003722936 0.032096878
000140 62 35 2c be 0e 74 f5 3d fe 38 f5 3d 48 b3 da bc
       -0.16817239 0.11985026 0.11973761 -0.026696816
000150 14 07 28 be 32 4c df 3d 30 46 ef bc 18 a2 a8 bc
       -0.1640895 0.10903205 -0.029208273 -0.020585105
000160 98 bc 2d be 44 76 72 3d 7b 9a 33 3e 7a 33 03 be
       -0.16966474 0.05919482 0.17539398 -0.12812606
000170 64 9c a3 bd 6d 36 59 3e 3d f9 2c be ad d5 22 3e
       -0.079888135 0.21212168 -0.16891952 0.15901823
000180 3d 2b 30 3e e7 98 01 3e 94 c6 4d 3d c8 af 2e bd
       0.17203994 0.12655984 0.050238207 -0.042648107
000190 aa 4e 1e be 5c 2f ac bd 32 92 8a bd 00 2a d3 b9
       -0.15459695 -0.084074706 -0.06766166 -0.0004027635
0001a0 a6 f1 b2 3d 22 fd cb 3d fc a0 7c 3d 9e fb d1 3d
       0.08737497 0.099603906 0.061676964 0.1025307
0001b0 e1 98 20 be f6 f3 cd 3d df 17 cb bd 55 49 3a 3e
       -0.15683319 0.100562975 -0.099166624 0.18192036
0001c0 02 4c 96 3d a8 69 e6 3c 23 11 4a 3e 40 70 cc 3b
       0.07338716 0.028126553 0.197331 0.006238967
0001d0 b4 c7 59 3d 4a 81 88 3d d7 f2 0a be 27 d1 37 3e
       0.053168967 0.06665285 -0.13569199 0.17950879
0001e0 28 bf 85 3c f7 fe 17 3e f6 a1 be 3d 2c 66 26 3d
       0.016326502 0.14843355 0.09308235 0.040624782
0001f0 07 34 10 3e 4c b1 54 bd ff c5 1f 3e a0 69 7e 3c
       0.14082347 -0.051926896 0.15602873 0.015528113
000200 60 35 86 bb 0c 5c 40 3d 49 f2 5c 3e 31 15 3c 3e
       -0.0040957183 0.046962783 0.215768 0.18367459
000210 1a fd ad 3d 0c 42 43 be 90 0f 22 3c 84 76 16 be
       0.08495541 -0.19068164 0.009891406 -0.14693648
000220 1c 42 0b 3d a0 d7 98 3c d2 80 ad 3d aa e2 b2 3d
       0.033998594 0.018657506 0.08471836 0.08734639
000230 83 89 4f 3e aa 6a c4 3d 80 c1 ee bb 96 82 af bd
       0.202673 0.09590657 -0.0072862506 -0.08569829
000240 ba 6a f7 bd 17 c2 42 be 55 78 54 3e c3 1e cb bd
       -0.12080903 -0.19019352 0.20749028 -0.09917977
000250 00 f3 76 3a 23 70 32 3e 8d 0d f1 bd 3f a6 10 be
       0.0009420365 0.1742559 -0.11770163 -0.14125918
000260 34 c5 0b 3d 0e 83 04 be 00 70 37 bb 30 f9 1a bd
       0.034123614 -0.12940618 -0.0027990341 -0.0378353
000270 e0 9f 17 be 50 dd da bd ec 05 21 3d 20 c1 c7 bc
       -0.14807081 -0.10686743 0.03931229 -0.024384081
000280 70 d1 b1 bd 3b 45 2f 3e 5b c2 48 3e b0 4c 31 bd
       -0.08682525 0.17116253 0.1960539 -0.043286026
000290 47 9b 58 3e 18 69 04 bd 66 27 de 3d d8 4d 99 bc
       0.21152984 -0.032326788 0.108473584 -0.018713877
0002a0 3e 73 8b 3d d4 60 09 be 4f 4b 5f 3e 79 98 04 3e
       0.0680909 -0.13415843 0.21806072 0.12948789
0002b0 35 34 34 3e ac 4a 2d 3d 03 b9 2f 3e f8 df 51 bd
       0.1759804 0.04230754 0.1716042 -0.051238984
0002c0 d5 f8 08 3e 78 fd 95 bc 23 e0 5d 3e e6 14 f7 3d
       0.13376172 -0.01830934 0.21667533 0.12064533
0002d0 96 db be 3d 00 4c c4 b9 9b d6 1c 3e 42 03 31 be
       0.093192264 -0.00037440658 0.1531624 -0.17286399
0002e0 e5 2a 56 3e 61 2e 57 3e b0 a9 4f bc 7a be ec 3d
       0.209148 0.21013786 -0.012674734 0.11559768
0002f0 3c 52 52 3d 26 9b 25 be 40 b9 0a bd 79 63 3e be
       0.051347956 -0.16172466 -0.033868074 -0.18592633
000300 80 98 b0 bd 4e c6 07 be 4e 69 8c bd ef d3 30 3e
       -0.08622837 -0.13259241 -0.06856023 0.17268346
000310 16 36 17 be e2 d2 81 bd fc 31 9d bd 49 e2 13 3e
       -0.14766726 -0.06339051 -0.076755494 0.1444179
000320 ef 65 26 be 18 6a d6 bc a0 12 de 3c d7 71 fd bd
       -0.16249822 -0.026173636 0.02710849 -0.12375229
000330 ae d8 9f bd a8 ee 72 bd 65 0d 43 3e 7f 59 c0 bd
       -0.07805 -0.05930963 0.19048078 -0.0939207
000340 ea fc 0a be 92 36 06 be a0 ff bd bb a6 92 d7 3d
       -0.13573042 -0.13106754 -0.005798295 0.10526018
000350 78 56 4f be 70 f1 35 3c e2 1e f0 3d 2d c7 31 be
       -0.20247829 0.0111049265 0.117246404 -0.17361136
000360 68 86 b9 bc b8 f9 9d 3c 4c af 54 3d 9e f6 0b be
       -0.022647098 0.019284114 0.05192499 -0.13668296
000370 62 63 54 be fe 25 1e be 12 3d e3 3d 25 0b 32 be
       -0.20741037 -0.1544418 0.110956326 -0.17387064
000380 f6 a1 cf 3d 98 69 99 bc 0e 1d d9 3d b2 07 83 3d
       0.101383135 -0.018727109 0.10601245 0.06397952
000390 ac 21 60 3d 54 da 25 3d 3d 63 31 3e 9d 0f 22 3e
       0.054719612 0.040491417 0.17323013 0.15826268
0003a0 60 2c 17 be 8b 9a 16 3e 68 0b 59 bd e2 e0 a2 bd
       -0.14763021 0.14707391 -0.052989393 -0.07953049
0003b0 94 96 6d 3d 96 33 bd bd d4 32 7b 3d 49 6f 21 be
       0.05800493 -0.09238355 0.06132777 -0.15765108
0003c0 66 a6 a0 bd 6e c8 1b be 39 9e 10 3e 82 d2 a2 bd
       -0.07844238 -0.15213177 0.14122857 -0.079503074
0003d0 60 e2 14 bd b4 14 6d 3d e7 f5 20 3e be 16 b8 3d
       -0.0363487 0.057881072 0.15718804 0.08988713
0003e0 b4 99 33 3d f4 de 8e bd e1 47 03 3e 62 09 a4 3d
       0.043847755 -0.06976119 0.12820388 0.08009602
0003f0 10 03 24 bd aa bd a0 3d 93 e1 10 be 66 47 c0 3d
       -0.040041983 0.078486755 -0.1414855 0.09388618

weight f4 [64]
000000 00 00 80 3f 00 00 80 3f 00 00 80 3f 00 00 80 3f
       1.0 1.0 1.0 1.0
000010 00 00 80 3f 00 00 80 3f 00 00 80 3f 00 00 80 3f
       1.0 1.0 1.0 1.0
000020 00 00 80 3f 00 00 80 3f 00 00 80 3f 00 00 80 3f
       1.0 1.0 1.0 1.0
000030 00 00 80 3f 00 00 80 3f 00 00 80 3f 00 00 80 3f
       1.0 1.0 1.0 1.0
000040 00 00 80 3f 00 00 80 3f 00 00 80 3f 00 00 80 3f
       1.0 1.0 1.0 1.0
000050 00 00 80 3f 00 00 80 3f 00 00 80 3f 00 00 80 3f
       1.0 1.0 1.0 1.0
000060 00 00 80 3f 00 00 80 3f 00 00 80 3f 00 00 80 3f
       1.0 1.0 1.0 1.0
000070 00 00 80 3f 00 00 80 3f 00 00 80 3f 00 00 80 3f
       1.0 1.0 1.0 1.0
000080 00 00 80 3f 00 00 80 3f 00 00 80 3f 00 00 80 3f
       1.0 1.0 1.0 1.0
000090 00 00 80 3f 00 00 80 3f 00 00 80 3f 00 00 80 3f
       1.0 1.0 1.0 1.0
0000a0 00 00 80 3f 00 00 80 3f 00 00 80 3f 00 00 80 3f
       1.0 1.0 1.0 1.0
0000b0 00 00 80 3f 00 00 80 3f 00 00 80 3f 00 00 80 3f
       1.0 1.0 1.0 1.0
0000c0 00 00 80 3f 00 00 80 3f 00 00 80 3f 00 00 80 3f
       1.0 1.0 1.0 1.0
0000d0 00 00 80 3f 00 00 80 3f 00 00 80 3f 00 00 80 3f
       1.0 1.0 1.0 1.0
0000e0 00 00 80 3f 00 00 80 3f 00 00 80 3f 00 00 80 3f
       1.0 1.0 1.0 1.0
0000f0 00 00 80 3f 00 00 80 3f 00 00 80 3f 00 00 80 3f
       1.0 1.0 1.0 1.0

bias f4 [64]
000000 00 00 00 00 00 00 00 00 00 00 00 00 00 00 00 00
       0.0 0.0 0.0 0.0
000010 00 00 00 00 00 00 00 00 00 00 00 00 00 00 00 00
       0.0 0.0 0.0 0.0
000020 00 00 00 00 00 00 00 00 00 00 00 00 00 00 00 00
       0.0 0.0 0.0 0.0
000030 00 00 00 00 00 00 00 00 00 00 00 00 00 00 00 00
       0.0 0.0 0.0 0.0
000040 00 00 00 00 00 00 00 00 00 00 00 00 00 00 00 00
       0.0 0.0 0.0 0.0
000050 00 00 00 00 00 00 00 00 00 00 00 00 00 00 00 00
       0.0 0.0 0.0 0.0
000060 00 00 00 00 00 00 00 00 00 00 00 00 00 00 00 00
       0.0 0.0 0.0 0.0
000070 00 00 00 00 00 00 00 00 00 00 00 00 00 00 00 00
       0.0 0.0 0.0 0.0
000080 00 00 00 00 00 00 00 00 00 00 00 00 00 00 00 00
       0.0 0.0 0.0 0.0
000090 00 00 00 00 00 00 00 00 00 00 00 00 00 00 00 00
       0.0 0.0 0.0 0.0
0000a0 00 00 00 00 00 00 00 00 00 00 00 00 00 00 00 00
       0.0 0.0 0.0 0.0
0000b0 00 00 00 00 00 00 00 00 00 00 00 00 00 00 00 00
       0.0 0.0 0.0 0.0
0000c0 00 00 00 00 00 00 00 00 00 00 00 00 00 00 00 00
       0.0 0.0 0.0 0.0
0000d0 00 00 00 00 00 00 00 00 00 00 00 00 00 00 00 00
       0.0 0.0 0.0 0.0
0000e0 00 00 00 00 00 00 00 00 00 00 00 00 00 00 00 00
       0.0 0.0 0.0 0.0
0000f0 00 00 00 00 00 00 00 00 00 00 00 00 00 00 00 00
       0.0 0.0 0.0 0.0

running_mean f4 [64]
000000 00 00 00 00 00 00 00 00 00 00 00 00 00 00 00 00
       0.0 0.0 0.0 0.0
000010 00 00 00 00 00 00 00 00 00 00 00 00 00 00 00 00
       0.0 0.0 0.0 0.0
000020 00 00 00 00 00 00 00 00 00 00 00 00 00 00 00 00
       0.0 0.0 0.0 0.0
000030 00 00 00 00 00 00 00 00 00 00 00 00 00 00 00 00
       0.0 0.0 0.0 0.0
000040 00 00 00 00 00 00 00 00 00 00 00 00 00 00 00 00
       0.0 0.0 0.0 0.0
000050 00 00 00 00 00 00 00 00 00 00 00 00 00 00 00 00
       0.0 0.0 0.0 0.0
000060 00 00 00 00 00 00 00 00 00 00 00 00 00 00 00 00
       0.0 0.0 0.0 0.0
000070 00 00 00 00 00 00 00 00 00 00 00 00 00 00 00 00
       0.0 0.0 0.0 0.0
000080 00 00 00 00 00 00 00 00 00 00 00 00 00 00 00 00
       0.0 0.0 0.0 0.0
000090 00 00 00 00 00 00 00 00 00 00 00 00 00 00 00 00
       0.0 0.0 0.0 0.0
0000a0 00 00 00 00 00 00 00 00 00 00 00 00 00 00 00 00
       0.0 0.0 0.0 0.0
0000b0 00 00 00 00 00 00 00 00 00 00 00 00 00 00 00 00
       0.0 0.0 0.0 0.0
0000c0 00 00 00 00 00 00 00 00 00 00 00 00 00 00 00 00
       0.0 0.0 0.0 0.0
0000d0 00 00 00 00 00 00 00 00 00 00 00 00 00 00 00 00
       0.0 0.0 0.0 0.0
0000e0 00 00 00 00 00 00 00 00 00 00 00 00 00 00 00 00
       0.0 0.0 0.0 0.0
0000f0 00 00 00 00 00 00 00 00 00 00 00 00 00 00 00 00
       0.0 0.0 0.0 0.0

running_var f4 [64]
000000 00 00 80 3f 00 00 80 3f 00 00 80 3f 00 00 80 3f
       1.0 1.0 1.0 1.0
000010 00 00 80 3f 00 00 80 3f 00 00 80 3f 00 00 80 3f
       1.0 1.0 1.0 1.0
000020 00 00 80 3f 00 00 80 3f 00 00 80 3f 00 00 80 3f
       1.0 1.0 1.0 1.0
000030 00 00 80 3f 00 00 80 3f 00 00 80 3f 00 00 80 3f
       1.0 1.0 1.0 1.0
000040 00 00 80 3f 00 00 80 3f 00 00 80 3f 00 00 80 3f
       1.0 1.0 1.0 1.0
000050 00 00 80 3f 00 00 80 3f 00 00 80 3f 00 00 80 3f
       1.0 1.0 1.0 1.0
000060 00 00 80 3f 00 00 80 3f 00 00 80 3f 00 00 80 3f
       1.0 1.0 1.0 1.0
000070 00 00 80 3f 00 00 80 3f 00 00 80 3f 00 00 80 3f
       1.0 1.0 1.0 1.0
000080 00 00 80 3f 00 00 80 3f 00 00 80 3f 00 00 80 3f
       1.0 1.0 1.0 1.0
000090 00 00 80 3f 00 00 80 3f 00 00 80 3f 00 00 80 3f
       1.0 1.0 1.0 1.0
0000a0 00 00 80 3f 00 00 80 3f 00 00 80 3f 00 00 80 3f
       1.0 1.0 1.0 1.0
0000b0 00 00 80 3f 00 00 80 3f 00 00 80 3f 00 00 80 3f
       1.0 1.0 1.0 1.0
0000c0 00 00 80 3f 00 00 80 3f 00 00 80 3f 00 00 80 3f
       1.0 1.0 1.0 1.0
0000d0 00 00 80 3f 00 00 80 3f 00 00 80 3f 00 00 80 3f
       1.0 1.0 1.0 1.0
0000e0 00 00 80 3f 00 00 80 3f 00 00 80 3f 00 00 80 3f
       1.0 1.0 1.0 1.0
0000f0 00 00 80 3f 00 00 80 3f 00 00 80 3f 00 00 80 3f
       1.0 1.0 1.0 1.0
