Code_darts/Search/operator_pt/unimib/DilatedConv-151x3-151x64-3-1-2.pt (torch, 13055 bytes, 5 tensors)

weight f4 [64, 3, 3]
0	0x3e70085a	0.23440686
1	0x3d94a194	0.07257381
2	0x3e88c4cf	0.26712653
3	0xbcf291c0	-0.029610515
4	0xbdaa1ef0	-0.08306682
5	0x3e6c43c2	0.23072723
6	0xbe24c98b	-0.16092508
7	0xbe796ec0	-0.24358654
8	0xbe957978	-0.29194236
9	0x3e5146e2	0.20437196
10	0xbdd58c46	-0.10427146
11	0x3e91c65d	0.28471652
12	0xbe50c8c0	-0.2038908
13	0x3ea9f5df	0.33195397
14	0xbe85d204	-0.26136792
15	0x3d850a94	0.06496158
16	0xbe929e84	-0.28636563
17	0xbe2b6f8e	-0.16741773
18	0xbdf51610	-0.11967099
19	0x3e852931	0.2600799
20	0x3d69afa8	0.057052284
21	0x3b7f7600	0.0038980246
22	0x3d8ea9ac	0.06965956
23	0xbea5c64c	-0.3237785
24	0x3d51fbc8	0.051265508
25	0x3e67b542	0.22627738
26	0xbe550263	-0.20801692
27	0x3d87cf44	0.0663133
28	0xbe8147fc	-0.25250232
29	0x3e8d62b9	0.27614382
30	0x3e93f0f5	0.28894773
31	0x3e84f985	0.25971618
32	0x3a77b800	0.00094497204
33	0xbd56e278	-0.05246207
34	0x3c84c790	0.01620844
35	0xbe8212d6	-0.25404996
36	0xbdfb90d0	-0.1228348
37	0x3e60edd2	0.21965721
38	0xbe942417	-0.28933784
39	0x3e318f66	0.17339858
40	0x3e82e815	0.2556769
41	0xbcac3fc0	-0.021026492
42	0xbe76424e	-0.2404873
43	0x3e91e299	0.28493193
44	0xbe96091e	-0.2930383
45	0xbe4a0ecb	-0.19732206
46	0xbe89618e	-0.2683224
47	0xbe0b3746	-0.13595304
48	0x3d21b940	0.03948331
49	0x3e2ff0f2	0.17181757
50	0x3e3fed2e	0.1874282
51	0x3e3e2b9a	0.1857132
52	0xbe664d73	-0.22490482
53	0x3e76a9ca	0.24088207
54	0x3ea6a345	0.3254644
55	0x3e97a2c9	0.29616383
56	0x3e405752	0.1878331
57	0x3dc46c84	0.0959101
58	0xbe5379ee	-0.20651981
59	0xbdfc8cbc	-0.123315305
60	0xbe9a6422	-0.3015452
61	0x3e268c50	0.16264462
62	0x3d377838	0.044792384
63	0x3e647666	0.2231079
64	0x3e285eb2	0.16442373
65	0xbdaefcf0	-0.08544338
66	0x3ea339b7	0.3187997
67	0xbe17c908	-0.14822781
68	0x3e9671c7	0.2938368
69	0x3e770e3a	0.24126521
70	0x3e85ef15	0.26158968
71	0xbc984e50	-0.01859203
72	0x3d7b66a8	0.061377198
73	0x3e8e531b	0.2779778
74	0xbe504a28	-0.20340788
75	0xbe70bec8	-0.23510277
76	0xbe1b25fb	-0.15151207
77	0x3e9cd5f9	0.30631998
78	0xbe340058	-0.17578256
79	0x3e7c09ce	0.24613115
80	0xbb146c80	-0.002264768
81	0xbe89cf4c	-0.26915967
82	0x3e042332	0.12904051
83	0xbe3a95ae	-0.18221161
84	0xbe002fe6	-0.12518272
85	0xbe0948db	-0.13406698
86	0xbe29da60	-0.1658721
87	0xbd64a120	-0.055817723
88	0x3e8cd6b1	0.27507547
89	0x3e0ffa5a	0.14060345
90	0xbd730120	-0.059327245
91	0xbe309020	-0.1724248
92	0x3d4bf668	0.04979554
93	0xbb409480	-0.0029385388
94	0x3c8dacc0	0.017294288
95	0xbd084008	-0.03326419
96	0xbd81f48c	-0.06345472
97	0x3e1db48e	0.15400907
98	0xbe6bf8e0	-0.23044157
99	0x3d106940	0.035256624
100	0x3e096486	0.13417253
101	0x3da92fc4	0.08261064
102	0xbdaac0dc	-0.08337566
103	0x3dd5a980	0.1043272
104	0xbe058983	-0.13040738
105	0xbe6e9afb	-0.23301308
106	0x3ca474b0	0.020075172
107	0x3e0f960a	0.14022079
108	0x3d129940	0.03579068
109	0xbd8877d4	-0.066634804
110	0xbdd90b70	-0.10597885
111	0x3ea661d7	0.3249652
112	0x3e83c42d	0.25735608
113	0x3e71ace2	0.23601106
114	0xbe352d7b	-0.1769313
115	0x3e2c99ba	0.16855517
116	0x3e8232c1	0.25429347
117	0xbda450ac	-0.080231994
118	0x3c83f910	0.016109973
119	0x3e36ab66	0.17838821
120	0xbe5f64b6	-0.21815762
121	0xbd825e60	-0.06365657
122	0xbc94c070	-0.018158168
123	0x3d7cbc18	0.061702818
124	0x3cd9e610	0.02659896
125	0x3e4c5b9a	0.19956818
126	0xbd95c1f4	-0.07312384
127	0xbe86f9c8	-0.26362443
128	0x3c8b8a70	0.017033786
129	0x3d92bb20	0.071645975
130	0xbe2f095b	-0.17093413
131	0x3e980485	0.29690948
132	0x3ce8fa50	0.02843967
133	0x3e2ffe2a	0.171868
134	0x3e259bd0	0.16172719
135	0xbd367b80	-0.044551373
136	0x3ea282bb	0.31740364
137	0x3e9b15c9	0.30290058
138	0x3e5d4ba2	0.21610883
139	0x3e0906ae	0.13381454
140	0x3e8ed3bd	0.27895918
141	0xbda9a254	-0.08282915
142	0x3e4c3baa	0.19944635
143	0xbe8fcfc2	-0.28088194
144	0xbe32fa23	-0.17478232
145	0x3e1357b6	0.14388928
146	0xbe808ede	-0.25109
147	0xbe946226	-0.2898113
148	0x3e079e08	0.13243878
149	0x3e79d1ea	0.24396482
150	0xbe8bc1b2	-0.27296215
151	0x3e026d6a	0.1273705
152	0xbd0457a8	-0.032310158
153	0xbbda70c0	-0.006666273
154	0x3ea1ae25	0.31578174
155	0x3e072f50	0.13201642
156	0x3e622892	0.22085789
157	0x3e06cf3a	0.13164988
158	0x3e43c2d6	0.19117293
159	0xbcb76c80	-0.022390604
160	0xbe23dd90	-0.16002488
161	0xbe8accbf	-0.27109334
162	0xbe6f818e	-0.23389265
163	0x3d068018	0.032837003
164	0x3e771ba2	0.24131635
165	0x3e630a02	0.22171786
166	0xbd8e3ed4	-0.06945577
167	0xbd2b1f98	-0.041778177
168	0xbe1569b3	-0.14591102
169	0x3dacb2c4	0.08432534
170	0x3d880e94	0.066434056
171	0xbe9b81c0	-0.3037243
172	0x3e1cb1be	0.15302178
173	0xbe160056	-0.14648566
174	0x3e2c6322	0.16834691
175	0x3d4a95e0	0.04945934
176	0x3e3bc73a	0.18337718
177	0x3de9debc	0.11419436
178	0x3dd001a0	0.1015656
179	0x3e10db0e	0.14146063
180	0xbdd277a0	-0.10276723
181	0xbe8b17f6	-0.27166718
182	0xbe41dc5e	-0.1893172
183	0x3e7147ba	0.23562518
184	0xbdb469f0	-0.088092685
185	0x3d98e9f4	0.07466498
186	0xbea3909e	-0.31946272
187	0x3e41f8b6	0.18942532
188	0xbc722e80	-0.014781594
189	0xbd201460	-0.03908193
190	0xbcfc50f0	-0.030800313
191	0xbc043aa0	-0.008070618
192	0xbd98a2cc	-0.07452926
193	0xbeaa15c4	-0.3321973
194	0x3e17ba48	0.14817154
195	0xbe84735a	-0.25869256
196	0xbe551256	-0.20807776
197	0xbd716740	-0.058936357
198	0x3e4bb89a	0.19894639
199	0x3e8a6457	0.27029678
200	0xbdc62ae6	-0.09676151
201	0x3e6d3436	0.23164448
202	0x3bbc9740	0.005755335
203	0x3e99562d	0.2994856
204	0xbe4459ae	-0.19174835
205	0x3e5aaa4a	0.21354023
206	0xbe243b36	-0.16038212
207	0x3e318e2e	0.17339393
208	0xbcd94290	-0.026520997
209	0x3e8b32d5	0.2718722
210	0x3eaa25f5	0.33232084
211	0x3e96fabd	0.29488173
212	0x3e953441	0.2914143
213	0xbde25390	-0.110510945
214	0x3dc26e90	0.094937444
215	0x3d930e20	0.071804285
216	0x3d935dd0	0.07195628
217	0xbd449258	-0.047991127
218	0x3d59c538	0.053166598
219	0xbe9a3806	-0.30120867
220	0xbd27c318	-0.04095754
221	0x3c96d3c0	0.018411517
222	0xbe94af3c	-0.29039943
223	0xbd73b528	-0.059498936
224	0xbe853122	-0.26014048
225	0xbd308a60	-0.043100715
226	0x3ca3d500	0.019999027
227	0xbdd2a260	-0.10284877
228	0x3e9a30b9	0.30115297
229	0x3ea0419d	0.3130006
230	0x3e3778a2	0.17917112
231	0x3e28c3e6	0.1648098
232	0xbea1472a	-0.31499606
233	0x3e3d2e6a	0.18474737
234	0x3c7ab320	0.015301496
235	0xbe829d9b	-0.25510868
236	0x3e26da66	0.1629425
237	0xbe451bc6	-0.19248876
238	0x3e18a246	0.14905652
239	0x3e13146e	0.14363262
240	0x3e858399	0.26076964
241	0xbd124678	-0.035711735
242	0xbe8c13e0	-0.27358913
243	0xbcd514d0	-0.0260109
244	0x3ceb57f0	0.028728455
245	0x3e6ce4ca	0.23134151
246	0xbe8cfccb	-0.27536616
247	0xbe838820	-0.25689793
248	0xbea1d7fe	-0.316101
249	0xbe283de0	-0.16429853
250	0x3d8144e4	0.06311968
251	0x3e7aeab6	0.24503598
252	0xbd9378e4	-0.072007924
253	0x3d96f360	0.07370639
254	0xbe544290	-0.20728517
255	0x3d161098	0.03663692

weight f4 [64]
0	0x3f800000	1.0
1	0x3f800000	1.0
2	0x3f800000	1.0
3	0x3f800000	1.0
4	0x3f800000	1.0
5	0x3f800000	1.0
6	0x3f800000	1.0
7	0x3f800000	1.0
8	0x3f800000	1.0
9	0x3f800000	1.0
10	0x3f800000	1.0
11	0x3f800000	1.0
12	0x3f800000	1.0
13	0x3f800000	1.0
14	0x3f800000	1.0
15	0x3f800000	1.0
16	0x3f800000	1.0
17	0x3f800000	1.0
18	0x3f800000	1.0
19	0x3f800000	1.0
20	0x3f800000	1.0
21	0x3f800000	1.0
22	0x3f800000	1.0
23	0x3f800000	1.0
24	0x3f800000	1.0
25	0x3f800000	1.0
26	0x3f800000	1.0
27	0x3f800000	1.0
28	0x3f800000	1.0
29	0x3f800000	1.0
30	0x3f800000	1.0
31	0x3f800000	1.0
32	0x3f800000	1.0
33	0x3f800000	1.0
34	0x3f800000	1.0
35	0x3f800000	1.0
36	0x3f800000	1.0
37	0x3f800000	1.0
38	0x3f800000	1.0
39	0x3f800000	1.0
40	0x3f800000	1.0
41	0x3f800000	1.0
42	0x3f800000	1.0
43	0x3f800000	1.0
44	0x3f800000	1.0
45	0x3f800000	1.0
46	0x3f800000	1.0
47	0x3f800000	1.0
48	0x3f800000	1.0
49	0x3f800000	1.0
50	0x3f800000	1.0
51	0x3f800000	1.0
52	0x3f800000	1.0
53	0x3f800000	1.0
54	0x3f800000	1.0
55	0x3f800000	1.0
56	0x3f800000	1.0
57	0x3f800000	1.0
58	0x3f800000	1.0
59	0x3f800000	1.0
60	0x3f800000	1.0
61	0x3f800000	1.0
62	0x3f800000	1.0
63	0x3f800000	1.0

bias f4 [64]
0	0x00000000	0.0
1	0x00000000	0.0
2	0x00000000	0.0
3	0x00000000	0.0
4	0x00000000	0.0
5	0x00000000	0.0
6	0x00000000	0.0
7	0x00000000	0.0
8	0x00000000	0.0
9	0x00000000	0.0
10	0x00000000	0.0
11	0x00000000	0.0
12	0x00000000	0.0
13	0x00000000	0.0
14	0x00000000	0.0
15	0x00000000	0.0
16	0x00000000	0.0
17	0x00000000	0.0
18	0x00000000	0.0
19	0x00000000	0.0
20	0x00000000	0.0
21	0x00000000	0.0
22	0x00000000	0.0
23	0x00000000	0.0
24	0x00000000	0.0
25	0x00000000	0.0
26	0x00000000	0.0
27	0x00000000	0.0
28	0x00000000	0.0
29	0x00000000	0.0
30	0x00000000	0.0
31	0x00000000	0.0
32	0x00000000	0.0
33	0x00000000	0.0
34	0x00000000	0.0
35	0x00000000	0.0
36	0x00000000	0.0
37	0x00000000	0.0
38	0x00000000	0.0
39	0x00000000	0.0
40	0x00000000	0.0
41	0x00000000	0.0
42	0x00000000	0.0
43	0x00000000	0.0
44	0x00000000	0.0
45	0x00000000	0.0
46	0x00000000	0.0
47	0x00000000	0.0
48	0x00000000	0.0
49	0x00000000	0.0
50	0x00000000	0.0
51	0x00000000	0.0
52	0x00000000	0.0
53	0x00000000	0.0
54	0x00000000	0.0
55	0x00000000	0.0
56	0x00000000	0.0
57	0x00000000	0.0
58	0x00000000	0.0
59	0x00000000	0.0
60	0x00000000	0.0
61	0x00000000	0.0
62	0x00000000	0.0
63	0x00000000	0.0

running_mean f4 [64]
0	0x00000000	0.0
1	0x00000000	0.0
2	0x00000000	0.0
3	0x00000000	0.0
4	0x00000000	0.0
5	0x00000000	0.0
6	0x00000000	0.0
7	0x00000000	0.0
8	0x00000000	0.0
9	0x00000000	0.0
10	0x00000000	0.0
11	0x00000000	0.0
12	0x00000000	0.0
13	0x00000000	0.0
14	0x00000000	0.0
15	0x00000000	0.0
16	0x00000000	0.0
17	0x00000000	0.0
18	0x00000000	0.0
19	0x00000000	0.0
20	0x00000000	0.0
21	0x00000000	0.0
22	0x00000000	0.0
23	0x00000000	0.0
24	0x00000000	0.0
25	0x00000000	0.0
26	0x00000000	0.0
27	0x00000000	0.0
28	0x00000000	0.0
29	0x00000000	0.0
30	0x00000000	0.0
31	0x00000000	0.0
32	0x00000000	0.0
33	0x00000000	0.0
34	0x00000000	0.0
35	0x00000000	0.0
36	0x00000000	0.0
37	0x00000000	0.0
38	0x00000000	0.0
39	0x00000000	0.0
40	0x00000000	0.0
41	0x00000000	0.0
42	0x00000000	0.0
43	0x00000000	0.0
44	0x00000000	0.0
45	0x00000000	0.0
46	0x00000000	0.0
47	0x00000000	0.0
48	0x00000000	0.0
49	0x00000000	0.0
50	0x00000000	0.0
51	0x00000000	0.0
52	0x00000000	0.0
53	0x00000000	0.0
54	0x00000000	0.0
55	0x00000000	0.0
56	0x00000000	0.0
57	0x00000000	0.0
58	0x00000000	0.0
59	0x00000000	0.0
60	0x00000000	0.0
61	0x00000000	0.0
62	0x00000000	0.0
63	0x00000000	0.0

running_var f4 [64]
0	0x3f800000	1.0
1	0x3f800000	1.0
2	0x3f800000	1.0
3	0x3f800000	1.0
4	0x3f800000	1.0
5	0x3f800000	1.0
6	0x3f800000	1.0
7	0x3f800000	1.0
8	0x3f800000	1.0
9	0x3f800000	1.0
10	0x3f800000	1.0
11	0x3f800000	1.0
12	0x3f800000	1.0
13	0x3f800000	1.0
14	0x3f800000	1.0
15	0x3f800000	1.0
16	0x3f800000	1.0
17	0x3f800000	1.0
18	0x3f800000	1.0
19	0x3f800000	1.0
20	0x3f800000	1.0
21	0x3f800000	1.0
22	0x3f800000	1.0
23	0x3f800000	1.0
24	0x3f800000	1.0
25	0x3f800000	1.0
26	0x3f800000	1.0
27	0x3f800000	1.0
28	0x3f800000	1.0
29	0x3f800000	1.0
30	0x3f800000	1.0
31	0x3f800000	1.0
32	0x3f800000	1.0
33	0x3f800000	1.0
34	0x3f800000	1.0
35	0x3f800000	1.0
36	0x3f800000	1.0
37	0x3f800000	1.0
38	0x3f800000	1.0
39	0x3f800000	1.0
40	0x3f800000	1.0
41	0x3f800000	1.0
42	0x3f800000	1.0
43	0x3f800000	1.0
44	0x3f800000	1.0
45	0x3f800000	1.0
46	0x3f800000	1.0
47	0x3f800000	1.0
48	0x3f800000	1.0
49	0x3f800000	1.0
50	0x3f800000	1.0
51	0x3f800000	1.0
52	0x3f800000	1.0
53	0x3f800000	1.0
54	0x3f800000	1.0
55	0x3f800000	1.0
56	0x3f800000	1.0
57	0x3f800000	1.0
58	0x3f800000	1.0
59	0x3f800000	1.0
60	0x3f800000	1.0
61	0x3f800000	1.0
62	0x3f800000	1.0
63	0x3f800000	1.0
