Code_darts/Search/operator_pt/unimib/DilatedDepthConv-151x3-151x64-9-1-2.pt (torch, 17816 bytes, 5 tensors)

weight f4 [64, 3, 9]
0.059214488 0.09241028 0.121751204 0.18996121 -0.00892435 -0.037498802 0.10262559 -0.10809277
-0.15950389 -0.15403107 0.083869204 -0.09465548 -0.03411621 -0.15419573 0.15759213 0.03073731
0.15778045 0.06925087 -0.099798284 0.00044888258 0.12739484 -0.1427265 -0.08970378 -0.0743046
0.015085474 -0.1303218 -0.121640936 0.02923043 0.022359163 0.112298444 -0.05281806 -0.090870075
-0.1857942 0.13362725 0.004728928 -0.17039208 0.09129177 0.11911906 0.1427124 -0.12472365
-0.17462257 -0.16959006 -0.09737154 0.0641828 0.10969566 0.09568621 -0.0070487857 -0.0518876
0.026577681 0.10164307 0.107486084 0.100244775 0.12037097 -0.14066881 0.17612405 0.060134336
-0.15298848 -0.065489545 -0.06450428 0.15078868 0.14494245 0.00391528 0.16906776 0.06667538
-0.015981331 0.1508796 0.07871564 -0.028636307 -0.06978724 -0.032314077 0.055255145 -0.06969157
-0.057030037 -0.13781092 -0.022517234 0.016685665 -0.18799026 -0.1206278 -0.05569242 -0.022295848
0.16593285 0.15047477 -0.05815719 0.14289783 -0.057786062 -0.1783856 -0.08598378 -0.044152603
0.02392891 0.15019034 -0.15861619 0.19144209 -0.08780562 -0.028591111 -0.01620084 0.06802325
0.15690677 0.12768002 -0.16503012 0.018122956 -0.14300725 -0.0096949935 0.13100629 0.10958256
0.0735157 0.02513887 -0.057168007 0.057141393 0.14012666 -0.13339467 0.11698009 0.04837835
-0.18709219 -0.11080227 0.027294338 0.16156562 -0.122459866 0.0989043 0.1511259 0.023449287
-0.12974483 0.16639619 0.09561904 0.05626516 -0.115253374 0.12991746 0.03910546 0.060106173
0.13413472 0.18809538 -0.12943459 -0.0905482 -0.036778703 -0.085883416 0.038422093 -0.06984228
-0.1705937 0.15752177 -0.03747332 -0.06038764 -0.18190324 0.07643543 -0.10365088 -0.038052037
-0.042884305 0.15790309 0.07916303 -0.12196109 -0.048257396 0.1577944 -0.12418087 -0.12882599
-0.052888185 -0.022834241 0.08148192 -0.05662331 0.14235164 0.06374247 0.026096463 -0.06682864
-0.12697622 -0.044755965 0.023139521 -0.15011135 -0.12234004 0.15445708 -0.09594174 0.091616586
0.15638007 -0.077024244 0.04652901 -0.16081548 0.0908692 -0.1045832 -0.015254423 -0.030123994
-0.0808302 -0.090550266 0.15210791 -0.020759016 0.14585496 0.18816535 -0.14409956 -0.046246484
0.16380055 0.18366183 -0.012090191 0.1656413 -0.06241229 -0.14347634 0.103571996 0.14986534
0.06631456 0.033259913 -0.12186953 -0.12642995 0.022184774 0.15247403 -0.1841209 0.029230356
-0.11027305 -0.020492524 0.13801815 0.07407342 -0.102059245 0.042094395 0.0054380447 0.052320585
-0.118342124 0.0569427 0.12821223 -0.07640194 0.13220815 0.07332493 -0.0891106 -0.16678745
-0.11860196 0.15334098 0.16247945 -0.18130614 0.15996437 0.07851158 0.02759841 0.043565243
-0.006159976 -0.16721046 0.03879389 0.020555273 0.03172216 0.106498525 -0.1755805 0.16478564
0.1504073 0.041985005 0.14035653 0.011337265 0.12843873 0.101464316 0.18105231 0.04738313
-0.0077408254 -0.010779589 0.016435489 0.051601127 -0.01512298 0.023565263 -0.035404354 0.028990895
-0.12250394 0.07382925 -0.14011139 -0.1396691 0.048750117 0.12906598 0.01692897 0.04015526
00000000: e48a 723d 9a41 bd3d b258 f93d 3185 423e
00000010: 7037 12bc 5898 19bd 5e2d d23d be5f ddbd
00000020: fd54 23be 52ba 1dbe 9ec3 ab3d bbda c1bd
00000030: 70bd 0bbd 7ce5 1dbe d55f 213e d0cc fb3c
00000040: 3391 213e 66d3 8d3d 0b63 ccbd 0058 eb39
00000050: cb73 023e e526 12be 9eb6 b7bd 032d 98bd
00000060: 1029 773c 1473 05be e21e f9bd a874 ef3c
00000070: 902a b73c bafc e53d c057 58bd 171a babd
00000080: d640 3ebe 95d5 083e 20f5 9a3b 437b 2ebe
00000090: 2ef7 ba3d b2f4 f33d 3323 123e 1d6f ffbd
000000a0: 42d0 32be 04a9 2dbe bb6a c7bd 4672 833d
000000b0: 1ea8 e03d 22f7 c33d 80f9 e6bb 1888 54bd
000000c0: 70b9 d93c 3e2a d03d aa21 dc3d 224d cd3d
000000d0: 0e85 f63d 7c0b 10be dd59 343e 6c4f 763d
000000e0: 03a9 1cbe 621f 86bd d21a 84bd 5968 1a3e
000000f0: cb6b 143e c04b 803b 1920 2d3e 1a8d 883d
00000100: 48eb 82bc 2f80 1a3e aa35 a13d b096 eabc
00000110: 9dec 8ebd c45b 04bd 3853 623d 74ba 8ebd
00000120: 5498 69bd 4e1e 0dbe 1076 b8bc 60b0 883c
00000130: 8580 40be b50b f7bd bc1d 64bd c8a5 b6bc
00000140: 4dea 293e 0f16 1a3e 3c36 6ebd cf53 123e
00000150: 14b1 6cbd b7aa 36be 4418 b0bd 5cd9 34bd
00000160: 9006 c43c 7fcb 193e 486c 22be 6509 443e
00000170: 6fd3 b3bd e837 eabc a0b7 84bc c64f 8b3d
00000180: 2bac 203e 8dbe 023e a8fd 28be 9876 943c
00000190: 7e70 12be c0d7 1ebc 8326 063e d26c e03d
000001a0: 668f 963d 08f0 cd3c 0029 6abd 180d 6a3d
000001b0: 5d7d 0f3e 9d98 08be 4293 ef3d 6028 463d
000001c0: 1895 3fbe 4dec e2bd 6098 df3c 7571 253e
000001d0: 3dcc fabd 568e ca3d bfc0 1a3e b818 c03c
000001e0: d4db 04be c363 2a3e ead3 c33d 4c76 663d
000001f0: f609 ecbd 1509 053e 0c2d 203d e431 763d
00000200: 9d5a 093e 139c 403e 808a 04be 5671 b9bd
00000210: 44a5 16bd a5e3 afbd 7c60 1d3d 7809 8fbd
00000220: 1db0 2ebe 634d 213e a07d 19bd 0859 77bd
00000230: d844 3abe 2e8a 9c3d ea46 d4bd 74dc 1bbd
00000240: 74a7 2fbd 59b1 213e 3a20 a23d bcc6 f9bd
00000250: 8ca9 45bd db94 213e 8a52 febd f6ea 03be
00000260: 48a1 58bd e00e bbbc fedf a63d d8ed 67bd
00000270: a1c4 113e 6a8b 823d 40c8 d53c 74dd 88bd
00000280: 0e06 02be 0852 37bd 188f bd3c cab6 19be
00000290: 6a8d fabd ff29 1e3e 1a7d c4bd 7aa1 bb3d
000002a0: 1922 203e e3be 9dbd 3495 3e3d d0ac 24be
000002b0: a219 ba3d b72f d6bd b0ed 79bc 98c6 f6bc
000002c0: 4e8a a5bd 6b72 b9bd 2dc2 1b3e d00e aabc
000002d0: 015b 153e 6bae 403e d68e 13be f46c 3dbd
000002e0: 55bb 273e d911 3c3e f015 46bc df9d 293e
000002f0: 08a4 7fbd 76eb 12be 8e1d d43d 4d76 193e
00000300: eecf 873d 8c3b 083d bb96 f9bd da76 01be
00000310: d8bc b53c 2722 1c3e 308a 3cbe 8074 ef3c
00000320: d6d6 e1bd f0df a7bc a154 0d3e ceb3 973d
00000330: 7004 d1bd 2c6b 2c3d a031 b23b 1c4e 563d
00000340: 5b5d f2bd c03c 693d 114a 033e 9f78 9cbd
00000350: 9361 073e 622b 963d 9e7f b6bd 54ca 2abe
00000360: 96e5 f2bd 6b05 1d3e 0361 263e 51a8 39be
00000370: b3cd 233e aeca a03d 1016 e23c 7871 323d
00000380: a0d9 c9bb 3839 2bbe 58e6 1e3d 8863 a83c
00000390: 18ef 013d e61b da3d 60cb 33be 91bd 283e
000003a0: 5f04 1a3e 78f8 2b3d 9fb9 0f3e f0bf 393c
000003b0: 7185 033e 86cc cf3d c765 393e d014 423d
000003c0: c0a6 fdbb e09c 30bc b8a3 863c b45b 533d
000003d0: 60c6 77bc f00b c13c 2804 11bd 507e ed3c
000003e0: 58e3 fabd ca33 973d 5c79 0fbe 6b05 0fbe
000003f0: 34ae 473d df29 043e a0ae 8a3c d879 243d

weight f4 [64]
1.0 1.0 1.0 1.0 1.0 1.0 1.0 1.0
1.0 1.0 1.0 1.0 1.0 1.0 1.0 1.0
1.0 1.0 1.0 1.0 1.0 1.0 1.0 1.0
1.0 1.0 1.0 1.0 1.0 1.0 1.0 1.0
1.0 1.0 1.0 1.0 1.0 1.0 1.0 1.0
1.0 1.0 1.0 1.0 1.0 1.0 1.0 1.0
1.0 1.0 1.0 1.0 1.0 1.0 1.0 1.0
1.0 1.0 1.0 1.0 1.0 1.0 1.0 1.0
00000000: 0000 803f 0000 803f 0000 803f 0000 803f
00000010: 0000 803f 0000 803f 0000 803f 0000 803f
00000020: 0000 803f 0000 803f 0000 803f 0000 803f
00000030: 0000 803f 0000 803f 0000 803f 0000 803f
00000040: 0000 803f 0000 803f 0000 803f 0000 803f
00000050: 0000 803f 0000 803f 0000 803f 0000 803f
00000060: 0000 803f 0000 803f 0000 803f 0000 803f
00000070: 0000 803f 0000 803f 0000 803f 0000 803f
00000080: 0000 803f 0000 803f 0000 803f 0000 803f
00000090: 0000 803f 0000 803f 0000 803f 0000 803f
000000a0: 0000 803f 0000 803f 0000 803f 0000 803f
000000b0: 0000 803f 0000 803f 0000 803f 0000 803f
000000c0: 0000 803f 0000 803f 0000 803f 0000 803f
000000d0: 0000 803f 0000 803f 0000 803f 0000 803f
000000e0: 0000 803f 0000 803f 0000 803f 0000 803f
000000f0: 0000 803f 0000 803f 0000 803f 0000 803f

bias f4 [64]
0.0 0.0 0.0 0.0 0.0 0.0 0.0 0.0
0.0 0.0 0.0 0.0 0.0 0.0 0.0 0.0
0.0 0.0 0.0 0.0 0.0 0.0 0.0 0.0
0.0 0.0 0.0 0.0 0.0 0.0 0.0 0.0
0.0 0.0 0.0 0.0 0.0 0.0 0.0 0.0
0.0 0.0 0.0 0.0 0.0 0.0 0.0 0.0
0.0 0.0 0.0 0.0 0.0 0.0 0.0 0.0
0.0 0.0 0.0 0.0 0.0 0.0 0.0 0.0
00000000: 0000 0000 0000 0000 0000 0000 0000 0000
00000010: 0000 0000 0000 0000 0000 0000 0000 0000
00000020: 0000 0000 0000 0000 0000 0000 0000 0000
00000030: 0000 0000 0000 0000 0000 0000 0000 0000
00000040: 0000 0000 0000 0000 0000 0000 0000 0000
00000050: 0000 0000 0000 0000 0000 0000 0000 0000
00000060: 0000 0000 0000 0000 0000 0000 0000 0000
00000070: 0000 0000 0000 0000 0000 0000 0000 0000
00000080: 0000 0000 0000 0000 0000 0000 0000 0000
00000090: 0000 0000 0000 0000 0000 0000 0000 0000
000000a0: 0000 0000 0000 0000 0000 0000 0000 0000
000000b0: 0000 0000 0000 0000 0000 0000 0000 0000
000000c0: 0000 0000 0000 0000 0000 0000 0000 0000
000000d0: 0000 0000 0000 0000 0000 0000 0000 0000
000000e0: 0000 0000 0000 0000 0000 0000 0000 0000
000000f0: 0000 0000 0000 0000 0000 0000 0000 0000

running_mean f4 [64]
0.0 0.0 0.0 0.0 0.0 0.0 0.0 0.0
0.0 0.0 0.0 0.0 0.0 0.0 0.0 0.0
0.0 0.0 0.0 0.0 0.0 0.0 0.0 0.0
0.0 0.0 0.0 0.0 0.0 0.0 0.0 0.0
0.0 0.0 0.0 0.0 0.0 0.0 0.0 0.0
0.0 0.0 0.0 0.0 0.0 0.0 0.0 0.0
0.0 0.0 0.0 0.0 0.0 0.0 0.0 0.0
0.0 0.0 0.0 0.0 0.0 0.0 0.0 0.0
00000000: 0000 0000 0000 0000 0000 0000 0000 0000
00000010: 0000 0000 0000 0000 0000 0000 0000 0000
00000020: 0000 0000 0000 0000 0000 0000 0000 0000
00000030: 0000 0000 0000 0000 0000 0000 0000 0000
00000040: 0000 0000 0000 0000 0000 0000 0000 0000
00000050: 0000 0000 0000 0000 0000 0000 0000 0000
00000060: 0000 0000 0000 0000 0000 0000 0000 0000
00000070: 0000 0000 0000 0000 0000 0000 0000 0000
00000080: 0000 0000 0000 0000 0000 0000 0000 0000
00000090: 0000 0000 0000 0000 0000 0000 0000 0000
000000a0: 0000 0000 0000 0000 0000 0000 0000 0000
000000b0: 0000 0000 0000 0000 0000 0000 0000 0000
000000c0: 0000 0000 0000 0000 0000 0000 0000 0000
000000d0: 0000 0000 0000 0000 0000 0000 0000 0000
000000e0: 0000 0000 0000 0000 0000 0000 0000 0000
000000f0: 0000 0000 0000 0000 0000 0000 0000 0000

running_var f4 [64]
1.0 1.0 1.0 1.0 1.0 1.0 1.0 1.0
1.0 1.0 1.0 1.0 1.0 1.0 1.0 1.0
1.0 1.0 1.0 1.0 1.0 1.0 1.0 1.0
1.0 1.0 1.0 1.0 1.0 1.0 1.0 1.0
1.0 1.0 1.0 1.0 1.0 1.0 1.0 1.0
1.0 1.0 1.0 1.0 1.0 1.0 1.0 1.0
1.0 1.0 1.0 1.0 1.0 1.0 1.0 1.0
1.0 1.0 1.0 1.0 1.0 1.0 1.0 1.0
00000000: 0000 803f 0000 803f 0000 803f 0000 803f
00000010: 0000 803f 0000 803f 0000 803f 0000 803f
00000020: 0000 803f 0000 803f 0000 803f 0000 803f
00000030: 0000 803f 0000 803f 0000 803f 0000 803f
00000040: 0000 803f 0000 803f 0000 803f 0000 803f
00000050: 0000 803f 0000 803f 0000 803f 0000 803f
00000060: 0000 803f 0000 803f 0000 803f 0000 803f
00000070: 0000 803f 0000 803f 0000 803f 0000 803f
00000080: 0000 803f 0000 803f 0000 803f 0000 803f
00000090: 0000 803f 0000 803f 0000 803f 0000 803f
000000a0: 0000 803f 0000 803f 0000 803f 0000 803f
000000b0: 0000 803f 0000 803f 0000 803f 0000 803f
000000c0: 0000 803f 0000 803f 0000 803f 0000 803f
000000d0: 0000 803f 0000 803f 0000 803f 0000 803f
000000e0: 0000 803f 0000 803f 0000 803f 0000 803f
000000f0: 0000 803f 0000 803f 0000 803f 0000 803f
