Code_darts/Search/operator_pt/unimib/DilatedConv-17x64-17x64-3-1-2.pt (torch, 59954 bytes, 5 tensors)

weight f4 [64, 64, 3]
0.0012285411 -0.03456425 -0.0413327 0.047133073 0.0699179 -0.012119785 -0.026289746 0.00027528405
-0.062238567 -0.037095748 -0.018603913 0.03431815 -0.07097782 -0.014366493 0.044116385 0.045286447
0.0008964762 0.015992634 -0.011842135 0.061716244 -0.04548508 -0.059411447 -0.012638766 0.06445968
-0.03370556 0.040474325 -0.0033789277 -0.042321503 0.066630885 -0.016806278 -0.030416008 0.0064649954
0.034696117 -0.056096263 -0.018595982 0.060104206 0.015777044 0.0035777912 -0.0043301284 0.02444765
-0.0006171167 -0.06962331 0.009406306 0.049877383 0.051347315 0.017654218 -0.028060496 0.02563335
0.01170297 -0.06881999 -0.015142705 0.054105 -0.04563486 0.026454255 -0.015132036 -0.005469635
-0.067413926 0.05338289 0.053065598 0.018488847 -0.06416279 -0.06036647 0.011475466 -0.024306316
0.0010128543 -0.014704037 0.045087308 -0.007350154 0.004128672 0.035654992 -0.016058266 0.009681441
-0.014514193 0.0105308145 -0.015291404 0.0552523 0.053054407 -0.0339769 -0.044239663 -0.017926242
0.04092084 -0.020516526 0.068258554 -0.024640944 0.052976474 0.026430763 -0.0043933466 0.008033007
-0.042272367 -0.01211058 -0.051092274 -0.023124993 -0.05507722 0.021752946 0.04970675 -0.03001079
0.009945847 -0.045777492 -0.0051340684 0.0042006522 0.025829002 -0.000280343 -0.054610312 -0.03330605
-0.035202306 -0.033016615 0.01324597 -0.0121942125 0.047278628 0.010194503 -0.056416392 -0.04074277
0.06708416 -0.04391591 0.02102267 -0.070829436 -0.016968276 -0.020386592 -0.071113884 -0.01770975
-0.008221999 0.032768667 -0.05986405 0.05463244 0.0008510053 -0.00068306923 0.06587033 0.059310198
-0.070598915 -0.05648047 0.00025215 -0.046276443 0.032899454 -0.006755352 -0.04984407 -0.050636332
-0.047296815 0.071751446 0.01322116 0.03242387 -0.06339661 -0.05069165 -0.012476157 0.000105291605
0.039713576 0.042849526 -0.03016482 0.051705763 0.027668431 -0.016688079 -0.0025018007 -0.0455293
0.050122283 0.030064233 -0.034273814 -0.06497681 -0.051893644 0.05360344 -0.055376932 -0.004796058
-0.024973974 -0.028702132 0.06779176 -0.060711037 0.060572326 0.06909776 -0.039375618 0.015212312
0.046458945 0.05394283 0.010361947 0.06375545 -0.018547494 0.03555417 3.415346e-05 -0.0017601848
0.028251246 -0.06513483 0.067639604 -0.069978826 0.068372324 0.048279583 0.06764595 0.047182396
0.04495155 0.034067474 0.010420151 0.014995754 0.06848787 0.025125511 0.010841332 -0.0061166584
0.003129162 0.06122257 0.060468316 -0.041118987 0.067614794 0.040425688 0.04290054 -0.0124617815
-0.04611209 -0.056004044 0.0032516122 -0.04025053 0.050233133 -0.027950495 -0.031560455 0.016157493
-0.016687453 0.006165199 0.0025858432 0.047388352 -0.0073658377 -0.01690013 0.024271771 -0.00679598
0.0020250678 0.0365329 0.030450508 -0.01146647 -0.040114686 -0.065167055 0.05666606 0.02002374
0.007879779 -0.060932793 0.0005181506 0.058621764 -0.0036198199 0.03133402 0.027292684 -0.018341467
-0.0005181283 0.0038434118 -0.039014 -0.0087157935 0.046186686 0.04616481 0.026773944 0.055860236
0.012643516 -0.0038453788 -0.059166655 -0.029239357 0.028857112 -0.03564045 -0.0032068714 -0.021409277
-0.032720365 -0.050985493 0.015183441 0.06269775 -0.025596183 0.05414827 -0.0076760054 0.063542545
00000000: 0007 a13a 3e93 0dbd 7a4c 29bd 9c0e 413d
00000010: 1e31 8f3d 1092 46bc 985d d7bc 0054 9039
00000020: deed 7ebd b6f1 17bd 3c67 98bc 3091 0c3d
00000030: d25c 91bd 7061 6bbc 62b3 343d 487e 393d
00000040: 8001 6b3a fc02 833c 8405 42bc 2cca 7c3d
00000050: 904e 3abd 6b59 73bd d412 4fbc 7003 843d
00000060: d70e 0abd 68c8 253d 0071 5dbb 5059 2dbd
00000070: c675 883d 52ad 89bc fe2a f9bc 50d8 d33b
00000080: 841d 0e3d 32c5 65bd 9a56 98bc d42f 763d
00000090: dc3e 813c 6079 6a3b c0e3 8dbb 7046 c83c
000000a0: 00c6 21ba aa96 8ebd e81c 1a3c 3a4c 4c3d
000000b0: 9051 523d 949f 903c 20df e5bc 08fd d13c
000000c0: d0bd 3f3c 7ff1 8cbd 1c19 78bc 349d 5d3d
000000d0: 9eeb 3abd 98b6 d83c 5cec 77bc a03a b3bb
000000e0: 5010 8abd 04a8 5a3d 505b 593d ec75 973c
000000f0: c867 83bd d542 77bd 9803 3c3c 0a1e c7bc
00000100: c0c1 843a 34e9 70bc 78ad 383d 90d9 f0bb
00000110: d049 873b f80a 123d a08c 83bc e89e 1e3c
00000120: f0cc 6dbc 7089 2c3c cc88 7abc 3c50 623d
00000130: 944f 593d 5d2b 0bbd a634 35bd 0eda 92bc
00000140: 9c9c 273d 4612 a8bc 24cb 8b3d cedb c9bc
00000150: dcfd 583d 5485 d83c 10f6 8fbb e09c 033c
00000160: ca25 2dbd 746b 46bc 2246 51bd a070 bdbc
00000170: a798 61bd 3c33 b23c 4e99 4b3d 30d9 f5bc
00000180: e8f3 223c 2e81 3bbd b03b a8bb a0a5 893b
00000190: 5897 d33c 00fb 92b9 10af 5fbd ed6b 08bd
000001a0: 4b30 10bd 6e3c 07bd a005 593c 3cca 47bc
000001b0: 3ca7 413d d806 273c e014 67bd e4e1 26bd
000001c0: 6c63 893d 2be1 33bd bc37 ac3c 060f 91bd
000001d0: 0e01 8bbc c801 a7bc 28a4 91bd 0a14 91bc
000001e0: 90b5 06bc 7038 063d 0234 75bd 44c6 5f3d
000001f0: 0016 5f3a 0010 33ba 06e7 863d 40ef 723d
00000200: 2a96 90bd 1158 67bd 0033 8439 5e8c 3dbd
00000210: 94c1 063d 005c ddbb 4c29 4cbd 0b68 4fbd
00000220: 4eba 41bd 6cf2 923d 909d 583c e4ce 043d
00000230: 15d6 81bd 0ca2 4fbd cc68 4cbc 00d0 dc38
00000240: b4aa 223d fc82 2f3d 361c f7bc 6cc9 533d
00000250: e8a8 e23c 70b5 88bc 40f5 23bb ee7c 3abd
00000260: 064d 4d3d 4449 f63c b362 0cbd 9012 85bd
00000270: 6e8e 54bd 488f 5b3d ecd2 62bd 4028 9dbb
00000280: 3896 ccbc bc20 ebbc 68d6 8a3d 23ac 78bd
00000290: b01a 783d 2083 8d3d 5448 21bd 103d 793c
000002a0: bc4b 3e3d 28f3 5c3d 28c5 293c 3892 823d
000002b0: eaf0 97bc 40a1 113d 0040 0f38 00b6 e6ba
000002c0: 286f e73c 6965 85bd a286 8a3d 0f51 8fbd
000002d0: ca06 8c3d d0c0 453d f689 8a3d 5442 413d
000002e0: 1e1f 383d 568a 0b3d 48b9 2a3c c0b0 753c
000002f0: 5e43 8c3d 04d4 cd3c d89f 313c 406e c8bb
00000300: a012 4d3b 84c4 7a3d a0ad 773d 626c 28bd
00000310: a079 8a3d 6895 253d 7ab8 2f3d 802c 4cbc
00000320: 08e0 3cbd 7f64 65bd 0019 553b bddd 24bd
00000330: 42c1 4d3d 70f8 e4bc 8945 01bd b85c 843c
00000340: 20b4 88bc 7005 ca3b 4077 293b 4a1a 423d
00000350: 205d f1bb 2472 8abc 98d5 c63c d0b0 debb
00000360: 00b7 043b 86a3 153d 5873 f93c dcdd 3bbc
00000370: 4c4f 24bd 4e76 85bd ac1a 683d d408 a43c
00000380: 301a 013c aa94 79bd 80d4 073a 601d 703d
00000390: 803a 6dbb 1a58 003d e894 df3c d840 96bc
000003a0: 00d3 07ba c0e1 7b3b 25cd 1fbd b0cc 0ebc
000003b0: 402e 3d3d 5017 3d3d 0855 db3c b4cd 643d
000003c0: c026 4f3c c002 7cbb bc58 72bd 6087 efbc
000003d0: c065 ec3c b8fb 11bd 602a 52bb 8262 afbc
000003e0: ca05 06bd 2ad6 50bd f8c3 783c ae67 803d
000003f0: 16af d1bc 94ca 5d3d 0087 fbbb 9822 823d

weight f4 [64]
1.0 1.0 1.0 1.0 1.0 1.0 1.0 1.0
1.0 1.0 1.0 1.0 1.0 1.0 1.0 1.0
1.0 1.0 1.0 1.0 1.0 1.0 1.0 1.0
1.0 1.0 1.0 1.0 1.0 1.0 1.0 1.0
1.0 1.0 1.0 1.0 1.0 1.0 1.0 1.0
1.0 1.0 1.0 1.0 1.0 1.0 1.0 1.0
1.0 1.0 1.0 1.0 1.0 1.0 1.0 1.0
1.0 1.0 1.0 1.0 1.0 1.0 1.0 1.0
00000000: 0000 803f 0000 803f 0000 803f 0000 803f
00000010: 0000 803f 0000 803f 0000 803f 0000 803f
00000020: 0000 803f 0000 803f 0000 803f 0000 803f
00000030: 0000 803f 0000 803f 0000 803f 0000 803f
00000040: 0000 803f 0000 803f 0000 803f 0000 803f
00000050: 0000 803f 0000 803f 0000 803f 0000 803f
00000060: 0000 803f 0000 803f 0000 803f 0000 803f
00000070: 0000 803f 0000 803f 0000 803f 0000 803f
00000080: 0000 803f 0000 803f 0000 803f 0000 803f
00000090: 0000 803f 0000 803f 0000 803f 0000 803f
000000a0: 0000 803f 0000 803f 0000 803f 0000 803f
000000b0: 0000 803f 0000 803f 0000 803f 0000 803f
000000c0: 0000 803f 0000 803f 0000 803f 0000 803f
000000d0: 0000 803f 0000 803f 0000 803f 0000 803f
000000e0: 0000 803f 0000 803f 0000 803f 0000 803f
000000f0: 0000 803f 0000 803f 0000 803f 0000 803f

bias f4 [64]
0.0 0.0 0.0 0.0 0.0 0.0 0.0 0.0
0.0 0.0 0.0 0.0 0.0 0.0 0.0 0.0
0.0 0.0 0.0 0.0 0.0 0.0 0.0 0.0
0.0 0.0 0.0 0.0 0.0 0.0 0.0 0.0
0.0 0.0 0.0 0.0 0.0 0.0 0.0 0.0
0.0 0.0 0.0 0.0 0.0 0.0 0.0 0.0
0.0 0.0 0.0 0.0 0.0 0.0 0.0 0.0
0.0 0.0 0.0 0.0 0.0 0.0 0.0 0.0
00000000: 0000 0000 0000 0000 0000 0000 0000 0000
00000010: 0000 0000 0000 0000 0000 0000 0000 0000
00000020: 0000 0000 0000 0000 0000 0000 0000 0000
00000030: 0000 0000 0000 0000 0000 0000 0000 0000
00000040: 0000 0000 0000 0000 0000 0000 0000 0000
00000050: 0000 0000 0000 0000 0000 0000 0000 0000
00000060: 0000 0000 0000 0000 0000 0000 0000 0000
00000070: 0000 0000 0000 0000 0000 0000 0000 0000
00000080: 0000 0000 0000 0000 0000 0000 0000 0000
00000090: 0000 0000 0000 0000 0000 0000 0000 0000
000000a0: 0000 0000 0000 0000 0000 0000 0000 0000
000000b0: 0000 0000 0000 0000 0000 0000 0000 0000
000000c0: 0000 0000 0000 0000 0000 0000 0000 0000
000000d0: 0000 0000 0000 0000 0000 0000 0000 0000
000000e0: 0000 0000 0000 0000 0000 0000 0000 0000
000000f0: 0000 0000 0000 0000 0000 0000 0000 0000

running_mean f4 [64]
0.0 0.0 0.0 0.0 0.0 0.0 0.0 0.0
0.0 0.0 0.0 0.0 0.0 0.0 0.0 0.0
0.0 0.0 0.0 0.0 0.0 0.0 0.0 0.0
0.0 0.0 0.0 0.0 0.0 0.0 0.0 0.0
0.0 0.0 0.0 0.0 0.0 0.0 0.0 0.0
0.0 0.0 0.0 0.0 0.0 0.0 0.0 0.0
0.0 0.0 0.0 0.0 0.0 0.0 0.0 0.0
0.0 0.0 0.0 0.0 0.0 0.0 0.0 0.0
00000000: 0000 0000 0000 0000 0000 0000 0000 0000
00000010: 0000 0000 0000 0000 0000 0000 0000 0000
00000020: 0000 0000 0000 0000 0000 0000 0000 0000
00000030: 0000 0000 0000 0000 0000 0000 0000 0000
00000040: 0000 0000 0000 0000 0000 0000 0000 0000
00000050: 0000 0000 0000 0000 0000 0000 0000 0000
00000060: 0000 0000 0000 0000 0000 0000 0000 0000
00000070: 0000 0000 0000 0000 0000 0000 0000 0000
00000080: 0000 0000 0000 0000 0000 0000 0000 0000
00000090: 0000 0000 0000 0000 0000 0000 0000 0000
000000a0: 0000 0000 0000 0000 0000 0000 0000 0000
000000b0: 0000 0000 0000 0000 0000 0000 0000 0000
000000c0: 0000 0000 0000 0000 0000 0000 0000 0000
000000d0: 0000 0000 0000 0000 0000 0000 0000 0000
000000e0: 0000 0000 0000 0000 0000 0000 0000 0000
000000f0: 0000 0000 0000 0000 0000 0000 0000 0000

running_var f4 [64]
1.0 1.0 1.0 1.0 1.0 1.0 1.0 1.0
1.0 1.0 1.0 1.0 1.0 1.0 1.0 1.0
1.0 1.0 1.0 1.0 1.0 1.0 1.0 1.0
1.0 1.0 1.0 1.0 1.0 1.0 1.0 1.0
1.0 1.0 1.0 1.0 1.0 1.0 1.0 1.0
1.0 1.0 1.0 1.0 1.0 1.0 1.0 1.0
1.0 1.0 1.0 1.0 1.0 1.0 1.0 1.0
1.0 1.0 1.0 1.0 1.0 1.0 1.0 1.0
00000000: 0000 803f 0000 803f 0000 803f 0000 803f
00000010: 0000 803f 0000 803f 0000 803f 0000 803f
00000020: 0000 803f 0000 803f 0000 803f 0000 803f
00000030: 0000 803f 0000 803f 0000 803f 0000 803f
00000040: 0000 803f 0000 803f 0000 803f 0000 803f
00000050: 0000 803f 0000 803f 0000 803f 0000 803f
00000060: 0000 803f 0000 803f 0000 803f 0000 803f
00000070: 0000 803f 0000 803f 0000 803f 0000 803f
00000080: 0000 803f 0000 803f 0000 803f 0000 803f
00000090: 0000 803f 0000 803f 0000 803f 0000 803f
000000a0: 0000 803f 0000 803f 0000 803f 0000 803f
000000b0: 0000 803f 0000 803f 0000 803f 0000 803f
000000c0: 0000 803f 0000 803f 0000 803f 0000 803f
000000d0: 0000 803f 0000 803f 0000 803f 0000 803f
000000e0: 0000 803f 0000 803f 0000 803f 0000 803f
000000f0: 0000 803f 0000 803f 0000 803f 0000 803f
