Code_binary/Search/operator_pt/unimib/DepthConv-151x3-151x64-3-1-1.pt (torch, 12821 bytes, 5 tensors)

weight f4 [64, 3, 3]
000000 ec b5 d2 bd 40 17 20 3d 3a 3c 8e be 12 c8 11 3e
       -0.10288605 0.039084673 -0.27780324 0.14236477
000010 ce 57 75 be 18 97 75 be 24 d6 f9 3d 4a 24 67 3e
       -0.23959276 -0.23983419 0.12199047 0.22572437
000020 2b a8 62 be 3e ae 3b 3e 20 d4 6b 3c fe aa 20 3e
       -0.22134463 0.18328187 0.014393836 0.15690228
000030 1c 1a 92 be 2c b5 dd bd a2 2b 2c 3e 50 68 de 3c
       -0.28535545 -0.108255714 0.1681352 0.02714935
000040 ea 13 a6 be 7d e8 85 3e 00 29 d9 3c d8 e5 58 be
       -0.32437068 0.26153937 0.026508808 -0.21181428
000050 20 2a 0f 3d 01 10 a4 3e 96 37 2f 3e 06 ba 73 3e
       0.034952283 0.3204346 0.17111048 0.23801431
000060 ec 7e df 3d 7f 2e 96 3e 12 c5 2e 3e b6 4b 79 3e
       0.1091288 0.2933235 0.17067364 0.24345288
000070 07 02 a0 be 32 2b 7f 3e 48 45 47 3d 00 81 6e be
       -0.31251547 0.24918821 0.048650056 -0.23291397
000080 70 48 ec 3d d6 73 02 be ce d3 72 3e 0b 55 9c be
       0.11537254 -0.127395 0.2371361 -0.30533633
000090 e4 8e d5 3d 9d db 85 3e 0c fe a6 be 52 43 11 3e
       0.10427645 0.26144114 -0.32615697 0.14185837
0000a0 60 23 3a bc 16 5b 23 3e 60 e3 07 be 10 75 fb 3c
       -0.011360973 0.15952715 -0.1327033 0.030695468
0000b0 80 0e 2c bd 5c 73 9b be 70 f1 aa 3c 46 8e 0e be
       -0.042006016 -0.3036145 0.02086708 -0.1392146
0000c0 6e 6b 3c 3e 41 0b aa 3e 80 8e 46 3b 20 ab e1 3d
       0.18400356 0.3321171 0.003029734 0.11018968
0000d0 39 dc 9b 3e 52 75 0b 3e 60 34 6c bc 70 a2 9c be
       0.30441454 0.13618973 -0.014416784 -0.3059268
0000e0 20 c0 b4 3d d6 30 72 3e 2c 67 97 bd 13 df 70 be
       0.088257074 0.23651442 -0.07392725 -0.23522596
0000f0 e0 da 08 3c d8 2d 6c 3d 80 d4 43 bc d0 85 fc 3c
       0.008352965 0.057660908 -0.011952519 0.030825526
000100 c6 92 b3 bd e0 21 77 3d fe 2f 0a 3e 76 64 12 be
       -0.08768229 0.06033504 0.1349487 -0.14296135
000110 1b 3c 43 be 90 01 e5 bd 20 b5 05 3c 90 76 e4 bc
       -0.19065897 -0.11181939 0.008160859 -0.027888566
000120 1e 1d 65 3e 32 bb 6a 3e 40 8f 64 bd ea 72 4b 3e
       0.22374389 0.22922972 -0.055800676 0.19868055
000130 78 09 06 3e 15 39 a2 3e da 8c 7f 3e a5 ec 9c 3e
       0.1308955 0.31684175 0.24956074 0.30649295
000140 61 b3 9b 3e 16 1d a9 be a0 0f 08 bd 18 42 75 be
       0.30410293 -0.33030003 -0.033218026 -0.23950994
000150 08 91 23 3d 40 a6 bb bc 26 20 00 be a0 5e 3a bc
       0.039933234 -0.022906423 -0.12512264 -0.011375099
000160 d0 c7 d0 3d 3c cc ec bd 20 0f d7 bd 0a fc a0 be
       0.10194361 -0.11562392 -0.10500932 -0.3144229
000170 3c f5 b9 bd 80 eb c5 3d eb 71 42 be 26 fc c3 bd
       -0.09079978 0.09664059 -0.18988769 -0.09569578
000180 08 10 22 3d d6 36 c4 bd b4 ab aa 3d 60 76 11 bc
       0.03956607 -0.095807716 0.08333531 -0.00887832
000190 a9 0d 82 3e 70 75 28 3e 40 d0 c0 bd 70 8d c6 3c
       0.25401047 0.16451049 -0.094147205 0.024237365
0001a0 66 a1 30 be 2a d1 57 3e 00 25 fa 3b 30 8d 70 be
       -0.17249069 0.21075884 0.0076338053 -0.23491359
0001b0 dc 77 84 bd 92 2a 53 3e d0 10 e8 bd b8 69 77 bd
       -0.06468174 0.20621708 -0.11331332 -0.060403556
0001c0 7c e1 de bd 20 e8 05 bd 60 c9 44 bd aa fc 56 3e
       -0.108828515 -0.032692075 -0.04804361 0.20994821
0001d0 00 6a 5e bb 47 cd 8c be 96 4e 83 be 34 76 83 bd
       -0.0033937693 -0.27500364 -0.25645894 -0.0641903
0001e0 4c 20 9b bd 44 7c b7 3d 32 b0 2c 3e 00 8a b5 3b
       -0.075745195 0.08959249 0.16864088 0.0055401325
0001f0 a8 c6 68 3d 30 6a d3 bc 93 6a 6a be f0 37 f3 bc
       0.05683008 -0.02580747 -0.22892217 -0.029689759
000200 da b2 27 3e e0 3e 42 bd 93 d7 6a be 69 76 91 3e
       0.1637682 -0.047423244 -0.22933798 0.28410652
000210 c0 e4 8e bd cb a4 1c be 71 75 a5 3e f4 2e c4 3d
       -0.06977224 -0.15297239 0.32316163 0.09579268
000220 c8 42 30 be fa 03 60 3e 00 a8 20 bd 78 b6 1d 3e
       -0.17212975 0.21876517 -0.039222717 0.15401638
000230 a1 6c 8f 3e b0 c2 05 3e 20 83 30 3d ab 82 a7 be
       0.28012565 0.13062549 0.0430938 -0.3271688
000240 86 5b e3 bd e4 ab a3 be 8c 5d ac bd 02 fc 88 be
       -0.11101441 -0.3196708 -0.0841628 -0.26754767
000250 32 a0 3c 3e a0 aa b3 3d 8a bd 50 3e a0 b2 8d be
       0.18420485 0.087727785 0.20384803 -0.27675343
000260 9e 86 a2 be 1a d6 1a 3e 83 84 40 be b3 c3 1a be
       -0.3174333 0.15120736 -0.18800549 -0.15113716
000270 00 38 6e bb f7 41 95 be b3 d4 10 be f0 5c db bc
       -0.0036349297 -0.2915189 -0.14143638 -0.026777714
000280 10 ce a2 bd 6a a3 47 3e 98 5d a5 be d0 0e 91 3c
       -0.079494596 0.19495931 -0.3229797 0.017707258
000290 62 f2 2f 3e c8 3c 73 be c9 23 90 3e 52 1a 85 be
       0.17182305 -0.23753655 0.28152302 -0.25996643
0002a0 ba 86 40 3e fe d0 55 be 96 12 c4 bd 58 14 2d bd
       0.18801394 -0.20880505 -0.095738575 -0.04225573
0002b0 38 a7 39 3d 80 78 06 3b 03 81 8e 3e b6 37 2b 3e
       0.045325488 0.00205186 0.27832803 0.16720471
0002c0 fa 1e 7a 3e db 54 a0 be ba 24 8d be 9c 60 a4 bd
       0.24425879 -0.3131474 -0.27567083 -0.08026239
0002d0 da 6b 72 3e e0 ad 9f 3d b4 4f 84 3d bc 1e f9 3d
       0.23673955 0.07796836 0.06460515 0.12164065
0002e0 b0 9f 9d 3c 2a d5 4f 3e a3 02 60 be ac 6b df 3d
       0.019241184 0.2029616 -0.21876006 0.10909209
0002f0 fa 08 35 3e e4 83 85 bd e3 68 43 be 00 27 19 be
       0.17679206 -0.06519297 -0.1908298 -0.14956284
000300 e0 dc b9 bd fa be 09 3e 01 03 98 3e ab 42 05 be
       -0.09075332 0.13451758 0.29689792 -0.13013713
000310 0a dd 0b 3e e0 0e 45 3d 12 b6 31 3e e0 d3 60 bd
       0.13658538 0.04810989 0.1735461 -0.05488956
000320 40 c6 48 bd ae b4 89 be 18 42 69 bd 32 af 4b 3e
       -0.04901719 -0.2689566 -0.056947798 0.1989105
000330 60 24 7a 3c b8 86 03 be f2 c0 2b 3e a3 26 31 be
       0.015267462 -0.1284436 0.16772822 -0.17299895
000340 d0 db 84 be c2 63 4b 3e 15 35 82 3e db 8f 38 be
       -0.25948954 0.19862273 0.25431123 -0.18023627
000350 a0 4f 09 bc 19 24 92 3e 34 2a 8c be d0 77 33 be
       -0.0083808005 0.28543165 -0.27375948 -0.17526174
000360 4e e4 39 3e 1e d1 4e 3e ca a9 4a 3e e2 99 89 be
       0.18153498 0.2019696 0.19791332 -0.26875216
000370 c6 3a f6 bd 46 4f cd bd ae 05 14 3e 4c 70 80 bd
       -0.12022929 -0.10024886 0.14455292 -0.06271419
000380 ce 30 70 3e 7e f4 83 be a9 36 89 3e 46 b0 9e be
       0.23456118 -0.2577247 0.26799515 -0.3099386
000390 fe 94 8e be 4a f9 11 3e 7a 40 aa be cc bb e6 3d
       -0.27848047 0.14255252 -0.33252317 0.11266288
0003a0 40 6f f1 3c c1 63 a5 3e e0 74 cc bd 00 b8 f1 3a
       0.029471993 0.3230267 -0.0998323 0.0018441677
0003b0 68 17 7c be a6 3d 5f 3e 3e 20 0e 3e 1f 3c 95 3e
       -0.24618304 0.21800861 0.13879487 0.2914743
0003c0 76 6b 2f be ec 31 ef 3d d0 5d 8a 3d 03 e2 82 be
       -0.17130837 0.11679444 0.067561746 -0.25563058
0003d0 1b 15 a6 3e 60 6d 19 be 84 0b b8 3d af 28 8c be
       0.32437977 -0.1498313 0.089865714 -0.2737479
0003e0 20 05 7c be 0a cc 61 3e 5e 4d 12 3e cf a4 82 be
       -0.2461133 0.22050491 0.14287326 -0.25516364
0003f0 c0 90 0a bd 8c 29 d9 3d 3b 01 91 be b0 b7 f4 3c
       -0.03382945 0.106036276 -0.2832125 0.029872745

weight f4 [64]
000000 00 00 80 3f 00 00 80 3f 00 00 80 3f 00 00 80 3f
       1.0 1.0 1.0 1.0
000010 00 00 80 3f 00 00 80 3f 00 00 80 3f 00 00 80 3f
       1.0 1.0 1.0 1.0
000020 00 00 80 3f 00 00 80 3f 00 00 80 3f 00 00 80 3f
       1.0 1.0 1.0 1.0
000030 00 00 80 3f 00 00 80 3f 00 00 80 3f 00 00 80 3f
       1.0 1.0 1.0 1.0
000040 00 00 80 3f 00 00 80 3f 00 00 80 3f 00 00 80 3f
       1.0 1.0 1.0 1.0
000050 00 00 80 3f 00 00 80 3f 00 00 80 3f 00 00 80 3f
       1.0 1.0 1.0 1.0
000060 00 00 80 3f 00 00 80 3f 00 00 80 3f 00 00 80 3f
       1.0 1.0 1.0 1.0
000070 00 00 80 3f 00 00 80 3f 00 00 80 3f 00 00 80 3f
       1.0 1.0 1.0 1.0
000080 00 00 80 3f 00 00 80 3f 00 00 80 3f 00 00 80 3f
       1.0 1.0 1.0 1.0
000090 00 00 80 3f 00 00 80 3f 00 00 80 3f 00 00 80 3f
       1.0 1.0 1.0 1.0
0000a0 00 00 80 3f 00 00 80 3f 00 00 80 3f 00 00 80 3f
       1.0 1.0 1.0 1.0
0000b0 00 00 80 3f 00 00 80 3f 00 00 80 3f 00 00 80 3f
       1.0 1.0 1.0 1.0
0000c0 00 00 80 3f 00 00 80 3f 00 00 80 3f 00 00 80 3f
       1.0 1.0 1.0 1.0
0000d0 00 00 80 3f 00 00 80 3f 00 00 80 3f 00 00 80 3f
       1.0 1.0 1.0 1.0
0000e0 00 00 80 3f 00 00 80 3f 00 00 80 3f 00 00 80 3f
       1.0 1.0 1.0 1.0
0000f0 00 00 80 3f 00 00 80 3f 00 00 80 3f 00 00 80 3f
       1.0 1.0 1.0 1.0

bias f4 [64]
000000 00 00 00 00 00 00 00 00 00 00 00 00 00 00 00 00
       0.0 0.0 0.0 0.0
000010 00 00 00 00 00 00 00 00 00 00 00 00 00 00 00 00
       0.0 0.0 0.0 0.0
000020 00 00 00 00 00 00 00 00 00 00 00 00 00 00 00 00
       0.0 0.0 0.0 0.0
000030 00 00 00 00 00 00 00 00 00 00 00 00 00 00 00 00
       0.0 0.0 0.0 0.0
000040 00 00 00 00 00 00 00 00 00 00 00 00 00 00 00 00
       0.0 0.0 0.0 0.0
000050 00 00 00 00 00 00 00 00 00 00 00 00 00 00 00 00
       0.0 0.0 0.0 0.0
000060 00 00 00 00 00 00 00 00 00 00 00 00 00 00 00 00
       0.0 0.0 0.0 0.0
000070 00 00 00 00 00 00 00 00 00 00 00 00 00 00 00 00
       0.0 0.0 0.0 0.0
000080 00 00 00 00 00 00 00 00 00 00 00 00 00 00 00 00
       0.0 0.0 0.0 0.0
000090 00 00 00 00 00 00 00 00 00 00 00 00 00 00 00 00
       0.0 0.0 0.0 0.0
0000a0 00 00 00 00 00 00 00 00 00 00 00 00 00 00 00 00
       0.0 0.0 0.0 0.0
0000b0 00 00 00 00 00 00 00 00 00 00 00 00 00 00 00 00
       0.0 0.0 0.0 0.0
0000c0 00 00 00 00 00 00 00 00 00 00 00 00 00 00 00 00
       0.0 0.0 0.0 0.0
0000d0 00 00 00 00 00 00 00 00 00 00 00 00 00 00 00 00
       0.0 0.0 0.0 0.0
0000e0 00 00 00 00 00 00 00 00 00 00 00 00 00 00 00 00
       0.0 0.0 0.0 0.0
0000f0 00 00 00 00 00 00 00 00 00 00 00 00 00 00 00 00
       0.0 0.0 0.0 0.0

running_mean f4 [64]
000000 00 00 00 00 00 00 00 00 00 00 00 00 00 00 00 00
       0.0 0.0 0.0 0.0
000010 00 00 00 00 00 00 00 00 00 00 00 00 00 00 00 00
       0.0 0.0 0.0 0.0
000020 00 00 00 00 00 00 00 00 00 00 00 00 00 00 00 00
       0.0 0.0 0.0 0.0
000030 00 00 00 00 00 00 00 00 00 00 00 00 00 00 00 00
       0.0 0.0 0.0 0.0
000040 00 00 00 00 00 00 00 00 00 00 00 00 00 00 00 00
       0.0 0.0 0.0 0.0
000050 00 00 00 00 00 00 00 00 00 00 00 00 00 00 00 00
       0.0 0.0 0.0 0.0
000060 00 00 00 00 00 00 00 00 00 00 00 00 00 00 00 00
       0.0 0.0 0.0 0.0
000070 00 00 00 00 00 00 00 00 00 00 00 00 00 00 00 00
       0.0 0.0 0.0 0.0
000080 00 00 00 00 00 00 00 00 00 00 00 00 00 00 00 00
       0.0 0.0 0.0 0.0
000090 00 00 00 00 00 00 00 00 00 00 00 00 00 00 00 00
       0.0 0.0 0.0 0.0
0000a0 00 00 00 00 00 00 00 00 00 00 00 00 00 00 00 00
       0.0 0.0 0.0 0.0
0000b0 00 00 00 00 00 00 00 00 00 00 00 00 00 00 00 00
       0.0 0.0 0.0 0.0
0000c0 00 00 00 00 00 00 00 00 00 00 00 00 00 00 00 00
       0.0 0.0 0.0 0.0
0000d0 00 00 00 00 00 00 00 00 00 00 00 00 00 00 00 00
       0.0 0.0 0.0 0.0
0000e0 00 00 00 00 00 00 00 00 00 00 00 00 00 00 00 00
       0.0 0.0 0.0 0.0
0000f0 00 00 00 00 00 00 00 00 00 00 00 00 00 00 00 00
       0.0 0.0 0.0 0.0

running_var f4 [64]
000000 00 00 80 3f 00 00 80 3f 00 00 80 3f 00 00 80 3f
       1.0 1.0 1.0 1.0
000010 00 00 80 3f 00 00 80 3f 00 00 80 3f 00 00 80 3f
       1.0 1.0 1.0 1.0
000020 00 00 80 3f 00 00 80 3f 00 00 80 3f 00 00 80 3f
       1.0 1.0 1.0 1.0
000030 00 00 80 3f 00 00 80 3f 00 00 80 3f 00 00 80 3f
       1.0 1.0 1.0 1.0
000040 00 00 80 3f 00 00 80 3f 00 00 80 3f 00 00 80 3f
       1.0 1.0 1.0 1.0
000050 00 00 80 3f 00 00 80 3f 00 00 80 3f 00 00 80 3f
       1.0 1.0 1.0 1.0
000060 00 00 80 3f 00 00 80 3f 00 00 80 3f 00 00 80 3f
       1.0 1.0 1.0 1.0
000070 00 00 80 3f 00 00 80 3f 00 00 80 3f 00 00 80 3f
       1.0 1.0 1.0 1.0
000080 00 00 80 3f 00 00 80 3f 00 00 80 3f 00 00 80 3f
       1.0 1.0 1.0 1.0
000090 00 00 80 3f 00 00 80 3f 00 00 80 3f 00 00 80 3f
       1.0 1.0 1.0 1.0
0000a0 00 00 80 3f 00 00 80 3f 00 00 80 3f 00 00 80 3f
       1.0 1.0 1.0 1.0
0000b0 00 00 80 3f 00 00 80 3f 00 00 80 3f 00 00 80 3f
       1.0 1.0 1.0 1.0
0000c0 00 00 80 3f 00 00 80 3f 00 00 80 3f 00 00 80 3f
       1.0 1.0 1.0 1.0
0000d0 00 00 80 3f 00 00 80 3f 00 00 80 3f 00 00 80 3f
       1.0 1.0 1.0 1.0
0000e0 00 00 80 3f 00 00 80 3f 00 00 80 3f 00 00 80 3f
       1.0 1.0 1.0 1.0
0000f0 00 00 80 3f 00 00 80 3f 00 00 80 3f 00 00 80 3f
       1.0 1.0 1.0 1.0
