Code_binary/Search/operator_pt/unimib/DepthConv-151x3-151x64-7-1-1.pt (torch, 16093 bytes, 5 tensors)

weight f4 [64, 3, 7]
00000000: 1376 353e 3671 ab3d 0cff 1ebe 4aab 9bbd
00000010: 0427 2cbd ea6b fbbd 3ed1 5ebe c0f9 1ebd
00000020: 80ee 813b d34b 46be 4418 0b3d af41 14be
00000030: fc01 7a3d 66bd da3d 349d 26be 3cc2 223d
00000040: 6a4a d13d f221 b63d 18a2 17bd a1c1 553e
00000050: 4c30 3ebe 1ded 023e 019c 023e a011 d8bd
00000060: 8e31 ff3d 410b 163e 250c 1c3e b156 303e
00000070: 0aa0 a73d 5790 123e f7c8 033e 6c33 1fbe
00000080: 9e92 893d ea0f 90bd 282a 07bd 3782 4dbe
00000090: eace a13d 5079 da3c 87fe 253e e242 dd3d
000000a0: c078 40bd 68f6 71bd 468b b43d eefc f93d
000000b0: b327 213e c0bc 63bc e88b bf3c 38b5 0dbe
000000c0: 5ec4 46be f911 2e3e 2897 cf3c f844 c33c
000000d0: ac83 543d 734e 2cbe 0c13 4ebd dcff 5a3d
000000e0: 0c40 0dbe 7845 eebc e9a2 4bbe b0b8 b13c
000000f0: 9b9e 45be e9fd 1f3e 7400 efbd e414 3abe
00000100: dc31 513d 80a9 f8bc 592b 123e 4db2 1b3e
00000110: 0193 21be a162 27be e95a 18be 6832 b03c
00000120: 8344 253e dec2 fc3d a2c6 c23d 489e 20be
00000130: 0dea 0c3e 64eb 6a3d 2e20 b83d 8896 f03c
00000140: f822 933c 34bd 33bd 95a1 35be c1be 22be
00000150: 22a3 45be ce24 8ebd a42e 0d3d 34b4 2f3d
00000160: c89b 6bbd 0580 3e3e e958 cdbd 444c 563d
00000170: ba2a 5bbe 08af f2bd b65b 92bd 1439 7f3d
00000180: 48f0 04bd e03c e73b eab8 843d 1e80 9e3d
00000190: 9485 3d3d f03a 6fbd 429a 47be 9ab6 bf3d
000001a0: d069 40be 3edc 9abd 4d29 4b3e 7c61 433d
000001b0: 6e79 e5bd 5e12 d93d 8e72 b6bd ced0 943d
000001c0: 42f5 a53d 20da 07bc 5e72 833d 9276 ee3d
000001d0: 8895 f63c c6ea f23d b4f4 3ebe c27c f7bd
000001e0: e831 07bd 19e1 1a3e a771 4d3e 3fc6 fabd
000001f0: f53b 403e f4cf 17be b5d0 283e 66e7 0abe
00000200: c2cf bd3d b0fe bdbc 9c60 57be 18fc 853c
00000210: b061 69bc fab6 07be 79f4 143e 1f4c 173e
00000220: 5511 3b3e ef15 1c3e 63b3 4b3e a08d 28bc
00000230: e014 723c 87c5 203e 1424 47be cd95 fabd
00000240: f04e c43c cff5 e2bd d5df 2bbe e05d d9bd
00000250: c23b f2bd f487 563d c0c0 603b 8c51 3bbe
00000260: 6571 5f3e 73a4 e9bd ad1f d3bd 6363 3a3e
00000270: 5856 18bd 6849 54be 2038 1dbe 61f0 263e
00000280: 87a3 053e ece8 47bd e29a 9e3d e2e9 d53d
00000290: b0f7 04be 7ac0 0abe 35b1 2abe 90c7 ae3c
000002a0: 620b 3dbe 34cb 4c3d fbb5 0f3e bc45 02be
000002b0: 6ed7 b9bd 632a 433e 59e9 413e 6175 443e
000002c0: 6fd7 52be 1421 6b3d e676 26be d7e1 5dbe
000002d0: 9c31 20bd c59d 313e bce1 783d e70c 5b3e
000002e0: 0037 b7ba 2a00 0bbe 76f2 d3bd 5ebd 53be
000002f0: 5fe2 043e 2ec4 823d 20cd 09be 7ea8 06be
00000300: 1181 2f3e fbef e8bd 78b9 7bbd 7d73 4c3e
00000310: 2ed3 87bd 6593 273e 9161 373e 8d69 033e
00000320: 5657 ae3d ce3c fe3d 18b1 e23c fd0a 5d3e
00000330: 9690 f03d 101b 933c 2610 48be 672c 0c3e
00000340: cab1 d63d 193d 3b3e abe3 093e c887 36bd
00000350: 8d40 573e 6530 d0bd e036 c53b 00fe d4b9
00000360: e05f 9abd b82c 3abd f0a0 59bd 0042 a7ba
00000370: be37 8e3d 9fa3 003e 2662 10be 2d1e 2f3e
00000380: 46c0 b8bd cc96 91bd 3091 643c c141 2bbe
00000390: de18 32be 0b7b d2bd 2257 f93d 5cae a1bd
000003a0: d3d8 073e be4a 4cbe 6146 573e 90ea 003d
000003b0: e5e8 0e3e 3013 3f3c 0d06 27be f6bd 9cbd
000003c0: d984 093e 2407 9abd eae3 a33d 4cca 343d
000003d0: 869f c23d 742a 163d 9800 acbc ea02 0abe
000003e0: 1c91 133d d171 563e d6ef b7bd 3038 08bc
000003f0: 08b6 26be 0b35 563e b020 ecbd 00e9 743b
0.17720823 0.08371203 -0.1552698 -0.0760103 -0.042029396 -0.12276442 -0.21759507 -0.0388124
0.003965199 -0.19364862 0.03395869 -0.14478181 0.06103705 0.10680656 -0.16270906 0.039736018
0.102192715 0.08893193 -0.03701982 0.20874645 -0.18573111 0.12785764 0.12754823 -0.10550237
0.12460624 0.1465273 0.15239008 0.1722057 0.08184822 0.14312874 0.12869631 -0.1554696
0.06717418 -0.07034285 -0.032999188 -0.20069204 0.07900794 0.026669174 0.16210376 0.108037725
-0.046990156 -0.059072882 0.08815627 0.12206446 0.157378 -0.013899982 0.023382142 -0.1383866
-0.19410846 0.16999044 0.025340632 0.023836598 0.051883385 -0.16826801 -0.050311133 0.053466663
-0.13793963 -0.02908586 -0.19886364 0.021694511 -0.19298784 0.15624203 -0.11670008 -0.18172032
0.05107294 -0.030354261 0.14274348 0.15204735 -0.15778734 -0.16346218 -0.1487843 0.02150841
0.16139416 0.123418555 0.095105425 -0.1568538 0.13761158 0.057353392 0.08990513 0.029368654
0.01796101 -0.04388161 -0.1773742 -0.1589308 -0.19300511 -0.06940614 0.034468308 0.042896464
-0.05752161 0.18603523 -0.10026724 0.052318826 -0.21403018 -0.11849791 -0.07146399 0.062310293
-0.032455713 0.0070568174 0.06480582 0.0773928 0.04626997 -0.058405817 -0.19492438 0.09361
-0.18790364 -0.07561539 0.19839974 0.04770039 -0.112048015 0.105992064 -0.08908568 0.07266389
0.0810342 -0.008291751 0.06418298 0.11643709 0.030100599 0.11861186 -0.18648034 -0.120843425
-0.03300658 0.1512493 0.20062886 -0.12244844 0.18772872 -0.14825422 0.16485865 -0.13564834
0.09268142 -0.023192734 -0.21032947 0.01635556 -0.014244482 -0.13253394 0.14546384 0.14775132
0.1826833 0.15242742 0.1989265 -0.010287672 0.014775485 0.1570035 -0.19447356 -0.122356035
0.023963422 -0.110820405 -0.16784604 -0.10613608 -0.11827804 0.05237575 0.0034294575 -0.18292826
0.218206 -0.11408319 -0.10308776 0.18201976 -0.03719172 -0.20731127 -0.15353441 0.16302635
0.13050662 -0.048806116 0.07744385 0.10445 -0.1298511 -0.13549986 -0.16669162 0.021335393
-0.18461373 0.049998477 0.14034264 -0.12721914 -0.09074293 0.19059138 0.18936671 0.19185401
-0.20589994 0.057404593 -0.16256294 -0.21668182 -0.03910981 0.1734534 0.060762152 0.2139164
-0.0013978183 -0.13574281 -0.1034898 -0.20677707 0.12976979 0.063850746 -0.13457155 -0.13150212
0.17139079 -0.11373898 -0.061456174 0.1996593 -0.06632076 0.1636482 0.17908312 0.12833233
0.08512752 0.12413941 0.027672336 0.21586223 0.117463276 0.01795724 -0.1953741 0.13688813
0.10483129 0.18285026 0.13465755 -0.044563085 0.21020718 -0.101654805 0.0060185045 -0.00040625036
-0.07537818 -0.045452803 -0.053131998 -0.0012760758 0.06944226 0.12562416 -0.1409994 0.17101355
-0.09021048 -0.0710884 0.013950631 -0.16724302 -0.17392299 -0.10277375 0.121748224 -0.078945845
0.13266306 -0.19950387 0.21022941 0.031473696 0.1395603 0.0116622895 -0.16310902 -0.0765342
0.13429584 -0.07520893 0.080024555 0.044138238 0.09503083 0.03666158 -0.020996377 -0.13477674
0.03602706 0.20941855 -0.08981292 -0.008314177 -0.16280377 0.20918672 -0.11529672 0.0037370324

weight f4 [64]
00000000: 0000 803f 0000 803f 0000 803f 0000 803f
00000010: 0000 803f 0000 803f 0000 803f 0000 803f
00000020: 0000 803f 0000 803f 0000 803f 0000 803f
00000030: 0000 803f 0000 803f 0000 803f 0000 803f
00000040: 0000 803f 0000 803f 0000 803f 0000 803f
00000050: 0000 803f 0000 803f 0000 803f 0000 803f
00000060: 0000 803f 0000 803f 0000 803f 0000 803f
00000070: 0000 803f 0000 803f 0000 803f 0000 803f
00000080: 0000 803f 0000 803f 0000 803f 0000 803f
00000090: 0000 803f 0000 803f 0000 803f 0000 803f
000000a0: 0000 803f 0000 803f 0000 803f 0000 803f
000000b0: 0000 803f 0000 803f 0000 803f 0000 803f
000000c0: 0000 803f 0000 803f 0000 803f 0000 803f
000000d0: 0000 803f 0000 803f 0000 803f 0000 803f
000000e0: 0000 803f 0000 803f 0000 803f 0000 803f
000000f0: 0000 803f 0000 803f 0000 803f 0000 803f
1.0 1.0 1.0 1.0 1.0 1.0 1.0 1.0
1.0 1.0 1.0 1.0 1.0 1.0 1.0 1.0
1.0 1.0 1.0 1.0 1.0 1.0 1.0 1.0
1.0 1.0 1.0 1.0 1.0 1.0 1.0 1.0
1.0 1.0 1.0 1.0 1.0 1.0 1.0 1.0
1.0 1.0 1.0 1.0 1.0 1.0 1.0 1.0
1.0 1.0 1.0 1.0 1.0 1.0 1.0 1.0
1.0 1.0 1.0 1.0 1.0 1.0 1.0 1.0

bias f4 [64]
00000000: 0000 0000 0000 0000 0000 0000 0000 0000
00000010: 0000 0000 0000 0000 0000 0000 0000 0000
00000020: 0000 0000 0000 0000 0000 0000 0000 0000
00000030: 0000 0000 0000 0000 0000 0000 0000 0000
00000040: 0000 0000 0000 0000 0000 0000 0000 0000
00000050: 0000 0000 0000 0000 0000 0000 0000 0000
00000060: 0000 0000 0000 0000 0000 0000 0000 0000
00000070: 0000 0000 0000 0000 0000 0000 0000 0000
00000080: 0000 0000 0000 0000 0000 0000 0000 0000
00000090: 0000 0000 0000 0000 0000 0000 0000 0000
000000a0: 0000 0000 0000 0000 0000 0000 0000 0000
000000b0: 0000 0000 0000 0000 0000 0000 0000 0000
000000c0: 0000 0000 0000 0000 0000 0000 0000 0000
000000d0: 0000 0000 0000 0000 0000 0000 0000 0000
000000e0: 0000 0000 0000 0000 0000 0000 0000 0000
000000f0: 0000 0000 0000 0000 0000 0000 0000 0000
0.0 0.0 0.0 0.0 0.0 0.0 0.0 0.0
0.0 0.0 0.0 0.0 0.0 0.0 0.0 0.0
0.0 0.0 0.0 0.0 0.0 0.0 0.0 0.0
0.0 0.0 0.0 0.0 0.0 0.0 0.0 0.0
0.0 0.0 0.0 0.0 0.0 0.0 0.0 0.0
0.0 0.0 0.0 0.0 0.0 0.0 0.0 0.0
0.0 0.0 0.0 0.0 0.0 0.0 0.0 0.0
0.0 0.0 0.0 0.0 0.0 0.0 0.0 0.0

running_mean f4 [64]
00000000: 0000 0000 0000 0000 0000 0000 0000 0000
00000010: 0000 0000 0000 0000 0000 0000 0000 0000
00000020: 0000 0000 0000 0000 0000 0000 0000 0000
00000030: 0000 0000 0000 0000 0000 0000 0000 0000
00000040: 0000 0000 0000 0000 0000 0000 0000 0000
00000050: 0000 0000 0000 0000 0000 0000 0000 0000
00000060: 0000 0000 0000 0000 0000 0000 0000 0000
00000070: 0000 0000 0000 0000 0000 0000 0000 0000
00000080: 0000 0000 0000 0000 0000 0000 0000 0000
00000090: 0000 0000 0000 0000 0000 0000 0000 0000
000000a0: 0000 0000 0000 0000 0000 0000 0000 0000
000000b0: 0000 0000 0000 0000 0000 0000 0000 0000
000000c0: 0000 0000 0000 0000 0000 0000 0000 0000
000000d0: 0000 0000 0000 0000 0000 0000 0000 0000
000000e0: 0000 0000 0000 0000 0000 0000 0000 0000
000000f0: 0000 0000 0000 0000 0000 0000 0000 0000
0.0 0.0 0.0 0.0 0.0 0.0 0.0 0.0
0.0 0.0 0.0 0.0 0.0 0.0 0.0 0.0
0.0 0.0 0.0 0.0 0.0 0.0 0.0 0.0
0.0 0.0 0.0 0.0 0.0 0.0 0.0 0.0
0.0 0.0 0.0 0.0 0.0 0.0 0.0 0.0
0.0 0.0 0.0 0.0 0.0 0.0 0.0 0.0
0.0 0.0 0.0 0.0 0.0 0.0 0.0 0.0
0.0 0.0 0.0 0.0 0.0 0.0 0.0 0.0

running_var f4 [64]
00000000: 0000 803f 0000 803f 0000 803f 0000 803f
00000010: 0000 803f 0000 803f 0000 803f 0000 803f
00000020: 0000 803f 0000 803f 0000 803f 0000 803f
00000030: 0000 803f 0000 803f 0000 803f 0000 803f
00000040: 0000 803f 0000 803f 0000 803f 0000 803f
00000050: 0000 803f 0000 803f 0000 803f 0000 803f
00000060: 0000 803f 0000 803f 0000 803f 0000 803f
00000070: 0000 803f 0000 803f 0000 803f 0000 803f
00000080: 0000 803f 0000 803f 0000 803f 0000 803f
00000090: 0000 803f 0000 803f 0000 803f 0000 803f
000000a0: 0000 803f 0000 803f 0000 803f 0000 803f
000000b0: 0000 803f 0000 803f 0000 803f 0000 803f
000000c0: 0000 803f 0000 803f 0000 803f 0000 803f
000000d0: 0000 803f 0000 803f 0000 803f 0000 803f
000000e0: 0000 803f 0000 803f 0000 803f 0000 803f
000000f0: 0000 803f 0000 803f 0000 803f 0000 803f
1.0 1.0 1.0 1.0 1.0 1.0 1.0 1.0
1.0 1.0 1.0 1.0 1.0 1.0 1.0 1.0
1.0 1.0 1.0 1.0 1.0 1.0 1.0 1.0
1.0 1.0 1.0 1.0 1.0 1.0 1.0 1.0
1.0 1.0 1.0 1.0 1.0 1.0 1.0 1.0
1.0 1.0 1.0 1.0 1.0 1.0 1.0 1.0
1.0 1.0 1.0 1.0 1.0 1.0 1.0 1.0
1.0 1.0 1.0 1.0 1.0 1.0 1.0 1.0
