Code_binary/Search/operator_pt/unimib/DilatedConv-17x64-17x64-7-1-2.pt (torch, 125490 bytes, 5 tensors)

weight f4 [64, 64, 7]
00000000: 98e5 32bd 3042 60bb 781e 5abc 9ec8 873c
00000010: 29b2 afbc b861 283c 32f5 22bd aeb1 ed3c
00000020: 9a68 a83c 8e79 efbc f1b8 3ebd e2e9 a43c
00000030: 3b24 0d3d cd50 103d f44b 23bc b316 1e3d
00000040: 7eab 8c3c 4385 40bd 357e d3bc 1aef d03c
00000050: 371b 3c3d 6700 f5bc 1078 5b3c f863 bb3b
00000060: bef8 f63c b4b7 13bd f01d 193c 4588 303d
00000070: 000e f0bc 18f0 f5bb 4785 12bd bca7 75bc
00000080: 60dd 3bbd 06bd 803c 183f d13b 80a2 00bd
00000090: ce5c 08bd b044 f1bb f0d4 e2bb d43a 98bc
000000a0: df55 3c3d 8d33 3e3d 27b8 f0bc b444 43bc
000000b0: e7db 36bd 807c 0d3c e076 3bbb e1a8 40bd
000000c0: 702e d93b 1e7e a83c 1afb be3c 73ef 343d
000000d0: d8d3 733c 94c7 15bc acf5 72bc 60d9 15bd
000000e0: 9ee4 02bd 66ad 17bd f4cc 06bc c532 f9bc
000000f0: e786 29bd 00fb 1c3b c731 1abd e04e debb
00000100: 0525 07bd 409e c1bc 1c23 573c c0b2 8e3b
00000110: 00f4 03bc a086 5abb 92c4 26bd 4a79 40bd
00000120: 9c04 133c 40c1 30bd 4552 023d 770a 2d3d
00000130: 1b04 01bd 3d26 2b3d 44e8 44bc 7050 28bd
00000140: 1c5a 38bc 3b19 0f3d 7888 a33b 205f 65bb
00000150: 989d 3b3c e6ce 9abc 46ed ec3c de43 e73c
00000160: d51d 0b3d b8af 26bc 9ae3 d23c 3483 12bd
00000170: 98ac 10bc a311 383d d4b1 88bc 8003 be3b
00000180: d6f5 00bd 70b7 38bc c067 1dbd e07c 2ebd
00000190: 8250 9c3c 18c8 143c ecd7 01bc de32 f83c
000001a0: 95db 90bc 24d5 713c a3fd 3ebd de51 ca3c
000001b0: f064 eebb e855 363c eef9 8b3c f78c 91bc
000001c0: 450f 88bc 6417 29bd 00a4 02bb ad1f 8abc
000001d0: ec82 1a3c cb37 91bc 0c19 5ebc 5e81 b8bc
000001e0: ed80 083d b620 ec3c 3ad7 d1bc 20cb 42bc
000001f0: e616 e93c 70c9 293c a637 2dbd 8088 a23b
00000200: 2fda 0dbd 9a74 d8bc e88c 633c 64b5 103c
00000210: b02c 99bb 81aa 0c3d 2e9e debc 9d1e b6bc
00000220: bdc9 d1bc ece6 2d3c 203b 9fba a0c8 5f3b
00000230: 7701 e6bc b8a6 0fbd 5ece df3c 2823 843b
00000240: 0aa8 e93c c403 6fbc 240a 6bbc e4d6 783c
00000250: 466e f13c a0e6 1abd 95e0 0b3d 44cd 95bc
00000260: 7c57 04bd 3dfd 0d3d 4c53 ffbc afc9 3f3d
00000270: 7f9c 0abd 0063 6d3b c48a 37bd 7dd5 acbc
00000280: e0fa f0bc d8f0 973b b5e2 d7bc 48fb e33b
00000290: 980a 6a3c 004b a63b dc34 31bd 4ba4 97bc
000002a0: 48ce f83b 736e 273d a5c7 18bd 2c67 23bd
000002b0: 49d4 1a3d 00b8 0ebc 78ec f8bb 9dd9 dbbc
000002c0: d2f6 0cbd da73 ae3c 18c1 eebb a4d1 f0bc
000002d0: 9079 0b3b 801c 663a 406e 943a 2317 31bd
000002e0: 2831 8fbc 2195 a1bc 2ea3 843c b0a0 2ebb
000002f0: 7df5 273d c096 4bbb 8b0f 39bd 1623 f53c
00000300: a69e 34bd 9a5e d23c 66a4 a53c 26c4 22bd
00000310: 202c 093b 17a3 053d beb7 32bd 00df 88bb
00000320: 0918 2fbd dbe1 b4bc 30c8 47bb 2829 62bc
00000330: aebe db3c 737c 3cbd 0152 bfbc 6253 aa3c
00000340: 22ab e13c bb85 133d f6ef 9a3c fc54 3ebc
00000350: 18fc 09bc 0093 a73a 39e0 1d3d c3cb 193d
00000360: 7858 f1bc 9000 1dbd 1804 693c 90a9 cdbb
00000370: 6eeb da3c 2140 2c3d 62d8 9cbc 606a f33b
00000380: 3f0a 183d cdd6 253d cc2d 7cbc 2c9e 49bc
00000390: 2e4e 3bbd 158b edbc 7b79 1e3d 80ce df3a
000003a0: 5056 40bc 90e2 d2bb bc6b 46bc 606e 35bd
000003b0: 918c 083d 0f3b 253d 67f3 1e3d 2758 283d
000003c0: b3ee 2f3d a020 febc 50f2 5bbb 80f5 a0b9
000003d0: 6523 9ebc f326 103d 184c 11bd 0f9e 0a3d
000003e0: c038 38bc 92d2 823c 7307 213d 67b3 3bbd
000003f0: 9b22 043d c052 cabc 9084 3c3c 7efd e03c
-0.04367599 -0.0034219138 -0.013312928 0.016575154 -0.021447258 0.010277204 -0.039784618 0.029015388
0.02055769 -0.029232766 -0.046563093 0.020131055 0.03445838 0.035233308 -0.009966839 0.038595866
0.017171618 -0.04700209 -0.025817016 0.025504638 0.04592439 -0.029907418 0.013395324 0.0057187043
0.030147906 -0.036063865 0.009345517 0.043098707 -0.02930355 -0.007505428 -0.035771634 -0.014993604
-0.045865417 0.015715133 0.006385695 -0.031404972 -0.03329163 -0.0073629245 -0.006922357 -0.018582739
0.04598033 0.04643588 -0.029384686 -0.011918236 -0.04464331 0.00863564 -0.002860479 -0.047036055
0.0066278502 0.02056795 0.023313094 0.04417367 0.01488205 -0.009141821 -0.014829081 -0.036584258
-0.031956308 -0.0370306 -0.008227576 -0.030419717 -0.04138842 0.0023953319 -0.037645128 -0.006784305
-0.03299429 -0.02363503 0.013130929 0.0043548048 -0.00805378 -0.0033344403 -0.040714808 -0.04699067
0.008973267 -0.043153048 0.03181674 0.04224631 -0.031498056 0.041784514 -0.012018267 -0.041092336
-0.0112519525 0.03493617 0.0049906336 -0.0034999326 0.0114511475 -0.018897485 0.028921735 0.028230604
0.033963997 -0.010173731 0.025743295 -0.035769656 -0.008830212 0.044938695 -0.016686358 0.005798757
-0.031484447 -0.011274204 -0.03842902 -0.04259956 0.019081358 0.009080909 -0.007925015 0.030297693
-0.01768283 0.014760289 -0.046628606 0.02469724 -0.0072752163 0.01112888 0.01708695 -0.017767413
-0.016608844 -0.041282073 -0.0019934177 -0.016860807 0.009430628 -0.0177268 -0.013555776 -0.022522625
0.03332608 0.028824192 -0.025615323 -0.011889249 0.028453302 0.010362968 -0.0422894 0.0049601197
-0.034631904 -0.026422787 0.013888575 0.008832309 -0.0046745166 0.034342293 -0.027175035 -0.022231394
-0.025608892 0.010614138 -0.0012148358 0.0034146681 -0.02807687 -0.035071105 0.027320083 0.0040325113
0.02852251 -0.0145883 -0.014345679 0.015187953 0.029471528 -0.037817597 0.034149725 -0.018286355
-0.032309994 0.034665335 -0.031167649 0.0468232 -0.033840653 0.0036222339 -0.04481007 -0.021097893
-0.029416502 0.004636865 -0.02635322 0.0069574453 0.014284752 0.0050748587 -0.0432633 -0.018510958
0.00759295 0.040876817 -0.03729977 -0.039893314 0.037800107 -0.008710861 -0.0075965486 -0.026837165
-0.034415074 0.021295477 -0.007286202 -0.02939684 0.0021282174 0.00087780505 0.0011324361 -0.043234956
-0.017479494 -0.01972443 0.016191091 -0.002664607 0.0410056 -0.0031065196 -0.04518084 0.029923957
-0.04409661 0.025679875 0.020219993 -0.039737843 0.0020930842 0.032626238 -0.04363226 -0.0041769743
-0.04274753 -0.022080353 -0.0030484311 -0.013803758 0.026824322 -0.04601712 -0.023354532 0.020791713
0.027547423 0.036016207 0.01891325 -0.011616942 -0.00842192 0.0012784898 0.038543914 0.037547838
-0.02946113 -0.038330615 0.014222167 -0.006276317 0.02672359 0.042053346 -0.019146148 0.0074284524
0.037119146 0.040488053 -0.015391778 -0.0123057775 -0.045728855 -0.028996984 0.03869007 0.0017075092
-0.0117393285 -0.0064356998 -0.012110647 -0.044294715 0.03333718 0.040339526 0.038806345 0.041099694
0.04295225 -0.031021416 -0.0033561178 -0.0003070049 -0.019303987 0.035193395 -0.03547296 0.033842143
-0.011243999 0.015969548 0.039313745 -0.04582539 0.032259565 -0.024697661 0.011506215 0.027464624

weight f4 [64]
00000000: 0000 803f 0000 803f 0000 803f 0000 803f
00000010: 0000 803f 0000 803f 0000 803f 0000 803f
00000020: 0000 803f 0000 803f 0000 803f 0000 803f
00000030: 0000 803f 0000 803f 0000 803f 0000 803f
00000040: 0000 803f 0000 803f 0000 803f 0000 803f
00000050: 0000 803f 0000 803f 0000 803f 0000 803f
00000060: 0000 803f 0000 803f 0000 803f 0000 803f
00000070: 0000 803f 0000 803f 0000 803f 0000 803f
00000080: 0000 803f 0000 803f 0000 803f 0000 803f
00000090: 0000 803f 0000 803f 0000 803f 0000 803f
000000a0: 0000 803f 0000 803f 0000 803f 0000 803f
000000b0: 0000 803f 0000 803f 0000 803f 0000 803f
000000c0: 0000 803f 0000 803f 0000 803f 0000 803f
000000d0: 0000 803f 0000 803f 0000 803f 0000 803f
000000e0: 0000 803f 0000 803f 0000 803f 0000 803f
000000f0: 0000 803f 0000 803f 0000 803f 0000 803f
1.0 1.0 1.0 1.0 1.0 1.0 1.0 1.0
1.0 1.0 1.0 1.0 1.0 1.0 1.0 1.0
1.0 1.0 1.0 1.0 1.0 1.0 1.0 1.0
1.0 1.0 1.0 1.0 1.0 1.0 1.0 1.0
1.0 1.0 1.0 1.0 1.0 1.0 1.0 1.0
1.0 1.0 1.0 1.0 1.0 1.0 1.0 1.0
1.0 1.0 1.0 1.0 1.0 1.0 1.0 1.0
1.0 1.0 1.0 1.0 1.0 1.0 1.0 1.0

bias f4 [64]
00000000: 0000 0000 0000 0000 0000 0000 0000 0000
00000010: 0000 0000 0000 0000 0000 0000 0000 0000
00000020: 0000 0000 0000 0000 0000 0000 0000 0000
00000030: 0000 0000 0000 0000 0000 0000 0000 0000
00000040: 0000 0000 0000 0000 0000 0000 0000 0000
00000050: 0000 0000 0000 0000 0000 0000 0000 0000
00000060: 0000 0000 0000 0000 0000 0000 0000 0000
00000070: 0000 0000 0000 0000 0000 0000 0000 0000
00000080: 0000 0000 0000 0000 0000 0000 0000 0000
00000090: 0000 0000 0000 0000 0000 0000 0000 0000
000000a0: 0000 0000 0000 0000 0000 0000 0000 0000
000000b0: 0000 0000 0000 0000 0000 0000 0000 0000
000000c0: 0000 0000 0000 0000 0000 0000 0000 0000
000000d0: 0000 0000 0000 0000 0000 0000 0000 0000
000000e0: 0000 0000 0000 0000 0000 0000 0000 0000
000000f0: 0000 0000 0000 0000 0000 0000 0000 0000
0.0 0.0 0.0 0.0 0.0 0.0 0.0 0.0
0.0 0.0 0.0 0.0 0.0 0.0 0.0 0.0
0.0 0.0 0.0 0.0 0.0 0.0 0.0 0.0
0.0 0.0 0.0 0.0 0.0 0.0 0.0 0.0
0.0 0.0 0.0 0.0 0.0 0.0 0.0 0.0
0.0 0.0 0.0 0.0 0.0 0.0 0.0 0.0
0.0 0.0 0.0 0.0 0.0 0.0 0.0 0.0
0.0 0.0 0.0 0.0 0.0 0.0 0.0 0.0

running_mean f4 [64]
00000000: 0000 0000 0000 0000 0000 0000 0000 0000
00000010: 0000 0000 0000 0000 0000 0000 0000 0000
00000020: 0000 0000 0000 0000 0000 0000 0000 0000
00000030: 0000 0000 0000 0000 0000 0000 0000 0000
00000040: 0000 0000 0000 0000 0000 0000 0000 0000
00000050: 0000 0000 0000 0000 0000 0000 0000 0000
00000060: 0000 0000 0000 0000 0000 0000 0000 0000
00000070: 0000 0000 0000 0000 0000 0000 0000 0000
00000080: 0000 0000 0000 0000 0000 0000 0000 0000
00000090: 0000 0000 0000 0000 0000 0000 0000 0000
000000a0: 0000 0000 0000 0000 0000 0000 0000 0000
000000b0: 0000 0000 0000 0000 0000 0000 0000 0000
000000c0: 0000 0000 0000 0000 0000 0000 0000 0000
000000d0: 0000 0000 0000 0000 0000 0000 0000 0000
000000e0: 0000 0000 0000 0000 0000 0000 0000 0000
000000f0: 0000 0000 0000 0000 0000 0000 0000 0000
0.0 0.0 0.0 0.0 0.0 0.0 0.0 0.0
0.0 0.0 0.0 0.0 0.0 0.0 0.0 0.0
0.0 0.0 0.0 0.0 0.0 0.0 0.0 0.0
0.0 0.0 0.0 0.0 0.0 0.0 0.0 0.0
0.0 0.0 0.0 0.0 0.0 0.0 0.0 0.0
0.0 0.0 0.0 0.0 0.0 0.0 0.0 0.0
0.0 0.0 0.0 0.0 0.0 0.0 0.0 0.0
0.0 0.0 0.0 0.0 0.0 0.0 0.0 0.0

running_var f4 [64]
00000000: 0000 803f 0000 803f 0000 803f 0000 803f
00000010: 0000 803f 0000 803f 0000 803f 0000 803f
00000020: 0000 803f 0000 803f 0000 803f 0000 803f
00000030: 0000 803f 0000 803f 0000 803f 0000 803f
00000040: 0000 803f 0000 803f 0000 803f 0000 803f
00000050: 0000 803f 0000 803f 0000 803f 0000 803f
00000060: 0000 803f 0000 803f 0000 803f 0000 803f
00000070: 0000 803f 0000 803f 0000 803f 0000 803f
00000080: 0000 803f 0000 803f 0000 803f 0000 803f
00000090: 0000 803f 0000 803f 0000 803f 0000 803f
000000a0: 0000 803f 0000 803f 0000 803f 0000 803f
000000b0: 0000 803f 0000 803f 0000 803f 0000 803f
000000c0: 0000 803f 0000 803f 0000 803f 0000 803f
000000d0: 0000 803f 0000 803f 0000 803f 0000 803f
000000e0: 0000 803f 0000 803f 0000 803f 0000 803f
000000f0: 0000 803f 0000 803f 0000 803f 0000 803f
1.0 1.0 1.0 1.0 1.0 1.0 1.0 1.0
1.0 1.0 1.0 1.0 1.0 1.0 1.0 1.0
1.0 1.0 1.0 1.0 1.0 1.0 1.0 1.0
1.0 1.0 1.0 1.0 1.0 1.0 1.0 1.0
1.0 1.0 1.0 1.0 1.0 1.0 1.0 1.0
1.0 1.0 1.0 1.0 1.0 1.0 1.0 1.0
1.0 1.0 1.0 1.0 1.0 1.0 1.0 1.0
1.0 1.0 1.0 1.0 1.0 1.0 1.0 1.0
