Code_binary/Search/operator_pt/unimib/Logit-512-9.pt (torch, 25088 bytes, 2 tensors)

weight f4 [9, 512]
0	0xbc727cc6	-0.014800256
1	0x3d13dec5	0.03610112
2	0x3c0262bc	0.00795811
3	0x3cd2560a	0.025675792
4	0x3c352d20	0.011058122
5	0x3d1c6293	0.038179945
6	0xbc48fee0	-0.012267798
7	0xbc3a124c	-0.011356901
8	0x3caf9656	0.02143399
9	0x3bbd27b8	0.005772557
10	0x3cc18872	0.023624633
11	0x3c1d9ce0	0.009619921
12	0x3c442144	0.011970822
13	0x3a1ca500	0.00059755147
14	0xbcfecfce	-0.031104948
15	0xbccf8af4	-0.025334813
16	0xbba0f6d0	-0.004912235
17	0xbc383e20	-0.0112452805
18	0xbc7bc8fa	-0.015367741
19	0xbd0a9744	-0.033835664
20	0xbd2bf25a	-0.04197917
21	0xbca031fc	-0.019555084
22	0x3d2173cd	0.039417077
23	0xbc9352a2	-0.017983738
24	0xbd1cb482	-0.038258083
25	0x3bd969f8	0.006634947
26	0x3bd4ef78	0.0064982735
27	0xbbd077c8	-0.0063619353
28	0xbbc5b290	-0.006033249
29	0x3cb01b6e	0.021497454
30	0xbc97e65a	-0.018542457
31	0x3d155e57	0.036466923
32	0xbd0411b5	-0.03224345
33	0x3ba7a138	0.0051156543
34	0xbcf00753	-0.029300367
35	0x3cbd8cee	0.02313849
36	0x3ca8727e	0.020562407
37	0x3c948b02	0.01813269
38	0xbb9c5120	-0.004770413
39	0x3d2f8229	0.04284874
40	0xbc875414	-0.016519584
41	0xbccd4ef5	-0.025062064
42	0x3d088807	0.03333285
43	0x3ce7df2e	0.028304663
44	0x3bdd8ed8	0.006761413
45	0xbd2b1837	-0.04177114
46	0x3cd532ba	0.026025165
47	0x3ce063ae	0.027391281
48	0xbd178646	-0.036993288
49	0xbb7f0c50	-0.003891725
50	0x3d22ed6f	0.039777216
51	0xbc61084c	-0.013734888
52	0xbd192c5d	-0.037395824
53	0x3c05d270	0.008167848
54	0x3d1a2a71	0.03763813
55	0xbc925564	-0.017862983
56	0x3d1c1a61	0.038111094
57	0xbc5014a0	-0.01270023
58	0x3cb293b6	0.02179895
59	0x3d03e14f	0.032197293
60	0xbd01a0f1	-0.031647626
61	0x3b767bf0	0.0037610494
62	0xbc86f381	-0.016473534
63	0xbc9b1748	-0.018932
64	0x3d2ea0c7	0.042633798
65	0xbb37ffc0	-0.0028076023
66	0xbb9f35d8	-0.0048587136
67	0xbc8ade3f	-0.016951678
68	0x3c8b1178	0.016976103
69	0xbb7d4dc0	-0.003865108
70	0x3ccebce2	0.02523655
71	0xbc41bb30	-0.011824414
72	0xbcefe776	-0.029285174
73	0xbd30798c	-0.043084666
74	0xba4a4c80	-0.0007717088
75	0xbcaad2e0	-0.020852506
76	0xbcaf48e8	-0.02139707
77	0xbcdf73c7	-0.027276887
78	0x3c06dbe8	0.008231141
79	0x3d2b9973	0.041894387
80	0x3c023394	0.0079468675
81	0xbb2ac3e0	-0.0026056692
82	0x3ceb8e16	0.028754275
83	0x3aacc9a0	0.0013182648
84	0x3cea897a	0.028630007
85	0x3b8aba18	0.00423361
86	0x3bf66e10	0.0075204447
87	0xbb81bd58	-0.003959339
88	0x3d16e0d3	0.036835503
89	0xbd15a992	-0.036538668
90	0xbb969fd0	-0.004596688
91	0x3c2839ac	0.010267656
92	0x3cd87c7e	0.02642655
93	0xbbb67a78	-0.0055687986
94	0x3cca779e	0.024715241
95	0xbcdb26b4	-0.026751854
96	0x3c341790	0.010991946
97	0xbba3ecd0	-0.0050025955
98	0xbc595fcc	-0.013267469
99	0x3ca392da	0.019967485
100	0xbc64a1d0	-0.013954595
101	0x3ce694f2	0.028147195
102	0x3d0fee85	0.03513958
103	0xbd1beb17	-0.038065996
104	0x3cb19a96	0.021680158
105	0x3c0389d0	0.0080284625
106	0xbcd62945	-0.026142726
107	0x3cf83d5e	0.0303027
108	0x3c6a5180	0.014301658
109	0xbcf4ab4c	-0.029866837
110	0xbd14e1f0	-0.036348283
111	0xbb39a370	-0.0028326176
112	0xbc7f6e90	-0.015590325
113	0x3d2da4d7	0.04239353
114	0xbc1ccf30	-0.009570882
115	0x3d2ef18b	0.042710822
116	0x3cfc4696	0.030795377
117	0x3d085063	0.033279788
118	0x3cbed9b2	0.023297165
119	0xbd2ea0eb	-0.042633932
120	0x3c7c22a0	0.015389115
121	0xbccfea23	-0.0253802
122	0xbce003d4	-0.027345575
123	0xbcd278af	-0.025692312
124	0x3d3471d7	0.04405388
125	0xbc8a16c9	-0.016856568
126	0xbcd32ee6	-0.025779199
127	0xbc9e282f	-0.01930627
128	0xbcf307b8	-0.029666767
129	0xbbd87a90	-0.0066064075
130	0x3c397240	0.011318743
131	0x3cad2a02	0.021138195
132	0xbc054d20	-0.008136064
133	0xbd20f57a	-0.039296605
134	0xbc9aa603	-0.018877989
135	0xbd001fba	-0.031280257
136	0xbceb7f1e	-0.028747138
137	0x3d1f2623	0.03885473
138	0x3d150d53	0.03638966
139	0x3cb05ffa	0.02153014
140	0xbcb8e0d8	-0.022568151
141	0x3d09713d	0.033555258
142	0x3cdb3b56	0.026761692
143	0x3d1c1dc7	0.038114335
144	0x3c491264	0.012272451
145	0xbcee7032	-0.029106233
146	0x3d1698c7	0.036766794
147	0x3d01585d	0.03157841
148	0x3cea3332	0.028588865
149	0x3be619e0	0.0070221275
150	0xbd26512a	-0.040604748
151	0xbc0d5cf4	-0.008628119
152	0x3c9d1686	0.01917578
153	0x3ce90d8e	0.028448846
154	0x3ca99c5a	0.020704437
155	0x3cf9c77a	0.030490626
156	0xbc4f22d4	-0.012642581
157	0xb9855200	-0.00025428832
158	0xbcd761b9	-0.026291715
159	0x3bee5f50	0.0072745457
160	0xbc9e747f	-0.019342659
161	0xbcc26060	-0.023727596
162	0xbd2d6d2c	-0.042340443
163	0xbc08e780	-0.008355975
164	0xbd26b1d9	-0.040696952
165	0xbce5564d	-0.027995253
166	0xbb981008	-0.004640583
167	0x3c1c5e00	0.009543896
168	0xbb0ce010	-0.0021495856
169	0xbd2cf729	-0.042227898
170	0xbca8573b	-0.020549407
171	0x3cf17896	0.029476445
172	0xbd1f1221	-0.03883565
173	0xbb71b5e0	-0.0036882088
174	0x3ceb9ec6	0.028762233
175	0x3c69b770	0.014264926
176	0xbd2a0af1	-0.04151434
177	0x3c071ac0	0.008246124
178	0x38d80800	0.00010301173
179	0x3c22222c	0.0098958425
180	0x3cc9f66a	0.024653632
181	0x3c8d1d5e	0.017225917
182	0x3cd3c5d2	0.025851164
183	0xbd29dc90	-0.04147011
184	0xbca6182d	-0.0202752
185	0x3af839c0	0.0018938109
186	0x3d25dfe3	0.04049672
187	0x3d303155	0.043015797
188	0xbc9eb222	-0.01937205
189	0x3b993ac8	0.0046761967
190	0x3cc7168a	0.02430274
191	0x3d327d11	0.043576304
192	0xbaf92840	-0.0019009188
193	0xbc743240	-0.014904559
194	0xba112180	-0.0005536303
195	0xbccb7e7d	-0.024840588
196	0x3d0c1deb	0.03420822
197	0xbca036c4	-0.019557364
198	0x3d1d5e9f	0.038420316
199	0xbcba9138	-0.022774324
200	0xbb0edba0	-0.0021798387
201	0xbaeb9500	-0.0017973483
202	0x3d19089f	0.037361737
203	0xbd14d299	-0.036333654
204	0x3c89017a	0.016724337
205	0xbd176553	-0.036961865
206	0x3d0e4a1f	0.034738656
207	0xbbf203b8	-0.007385697
208	0xbc930866	-0.01794834
209	0x3c7853a4	0.01515666
210	0x3c05d7d4	0.008169133
211	0x3cafde42	0.021468285
212	0xbd088cd8	-0.033337444
213	0xbb757770	-0.0037455224
214	0xbd340c68	-0.043957144
215	0xbc0237ac	-0.0079478435
216	0x3d28c8af	0.04120701
217	0x3b885e88	0.0041616596
218	0x3ace2260	0.0015726797
219	0x3adb2b80	0.0016721338
220	0x3c623d64	0.013808582
221	0x3d25a717	0.040442552
222	0x3d0cde25	0.03439154
223	0x3ce9152a	0.028452475
224	0xbc63670a	-0.013879547
225	0x3c947ab4	0.018124916
226	0x39329400	0.00017030537
227	0xbcbfe0e8	-0.023422673
228	0x3b68d190	0.00355253
229	0xbd322edf	-0.04350173
230	0xbd1ba66f	-0.03800052
231	0xbd04370d	-0.032279063
232	0x3d1eeffd	0.03880309
233	0xbba51d40	-0.0050388873
234	0x3c0b4a0c	0.008501541
235	0x3d31420b	0.043275874
236	0x3c8e75e8	0.017390206
237	0x3cbcb0e6	0.02303357
238	0x3c3957f8	0.011312477
239	0xbc4ac2b8	-0.012375526
240	0xbd2deaff	-0.042460438
241	0x3cc35bce	0.023847487
242	0xbcb9e8ac	-0.022693954
243	0x3ae17460	0.001720082
244	0x3cc198aa	0.023632366
245	0x3a7246c0	0.000924211
246	0xbd1292cf	-0.03578454
247	0x3cf9ddfe	0.030501362
248	0xbcee2e4a	-0.029074807
249	0x3d2d9407	0.042377498
250	0x3cef8566	0.029238414
251	0xbca5e311	-0.020249875
252	0xbc87fe64	-0.016600795
253	0xbce6e0b1	-0.028183313
254	0xbc88bbaa	-0.016691048
255	0x3c41eccc	0.011836242

bias f4 [9]
0	0x3d29266d	0.04129641
1	0x3c509898	0.012731694
2	0x3d1ee6c3	0.03879429
3	0x3b4acf20	0.003094621
4	0xbcc9a7c4	-0.02461613
5	0x3cc2eba6	0.023794007
6	0xbcf5e9e4	-0.030018754
7	0x3cfdb3ea	0.030969579
8	0x3d3053f1	0.043048803
