Code_binary/Search/operator_pt/unimib/Logit-384-512.pt (torch, 794580 bytes, 2 tensors)

weight f4 [512, 384]
00000000: dcb6 92bc d49d a8bc ea96 0a3d 08a6 8a3c
00000010: 6955 f7bc c22f 02bd 9439 223d 20b7 233c
00000020: 066d 473d c0a7 d23a e000 043d f07e 59bc
00000030: c052 0f3c 646a 243d 209d 4b3c ce0a 07bd
00000040: 54bd 0fbd 307b 303d 3000 16bd 28fd 6c3c
00000050: e4b4 283d 12e9 133d 9f86 3bbd e249 303d
00000060: fc54 5bbc 50f8 4c3c b069 0abd 1b8d 19bd
00000070: 7375 d6bc 14d5 40bd f2e5 013d 6825 5bbc
00000080: 7454 233c 6cde 8a3c d0ca db3c 889f ed3c
00000090: 5e24 43bd ba92 08bd dcb2 28bc eb38 f0bc
000000a0: 18d3 82bc 800f 143d f297 e4bc 8067 17bc
000000b0: 289d 133d 00ef b73c a8dc 6d3c e0d1 b3bb
000000c0: 7e58 3f3d 8c6c 323d ccd5 1a3d 95eb e0bc
000000d0: c474 283d 00f2 423a 8be7 01bd 20c6 93bb
000000e0: 4041 04bb 60d8 10bd fc87 2bbc 6bfa 0abd
000000f0: d07a 0e3c 005a 2c3d 0840 e43b c5cf e0bc
00000100: 6014 69bc bd39 2cbd 1ade 473d 2cfd 18bc
00000110: 5a10 323d dbc5 18bd 7c1c eb3c d011 febb
00000120: fc49 87bc fb5d 36bd f298 0bbd 1428 1d3d
00000130: 88a7 eabc a835 833c 08c2 f7bb 8e0a 83bc
00000140: 841f af3c 0c84 323d 7b9b 38bd 2036 9a3c
00000150: 7b9c afbc 8004 463c 1a86 3bbd f616 40bd
00000160: 4792 e5bc 54b1 e6bc c24a 293d 8252 023d
00000170: 9e97 ccbc 6cfe d13c f07f a93b e8ad 893c
00000180: 00df 553a 8270 353d 8202 c1bc 7005 2a3d
00000190: 56de 3fbd 9367 24bd acda ca3c 142d 6fbc
000001a0: 76c2 4c3d 6dff 18bd 046d 1e3c 4427 5dbc
000001b0: 4a41 08bd c01f 653c d726 b0bc 80b9 23bb
000001c0: 68a8 833b 9a77 d7bc d34b 40bd b8b0 09bc
000001d0: 8c27 43bc 0db2 c7bc 947d ef3c 40f4 f1bb
000001e0: bca4 2b3c b5fe 23bd 071b 3fbd 31fd d1bc
000001f0: 54f1 c63c 74f0 283c 5c50 943c d404 4dbd
00000200: ac7e 1fbd fcdf 4b3d c402 f23c 6e67 183d
00000210: 4289 003d d01b c83b 6ab5 44bd 497f fabc
00000220: 180d 99bc 8fba 46bd 6cde 49bc 2829 16bd
00000230: 6f0b 23bd b036 60bc 2c27 07bd dc7c eb3c
00000240: ac2a 73bc 1b32 c6bc 20ce 7bbb 806c d33c
00000250: c0f2 d73c 0421 2abd 987c 373c 800b f13b
00000260: 2c0f b83c 44ee 95bc 50ad 683c fc83 aa3c
00000270: 40db 54bb 88bf f43c 804b df3b d49c f33c
00000280: 78e3 a7bb 5a48 1f3d 9031 463c 0cc6 c43c
00000290: ac8e 3abc cc7d a7bc 361a 12bd 5891 44bd
000002a0: 5c70 d13c aa5d d3bc da38 87bc 9805 f63c
000002b0: b834 21bd 223e 46bd d23f 2e3d 2007 f0bc
000002c0: f474 88bc 9e4c 19bd 5cc8 4cbc 1225 a6bc
000002d0: c09d 643c eacc 263d 2ca0 423d 5404 c63c
000002e0: 18c1 41bc f881 98bc c82c 513c 786a 17bd
000002f0: d4d3 01bd d650 4c3d 2088 be3a 5202 3b3d
00000300: ccc4 d13c c869 be3b 40d5 e23c 6817 a0bc
00000310: 7f77 2bbd b52d 3fbd 3c38 f73c bd64 15bd
00000320: a0c3 173d 40dc 003d 6c28 2dbc 947f 53bc
00000330: 7418 30bd f220 0d3d 7a35 443d 3c7e cfbc
00000340: c26e 0abd 10cf 83bb bc4d 863c 6ceb d23c
00000350: 005b 37b9 a8d4 bc3c ce29 413d 34f4 77bc
00000360: 330f cbbc c0ed 5f3a 447e 61bc ce25 d0bc
00000370: 81a8 c5bc 4032 78ba c755 e1bc 81d7 d7bc
00000380: 0e80 413d e25f 413d 5fc9 3abd 581d 1dbc
00000390: b837 6e3c 28bf b83c 3035 1fbb 9ce2 323c
000003a0: ce33 303d 1029 de3b 7891 c43c 1c4c 0bbc
000003b0: 687c 1c3d 1eef 2abd 50a1 4e3d 5c13 13bd
000003c0: 6495 133c 3624 40bd a229 203d 26d9 c4bc
000003d0: a86e e43b 1ad0 1b3d 5c88 34bc 9041 e53c
000003e0: 2c5c 193d c0a4 713a 5ae9 27bd f874 cdbb
000003f0: 4872 573c 2f06 38bd f821 8f3c 005f a1bc
-0.01790946 -0.02058307 0.03383533 0.016924873 -0.030192094 -0.031783827 0.039605692 0.009992391
0.048687957 0.0016071722 0.032227397 -0.013274893 0.0087477565 0.040140525 0.012427598 -0.03296929
-0.035092667 0.04308623 -0.036621273 0.014464654 0.041188136 0.036110945 -0.04578268 0.04303921
-0.013386961 0.012510374 -0.033792198 -0.037488084 -0.026179051 -0.047078207 0.031713434 -0.013375618
0.009968866 0.016951762 0.026830107 0.029006734 -0.047642104 -0.033343054 -0.01029655 -0.029324016
-0.015969798 0.036147594 -0.027904484 -0.009240985 0.036038548 0.022452831 0.014517941 -0.0054876655
0.046715252 0.04356055 0.03780155 -0.027456084 0.04112698 0.00074365735 -0.031714957 -0.0045097023
-0.0020180494 -0.0353626 -0.010469433 -0.033930223 0.008696273 0.04207802 0.006965641 -0.027442822
-0.014226049 -0.04204725 0.048795797 -0.009337705 0.043472625 -0.037298065 0.028700106 -0.0077535883
-0.01651477 -0.04452322 -0.034081407 0.0383683 -0.028644338 0.016016796 -0.007560972 -0.015996244
0.021377333 0.04358296 -0.045070153 0.018824637 -0.02143692 0.012086034 -0.045782186 -0.046896897
-0.028023852 -0.028160729 0.04133106 0.031816967 -0.02497464 0.025634013 0.005172722 0.016806558
0.0008158535 0.04429675 -0.023560766 0.04150909 -0.046842895 -0.04013784 0.024762474 -0.01459815
0.04999014 -0.037352968 0.009669546 -0.013498131 -0.03326539 0.013984621 -0.021502895 -0.0024982393
0.0040178783 -0.026302148 -0.04694731 -0.008403949 -0.011911284 -0.024376893 0.029234685 -0.007383853
0.010476287 -0.04003783 -0.046656635 -0.025633426 0.024284996 0.010311235 0.018104725 -0.050053433
-0.038939163 0.049774155 0.029542334 0.037208013 0.0313809 0.006106831 -0.048024572 -0.030578272
-0.018683001 -0.04851776 -0.012321096 -0.036660343 -0.039805826 -0.0136849135 -0.03299634 0.028746061
-0.014841717 -0.024193814 -0.003842242 0.025808573 0.02636087 -0.041535392 0.011199139 0.0073561072
0.022468172 -0.01830209 0.014201477 0.020814888 -0.0032479316 0.029876485 0.00681442 0.029737867
-0.005123552 0.03888736 0.012096778 0.024020217 -0.011386555 -0.020445727 -0.035669528 -0.047990173
0.025566272 -0.025801498 -0.016506601 0.030031964 -0.039356917 -0.0483991 0.042541333 -0.029300272
-0.01665733 -0.037426583 -0.012498941 -0.020281348 0.013953626 0.040722765 0.047516033 0.024171986
-0.011825822 -0.018616661 0.012767024 -0.03696677 -0.031696156 0.04988178 0.0014536418 0.04565651
0.025606535 0.00581095 0.027689576 -0.019542411 -0.041862007 -0.04667445 0.030178182 -0.036473025
0.037051797 0.031460047 -0.010568719 -0.012908835 -0.04299207 0.034455247 0.04790256 -0.025328748
-0.033797033 -0.0040224865 0.016394489 0.025747024 -0.0001748614 0.023050621 0.04715901 -0.015133906
-0.024787521 0.00085422024 -0.013763014 -0.025408652 -0.0241282 -0.0009467937 -0.027506722 -0.026347877
0.047241263 0.04721058 -0.0456022 -0.009589516 0.014539652 0.022552088 -0.0024293177 0.010918286
0.043018155 0.0067797974 0.023995146 -0.008502033 0.03820458 -0.041731946 0.05044681 -0.035907134
0.0090077855 -0.046909533 0.039102204 -0.024029326 0.006971199 0.038040258 -0.011018839 0.027985364
0.037441418 0.000921797 -0.040994026 -0.0062700473 0.013149805 -0.044927772 0.017472252 -0.01969862

bias f4 [512]
00000000: 89df 39bd cd24 16bd f011 583c ce94 413d
00000010: 7c26 223d 0046 a43c e46e c53c 88c4 db3b
00000020: 7498 1f3d 5bfb b6bc b042 3e3b 38c5 9c3b
00000030: 5e62 4b3d 34db 083d 2473 173d 18d1 0bbc
00000040: f80e a93c b64c 0a3d b0ed 23bb 8225 4b3d
00000050: f983 17bd 91a6 dbbc 802c babb b449 133d
00000060: e82a 993c f0c5 153c faa2 07bd 00f3 02bc
00000070: 9637 0fbd 9c0f 21bd 9573 4ebd 5448 1ebc
00000080: 109e 6a3c 31a5 4ebd 54ec 19bd 7b80 0abd
00000090: ecc5 243d e017 4cbc aac1 3e3d d208 e2bc
000000a0: 1a30 8cbc 0002 b2b8 4c0a e23c 80f7 8d3b
000000b0: a4cf e73c 1a26 1d3d f830 60bc 661f 3b3d
000000c0: a8f8 b9bc 003c e43c 40c8 133c 0805 1c3d
000000d0: c624 90bc a858 a33b 1f3d 25bd 00fd f03c
000000e0: a496 37bd 5e02 95bc 5064 ae3b a2b1 4e3d
000000f0: 84e5 083c 80b4 333d 9e67 183d e060 1f3d
00000100: 02db 213d 70ee ebbc 7b82 ddbc 57f9 3abd
00000110: a6e3 2dbd 3038 b03c 5446 8fbc 74cb 13bc
00000120: 8005 41bd 50f8 843b bfc1 16bd 9032 17bb
00000130: 7459 bd3c 63bd f3bc 228c 253d 341f 8c3c
00000140: 2063 80bc 7848 e23c 6edd 0e3d 5d26 a9bc
00000150: 58f6 513c 5845 ca3b 80cd 36bc 145b 453d
00000160: 8031 d83c b57c cdbc f63a eabc ee65 3d3d
00000170: edde 3ebd 58e5 febb 50b1 4dbb 641b c0bc
00000180: d2b2 afbc 4438 a13c 142c 3f3d c89c 3fbd
00000190: 4dc7 eebc 5032 f73b e6b8 473d 5a95 8bbc
000001a0: 4cba 043c 0063 bc3b 00d1 43bd f0ef ccbc
000001b0: 246a 53bc 611d cabc 5526 e6bc 56dc 36bd
000001c0: 14b8 283c 5460 233d 98a7 36bd 6874 803b
000001d0: 14f1 1d3d f90e a2bc 3ac6 0b3d e0e9 66bb
000001e0: 23d3 d4bc 9b77 c3bc fe50 1d3d 488c d83b
000001f0: 4442 24bc aa05 083d fa2d d7bc 00dd fd3b
00000200: 81bb acbc f216 3b3d 9835 e3bb 91a9 18bd
00000210: d83e 343d d48c d83c 50e1 033b e1e5 aebc
00000220: eec8 153d 8e71 89bc 8d5a cebc eed9 0a3d
00000230: 5c74 3abc b80c 2a3c 0785 18bd 046b 40bd
00000240: 14cb 83bc db16 cfbc 5df2 15bd 560b 283d
00000250: b86b 863c a605 2a3d a087 6e3c 1a95 293d
00000260: f81b 333d 6883 cf3b 9a5b 17bd c053 3d3b
00000270: d06e c53b 744a 083c d88f c33c b4e1 083d
00000280: e087 853c 91c3 3ebd 8671 45bd ac31 25bc
00000290: d0f4 e7bc 18ea 93bb 7aa1 093d 94cb aa3c
000002a0: 58ab ddbb b043 193d d4ae 0f3d 5427 ad3c
000002b0: a0df 033d 6c97 263d 7881 e3bc 2e8a 083d
000002c0: dac1 c1bc 1870 de3b 5f6d 37bd 4c81 b7bc
000002d0: cc68 40bc e0ae 8b3b 1876 e13c fe44 22bd
000002e0: 048a ea3c e222 38bd 95d2 c3bc 175e 26bd
000002f0: deb7 493d 4d82 20bd 2095 e63b 802f f7ba
00000300: 36a8 2b3d 3c54 1bbc 7a17 2b3d 1acb 03bd
00000310: b867 563c 5e4b 0abd 04c2 77bc d0dd 81bb
00000320: f001 24bc 6058 643c da9f 0a3d 6c23 893c
00000330: 40f8 963b dcbe 363c 4289 1c3d 7255 193d
00000340: f684 40bd 000c e9b8 1596 ffbc f808 2abc
00000350: b044 4a3c b907 d5bc c11b 4ebd 005e 0a3d
00000360: 04c6 a23c b8b0 333d be42 393d 7839 333c
00000370: 25c6 c3bc e800 f9bb 16a6 0d3d 20fb 83bc
00000380: 783f 3e3c e0e5 d03a ab7b 1dbd e4ce fe3c
00000390: 675a 46bd dc46 50bc d09e dabb e0f6 773c
000003a0: dc83 0c3d 8c60 163d 82d2 1f3d 50cf 003c
000003b0: a041 373d 486c 633c 644e ae3c 3cff 853c
000003c0: fcad 3c3d 00c2 47bc 6046 1b3c 634f 1bbd
000003d0: 78eb 4ebc 9c8c 00bc 312a babc 3070 143d
000003e0: 008b 1aba 6437 1cbd b444 a03c 9037 9e3c
000003f0: 9cfb 2c3d 1493 223c 6889 063d 1082 25bd
-0.045379195 -0.03665619 0.01318787 0.04726105 0.039587483 0.02005291 0.024100728 0.006706778
0.03896375 -0.022336653 0.0029031448 0.0047842525 0.049654357 0.033412173 0.03697504 -0.008533739
0.02063702 0.033764564 -0.00250135 0.049596317 -0.036991093 -0.026812823 -0.0056815743 0.03595896
0.018697217 0.00914143 -0.03311441 -0.007992506 -0.03496512 -0.039321527 -0.050403196 -0.009660799
0.014319912 -0.050450508 -0.037578896 -0.033813935 0.040227816 -0.012456864 0.04657141 -0.027592096
-0.01711278 -8.488074e-05 0.0275928 0.004332483 0.028297253 0.038366415 -0.01368355 0.04568424
-0.022701576 0.027860641 0.009019911 0.038090736 -0.01759566 0.004984934 -0.040341493 0.029417515
-0.044821396 -0.018189605 0.005322017 0.050462373 0.008355502 0.04387331 0.037208192 0.038910747
0.039515503 -0.02880022 -0.027039757 -0.045647945 -0.04245343 0.021511167 -0.01748959 -0.009020675
-0.047124386 0.0040579215 -0.036805864 -0.002307091 0.023113944 -0.029753393 0.040416844 0.017104723
-0.015672266 0.027622446 0.03487914 -0.020648176 0.012815081 0.006172817 -0.011157393 0.048182562
0.026390791 -0.025083879 -0.028592568 0.046239786 -0.046599317 -0.0077788047 -0.0031386204 -0.02345056
-0.021447573 0.01968015 0.046672896 -0.046780378 -0.029147768 0.0075438395 0.048760317 -0.01703899
0.008101057 0.0057491064 -0.04780674 -0.025016755 -0.012903724 -0.024672212 -0.02809445 -0.044643722
0.010297794 0.039886788 -0.044593424 0.0039201267 0.03855999 -0.01978253 0.03412459 -0.0035234615
-0.025979584 -0.023860743 0.03840732 0.0066085197 -0.010025565 0.033208527 -0.02626704 0.0077472925
-0.021085503 0.04567618 -0.006933879 -0.037271086 0.044005245 0.02643434 0.002012331 -0.02134985
0.036568575 -0.01677778 -0.025189662 0.03389924 -0.011380281 0.010379009 -0.03723624 -0.046977058
-0.016088046 -0.025279453 -0.03660809 0.041026436 0.016408786 0.041509293 0.014558703 0.04140196
0.043727845 0.0063328035 -0.036952592 0.002888903 0.006025173 0.008318532 0.023872301 0.033418372
0.016300142 -0.046573225 -0.048203968 -0.0100826435 -0.028314978 -0.00451399 0.03360126 0.020849027
-0.0067648105 0.037418067 0.03507884 0.021136917 0.032195687 0.04067175 -0.027771696 0.033334903
-0.023652006 0.006788265 -0.04478204 -0.02240052 -0.0117437355 0.00426279 0.027522132 -0.039616577
0.028630264 -0.04495514 -0.023904124 -0.040617075 0.049247615 -0.039186765 0.00703682 -0.0018858761
0.041908465 -0.009480532 0.041770436 -0.032176115 0.013086252 -0.033763282 -0.0151219405 -0.0039632097
-0.010010228 0.013937086 0.033843853 0.016740523 0.0046072304 0.011153903 0.038216837 0.037435003
-0.0470018 -0.00011112541 -0.031199494 -0.010378115 0.012345478 -0.026004659 -0.050319437 0.03378105
0.019869812 0.043869704 0.045229666 0.010938995 -0.023898194 -0.007598985 0.03458222 -0.016110957
0.011611812 0.0015937649 -0.038448017 0.031104513 -0.04842606 -0.012712207 -0.006671764 0.015134543
0.03430544 0.036713168 0.039019115 0.007861927 0.04474032 0.013880797 0.021277614 0.016357057
0.046064362 -0.012192249 0.009477228 -0.037917506 -0.012629382 -0.007846024 -0.022725197 0.036239803
-0.00058953464 -0.038138762 0.01956401 0.019313604 0.04223214 0.0099227615 0.032845885 -0.04040724
