Code_darts/Search/operator_pt/wisdm/DepthConv-20x64-20x64-9-1-1.pt (torch, 158224 bytes, 5 tensors)

weight f4 [64, 64, 9]
00000000: 6064 ddbc ce58 c83c 805c 8b39 00f9 66bb
00000010: f87d 91bb eb30 0bbd ac26 3b3c 1b71 b3bc
00000020: 8278 d53c 38a4 bb3b 000b 23ba 8515 2a3d
00000030: c4f6 01bc c46e 233c 79e4 163d a0c9 fa3b
00000040: d071 52bb 8eb3 d03c 4027 2a3b 1cbe 2e3c
00000050: e4c7 053c d8fe b93b cc36 5fbc 4c2f 0c3c
00000060: b838 b3bb 6210 26bd 8ee6 afbc 82a8 fa3c
00000070: be57 96bc f210 cf3c 1306 0fbd f873 85bc
00000080: 1864 89bc 7650 eabc 5046 31bc 5018 023b
00000090: 78cb 8e3b a015 ab3a 21f2 263d 38cf a3bb
000000a0: 06f4 eabc 1677 b53c 3704 13bd 8038 8abb
000000b0: 026c d13c 000f 413a 7590 293d 0ef4 e7bc
000000c0: 7014 7cbc 7209 cb3c 6d7e 1c3d 328a ce3c
000000d0: d84c a5bb 8b0d 0ebd 88f0 823b 8078 7dbb
000000e0: def4 25bd 53f5 11bd e052 813c c8dd 8cbc
000000f0: 53aa 96bc 30c2 16bc e64f b1bc 2045 d3bb
00000100: 23f8 0e3d 96c4 2bbc f883 90bb 5e9c c3bc
00000110: 78f7 d1bb d86e f13b 987b 85bc bc4c 08bd
00000120: 8066 b0bb db40 eabc d426 693c 5a3d b13c
00000130: 6254 e33c 3853 acbb 008b 5e3a 2236 f03c
00000140: 7c64 07bd 0015 cebc 96f7 a4bc bb54 98bc
00000150: 10f7 23bb 21f9 0c3d 80b7 1abd 944a 773c
00000160: 2074 183c f266 be3c a64a 22bd 5e2c cebc
00000170: 2a42 0dbd e4b5 4a3c c366 83bc eb3a 91bc
00000180: d2db ad3c 0003 3ab9 b813 c9bb a0c6 9c3b
00000190: 32ac ac3c 9412 05bc 3038 083c fce0 6c3c
000001a0: d8c0 b1bb 0056 fcbc 4071 70ba 9cda 27bd
000001b0: 9ec1 983c 0026 dbb9 3ad5 b93c 4408 1bbd
000001c0: 03f9 0fbd b6ed e83c 40ca 35ba 8035 c339
000001d0: b234 dd3c 62cc f63c 929d cf3c 00ca 733b
000001e0: aa39 fa3c a31b 85bc 5cb0 0cbd f0c5 183c
000001f0: 7a43 f83c 003d a73a 7852 29bd d80b 863c
00000200: c250 d83c 3922 193d fb72 9abc a0f0 16bd
00000210: e817 c83b 0891 f53b d094 493b b022 a53c
00000220: ccf1 75bc 16f5 e93c 63ab 23bd 3ec3 d73c
00000230: 1072 47bb f824 963b 9c16 5dbc da3b e73c
00000240: feb7 943c fd4e 0b3d fa67 b43c d3bc c7bc
00000250: 8079 30bc 7072 60bb 40c4 6e3b 5cb1 0ebc
00000260: 6b7b cbbc 4b95 0dbd 629c bd3c 7227 23bd
00000270: ec70 073c 36cb aabc 06d0 c8bc 8332 1c3d
00000280: 2077 09bc 00af 3cbb 6ebd 85bc b70c 1b3d
00000290: 0052 82b9 988b 12bd cad3 cd3c 0640 d9bc
000002a0: 2cda 0cbd 2fdc 0b3d e487 143c cdc9 283d
000002b0: 3861 e6bc d2fc a83c 0e1f 8ebc ba9c 8f3c
000002c0: 4a7c 21bd ab26 11bd 462c 3cbc ac7a 16bd
000002d0: 76cc 55bc 000d c63b 4b18 fbbc 738b 19bd
000002e0: 735e a7bc ccfc 15bd 102e 0ebd 406b 663b
000002f0: d8a1 d0bc 5b34 a8bc 600c e63a e017 ecbc
00000300: b03b 25bd 9cfb 07bd 0c6d 30bc 0a07 cb3c
00000310: 5aea e33c 88d6 98bc 593f 213d 72a4 e23c
00000320: 5095 0dbb 76b4 b63c 3675 dd3c 6f29 233d
00000330: 21de 223d 0987 0a3d 6e52 ef3c 0c0d 5abc
00000340: 7d28 043d a0f6 993b 0781 29bd 2679 20bd
00000350: a0b2 ecbc 2086 efbc 15cf 0e3d f035 45bb
00000360: 1f7a 19bd 60bf ccbc 0012 743b e0ff 83bc
00000370: b24f cf3c 863d f3bc a0d5 a4ba 66e3 50bc
00000380: c3a4 a4bc 6295 903c 28b5 a23b 8095 68bc
00000390: 0a19 d63c 8458 433c b29e e83c 108f 3d3b
000003a0: 0ee4 ae3c c633 50bc 4003 6c3a df15 0cbd
000003b0: 3775 163d a26a d23c 12ba ff3c 2039 123c
000003c0: fa53 cc3c 47d4 173d f8fd dd3b f838 9bbc
000003d0: 803c c43b b0a6 173c ab29 19bd caec c53c
000003e0: 9375 b1bc 2c83 7cbc 2bd5 aebc 407e 49bb
000003f0: ab1c 0d3d fa7d fb3c 95c1 173d b81c 1cbd
-0.027025402 0.024456408 0.00026581064 -0.003524363 -0.0044400655 -0.0339822 0.011422794 -0.021904519
0.02605844 0.0057263635 -0.00062195957 0.04152443 -0.007932369 0.009975139 0.036838982 0.00765343
-0.0032111295 0.025476243 0.0025963336 0.010665443 0.008165333 0.0056761317 -0.013623904 0.008556198
-0.005469408 -0.040542968 -0.021472242 0.030597929 -0.018352386 0.025276635 -0.034917902 -0.01629065
-0.016771361 -0.02860282 -0.010819986 0.0019850917 0.0043577515 0.0013052709 0.040758256 -0.0049990676
-0.028680813 0.022151511 -0.03589269 -0.004218161 0.025564197 0.0007364601 0.04139753 -0.028314617
-0.015385732 0.024784777 0.038206507 0.025212381 -0.005044561 -0.034680884 0.0039959587 -0.003867656
-0.040516727 -0.03563435 0.015786588 -0.017195597 -0.018391764 -0.009201571 -0.021644544 -0.0064474493
0.03490461 -0.010483881 -0.004410263 -0.023878273 -0.0064076744 0.00736795 -0.016294286 -0.033276305
-0.0053833127 -0.028595379 0.014230449 0.0216357 0.027750198 -0.005258944 0.00084893405 0.029322688
-0.033054814 -0.025156498 -0.02013759 -0.01859509 -0.0025019087 0.034417275 -0.037772655 0.015093464
0.00930503 0.023242448 -0.03962197 -0.02516764 -0.034486927 0.012372468 -0.016040212 -0.01772829
0.021222983 -0.0001773946 -0.006136384 0.00478442 0.021078203 -0.008122105 0.008314177 0.014457937
-0.0054246 -0.030802727 -0.0009172149 -0.040979967 0.018647011 -0.00041799247 0.022684682 -0.03784968
-0.035149585 0.028433662 -0.00069347396 0.0003723316 0.027002666 0.030126754 0.02534369 0.0037199259
0.030545074 -0.01624853 -0.034347877 0.009324536 0.030305613 0.0012759268 -0.041338414 0.01636307
0.026405696 0.037386153 -0.018853655 -0.03685057 0.0061063655 0.0074940957 0.0030758865 0.020158142
-0.015011262 0.028559249 -0.03995837 0.026338216 -0.0030432977 0.0045820437 -0.01349416 0.028226782
0.01815414 0.034010876 0.022022236 -0.02438203 -0.010771155 -0.0034247898 0.0036432892 -0.008709278
-0.024839124 -0.034566205 0.023145858 -0.03983254 0.008266669 -0.020848852 -0.024513256 0.03813411
-0.008390218 -0.0028790832 -0.016325679 0.037853923 -0.00024856627 -0.03577766 0.025125403 -0.026519787
-0.034387752 0.03414553 0.009065602 0.041208077 -0.02812253 0.020628367 -0.017348792 0.017530788
-0.039425172 -0.035437267 -0.011485165 -0.036738083 -0.013049236 0.00604403 -0.030651232 -0.037486505
-0.02043078 -0.03661804 -0.034711897 0.003515914 -0.025467798 -0.020532778 0.0017551295 -0.028819978
-0.040340126 -0.033198938 -0.010768186 0.02478363 0.027821708 -0.018656984 0.039367054 0.027666304
-0.002160389 0.022302847 0.02703343 0.039834436 0.03976262 0.033820186 0.02921411 -0.013308775
0.032265175 0.0046985894 -0.041382816 -0.039178036 -0.028893769 -0.02923876 0.034865458 -0.0030091964
-0.03746998 -0.024993598 0.0037242174 -0.016113222 0.025306556 -0.029692423 -0.0012575872 -0.0127495285
-0.020098096 0.017649356 0.004965443 -0.0141958 0.026134986 0.011922959 0.028395984 0.0028924383
0.02134898 -0.012707656 0.000900317 -0.034200545 0.03673288 0.025685612 0.031216655 0.0089247525
0.024942387 0.037067678 0.00677466 -0.018948063 0.0059886575 0.00925605 -0.037393253 0.024160761
-0.02166251 -0.015412133 -0.02134188 -0.0030745417 0.034451168 0.030699719 0.03704985 -0.038113326

weight f4 [64]
00000000: 0000 803f 0000 803f 0000 803f 0000 803f
00000010: 0000 803f 0000 803f 0000 803f 0000 803f
00000020: 0000 803f 0000 803f 0000 803f 0000 803f
00000030: 0000 803f 0000 803f 0000 803f 0000 803f
00000040: 0000 803f 0000 803f 0000 803f 0000 803f
00000050: 0000 803f 0000 803f 0000 803f 0000 803f
00000060: 0000 803f 0000 803f 0000 803f 0000 803f
00000070: 0000 803f 0000 803f 0000 803f 0000 803f
00000080: 0000 803f 0000 803f 0000 803f 0000 803f
00000090: 0000 803f 0000 803f 0000 803f 0000 803f
000000a0: 0000 803f 0000 803f 0000 803f 0000 803f
000000b0: 0000 803f 0000 803f 0000 803f 0000 803f
000000c0: 0000 803f 0000 803f 0000 803f 0000 803f
000000d0: 0000 803f 0000 803f 0000 803f 0000 803f
000000e0: 0000 803f 0000 803f 0000 803f 0000 803f
000000f0: 0000 803f 0000 803f 0000 803f 0000 803f
1.0 1.0 1.0 1.0 1.0 1.0 1.0 1.0
1.0 1.0 1.0 1.0 1.0 1.0 1.0 1.0
1.0 1.0 1.0 1.0 1.0 1.0 1.0 1.0
1.0 1.0 1.0 1.0 1.0 1.0 1.0 1.0
1.0 1.0 1.0 1.0 1.0 1.0 1.0 1.0
1.0 1.0 1.0 1.0 1.0 1.0 1.0 1.0
1.0 1.0 1.0 1.0 1.0 1.0 1.0 1.0
1.0 1.0 1.0 1.0 1.0 1.0 1.0 1.0

bias f4 [64]
00000000: 0000 0000 0000 0000 0000 0000 0000 0000
00000010: 0000 0000 0000 0000 0000 0000 0000 0000
00000020: 0000 0000 0000 0000 0000 0000 0000 0000
00000030: 0000 0000 0000 0000 0000 0000 0000 0000
00000040: 0000 0000 0000 0000 0000 0000 0000 0000
00000050: 0000 0000 0000 0000 0000 0000 0000 0000
00000060: 0000 0000 0000 0000 0000 0000 0000 0000
00000070: 0000 0000 0000 0000 0000 0000 0000 0000
00000080: 0000 0000 0000 0000 0000 0000 0000 0000
00000090: 0000 0000 0000 0000 0000 0000 0000 0000
000000a0: 0000 0000 0000 0000 0000 0000 0000 0000
000000b0: 0000 0000 0000 0000 0000 0000 0000 0000
000000c0: 0000 0000 0000 0000 0000 0000 0000 0000
000000d0: 0000 0000 0000 0000 0000 0000 0000 0000
000000e0: 0000 0000 0000 0000 0000 0000 0000 0000
000000f0: 0000 0000 0000 0000 0000 0000 0000 0000
0.0 0.0 0.0 0.0 0.0 0.0 0.0 0.0
0.0 0.0 0.0 0.0 0.0 0.0 0.0 0.0
0.0 0.0 0.0 0.0 0.0 0.0 0.0 0.0
0.0 0.0 0.0 0.0 0.0 0.0 0.0 0.0
0.0 0.0 0.0 0.0 0.0 0.0 0.0 0.0
0.0 0.0 0.0 0.0 0.0 0.0 0.0 0.0
0.0 0.0 0.0 0.0 0.0 0.0 0.0 0.0
0.0 0.0 0.0 0.0 0.0 0.0 0.0 0.0

running_mean f4 [64]
00000000: 0000 0000 0000 0000 0000 0000 0000 0000
00000010: 0000 0000 0000 0000 0000 0000 0000 0000
00000020: 0000 0000 0000 0000 0000 0000 0000 0000
00000030: 0000 0000 0000 0000 0000 0000 0000 0000
00000040: 0000 0000 0000 0000 0000 0000 0000 0000
00000050: 0000 0000 0000 0000 0000 0000 0000 0000
00000060: 0000 0000 0000 0000 0000 0000 0000 0000
00000070: 0000 0000 0000 0000 0000 0000 0000 0000
00000080: 0000 0000 0000 0000 0000 0000 0000 0000
00000090: 0000 0000 0000 0000 0000 0000 0000 0000
000000a0: 0000 0000 0000 0000 0000 0000 0000 0000
000000b0: 0000 0000 0000 0000 0000 0000 0000 0000
000000c0: 0000 0000 0000 0000 0000 0000 0000 0000
000000d0: 0000 0000 0000 0000 0000 0000 0000 0000
000000e0: 0000 0000 0000 0000 0000 0000 0000 0000
000000f0: 0000 0000 0000 0000 0000 0000 0000 0000
0.0 0.0 0.0 0.0 0.0 0.0 0.0 0.0
0.0 0.0 0.0 0.0 0.0 0.0 0.0 0.0
0.0 0.0 0.0 0.0 0.0 0.0 0.0 0.0
0.0 0.0 0.0 0.0 0.0 0.0 0.0 0.0
0.0 0.0 0.0 0.0 0.0 0.0 0.0 0.0
0.0 0.0 0.0 0.0 0.0 0.0 0.0 0.0
0.0 0.0 0.0 0.0 0.0 0.0 0.0 0.0
0.0 0.0 0.0 0.0 0.0 0.0 0.0 0.0

running_var f4 [64]
00000000: 0000 803f 0000 803f 0000 803f 0000 803f
00000010: 0000 803f 0000 803f 0000 803f 0000 803f
00000020: 0000 803f 0000 803f 0000 803f 0000 803f
00000030: 0000 803f 0000 803f 0000 803f 0000 803f
00000040: 0000 803f 0000 803f 0000 803f 0000 803f
00000050: 0000 803f 0000 803f 0000 803f 0000 803f
00000060: 0000 803f 0000 803f 0000 803f 0000 803f
00000070: 0000 803f 0000 803f 0000 803f 0000 803f
00000080: 0000 803f 0000 803f 0000 803f 0000 803f
00000090: 0000 803f 0000 803f 0000 803f 0000 803f
000000a0: 0000 803f 0000 803f 0000 803f 0000 803f
000000b0: 0000 803f 0000 803f 0000 803f 0000 803f
000000c0: 0000 803f 0000 803f 0000 803f 0000 803f
000000d0: 0000 803f 0000 803f 0000 803f 0000 803f
000000e0: 0000 803f 0000 803f 0000 803f 0000 803f
000000f0: 0000 803f 0000 803f 0000 803f 0000 803f
1.0 1.0 1.0 1.0 1.0 1.0 1.0 1.0
1.0 1.0 1.0 1.0 1.0 1.0 1.0 1.0
1.0 1.0 1.0 1.0 1.0 1.0 1.0 1.0
1.0 1.0 1.0 1.0 1.0 1.0 1.0 1.0
1.0 1.0 1.0 1.0 1.0 1.0 1.0 1.0
1.0 1.0 1.0 1.0 1.0 1.0 1.0 1.0
1.0 1.0 1.0 1.0 1.0 1.0 1.0 1.0
1.0 1.0 1.0 1.0 1.0 1.0 1.0 1.0
