Code_darts/Search/operator_pt/wisdm/DepthConv-60x3-60x64-7-1-1.pt (torch, 16059 bytes, 5 tensors)

weight f4 [64, 3, 7]
000000 67 49 35 3e 7e 8d 8a 3d 7c cb 68 3d 8e 07 b3 3d
       0.17703782 0.06765269 0.056834683 0.08741675
000010 3a 40 94 bd e4 41 37 3d 12 3a 1e be ba 17 8d bd
       -0.07238813 0.044740573 -0.1545184 -0.06889291
000020 22 4a 0f be 24 9e 5e 3d 60 ba 8e 3b 49 fe ed bd
       -0.13993123 0.054350033 0.0043557137 -0.11620767
000030 3d e6 15 3e 0e f5 9a bd 38 9d 7d bd 40 d2 1e bd
       0.1463861 -0.07566272 -0.061917514 -0.03877473
000040 eb 7e 0b 3e 43 a8 1b 3e 2d 94 1d be 4f 00 d2 bd
       0.13622634 0.15200906 -0.15388556 -0.10253965
000050 e0 39 18 be 3a cc 48 be 8a 09 b5 3d f4 e7 fc bd
       -0.14865828 -0.19609156 0.0883971 -0.12348929
000060 3e 3a 90 3d b0 8d 4e bd f8 13 7e bd dd c0 34 3e
       0.07042359 -0.050428092 -0.062030762 0.17651697
000070 22 e7 b8 3d 90 e8 06 be 50 d1 60 bc 2a 44 c1 3d
       0.0902846 -0.13174653 -0.013721779 0.094368294
000080 12 aa 96 3d d2 ab 5c be 9b 72 fd bd 10 1e 91 3c
       0.07356657 -0.21549919 -0.12375375 0.01771453
000090 ba 16 af 3d 5d c8 10 be 2c a1 4a bd 15 c8 5e 3e
       0.085492566 -0.14138933 -0.04947011 0.21756013
0000a0 96 03 90 bd 59 fc 55 3e a6 0b d9 bd 6e c7 84 bd
       -0.07031934 0.20897044 -0.10597925 -0.06483351
0000b0 dc 2e 19 3d 19 2d 29 be 1a fc c7 bd 2a 91 84 bd
       0.037398204 -0.1652111 -0.097648814 -0.06473
0000c0 f0 a5 bd bc 98 a9 31 be 59 64 5a 3e 0e 4a 08 be
       -0.023150414 -0.17349851 0.21327342 -0.133095
0000d0 b0 6d 8d bc b8 85 74 bd 86 74 81 3d c5 d8 50 3e
       -0.017264217 -0.059697837 0.06321053 0.20395191
0000e0 71 3e 10 3e e4 5a 10 be c0 b6 8b bb 7d e2 1f be
       0.1408632 -0.14097172 -0.004263729 -0.15613742
0000f0 6c 05 4c bd ae 7b d0 3d c9 55 58 3e 5c c9 0e bd
       -0.04980986 0.1017984 0.21126474 -0.03486
000100 d2 90 aa 3d 70 fd 80 bc 7f 4f 46 3e e4 f3 5f 3d
       0.083284035 -0.015745848 0.19366263 0.05467595
000110 3e b8 2f be a6 6a 11 be 2e bb f9 3d 31 b3 2d 3e
       -0.17160127 -0.1420084 0.12193905 0.16962887
000120 68 d6 fb bc ce c4 ab 3d 67 f5 3e 3e 78 05 7a bd
       -0.030741885 0.08387147 0.18648301 -0.06104037
000130 c8 05 e6 bc 18 e5 e1 bc 0c c4 08 bd af a7 02 3e
       -0.028078929 -0.02757506 -0.03339009 0.12759279
000140 6f e5 40 be 64 cd 40 be 9e e5 ce 3d 09 b3 2f 3e
       -0.18837522 -0.1882835 0.1010239 0.1715814
000150 76 dc 2a be c7 fd 54 3e b5 42 3d 3e 2b f5 07 3e
       -0.16685662 0.20799933 0.18482478 0.13277118
000160 e4 f2 51 be aa de dc 3d a7 e8 22 be 90 e0 12 3c
       -0.20502812 0.10784657 -0.15909062 0.008964673
000170 1b 3b 52 3e 44 ed ce bd 08 3a 3b bd 8a dc fe 3d
       0.2053036 -0.101038486 -0.04570964 0.12444408
000180 78 cb e4 bd 59 17 20 3e 4c 03 5a 3d 1e bb d0 3d
       -0.11171621 0.15633906 0.0532258 0.1019194
000190 61 0a 3f 3e 06 8b fb 3d 02 67 a8 3d 48 30 83 3c
       0.18656303 0.12282376 0.08222772 0.016014233
0001a0 b7 68 0b 3e 7c 63 60 3d 53 20 f3 bd 7f 6d 45 3e
       0.13614164 0.054782376 -0.118714 0.1928005
0001b0 e0 c0 ec bd d8 72 fd bc 7c dc c8 bd 18 4d 9b bd
       -0.115602255 -0.03093855 -0.09807679 -0.07583064
0001c0 6b 4b 12 3e 6a 50 e0 3d 3d a3 23 3e 02 e3 e3 3d
       0.14286582 0.10952838 0.15980239 0.11127283
0001d0 b4 81 72 3d 76 b4 a7 3d 50 8c 87 3c 8e b1 f3 3d
       0.059205726 0.08188717 0.016546398 0.118991
0001e0 f9 84 07 3e 7c 7e 12 be 5e 13 c0 3d bc 1e 7e 3d
       0.13234319 -0.14306062 0.09378694 0.06204103
0001f0 b5 7b 3f 3e ef 23 4d 3e 03 cb 0d 3e cd e6 39 3e
       0.18699534 0.20033239 0.13846974 0.1815445
000200 1f 83 21 be 00 c2 29 3b 3e a4 b6 3d d4 d0 6b bd
       -0.15772675 0.0025902987 0.089180455 -0.0575722
000210 c0 94 2b bd f6 a0 fc 3d b0 ed 03 be a3 10 4d 3e
       -0.041889906 0.12335388 -0.1288364 0.20025878
000220 48 f0 df 3c 98 e1 e0 bc cb 94 54 3e ec 80 6c 3d
       0.027336255 -0.027451321 0.20759885 0.057740137
000230 24 c3 08 3d 78 0a 81 bd fc 36 15 3d e4 2f 74 bd
       0.033389226 -0.06300825 0.03642939 -0.059615985
000240 14 74 7e 3d 93 d5 13 3e 29 e2 1e 3e 62 6c 04 be
       0.06212242 0.14436941 0.15515961 -0.1293197
000250 16 2f 26 be be f4 92 3d 66 18 ce 3d 7c ae 15 be
       -0.162289 0.07175587 0.100632474 -0.14617342
000260 c6 46 fb 3d d2 48 d3 3d cf a8 1f 3e 62 e8 d3 3d
       0.12269358 0.10316624 0.15591739 0.10347058
000270 a8 6c 9e bc 2f 33 cd bd ad 21 1f 3e 1a 61 af bd
       -0.01933892 -0.10019528 0.1554019 -0.085634425
000280 f3 c6 06 3e 7a 2b 0a be 4a 66 92 3d 80 58 bb bd
       0.1316183 -0.13493147 0.07148416 -0.091477394
000290 47 d0 4c be 90 a5 2f bc 0e 55 e5 3d 36 40 f3 3d
       -0.20001327 -0.0107206255 0.111978635 0.11877482
0002a0 7e d6 4d be c0 a4 70 3c 40 cc f6 bc 3a d9 c7 3d
       -0.20101354 0.014687717 -0.03012669 0.097582296
0002b0 06 3a d4 bd fc ed 4e be 19 e4 51 3e a4 15 19 3d
       -0.103626296 -0.20207971 0.20497169 0.037374154
0002c0 ee a1 3c be e8 37 98 bd aa fc b2 3d 9e e9 0e be
       -0.18421146 -0.07432538 0.08739598 -0.13956305
0002d0 80 a7 d4 3b d4 2d 67 3d e0 d0 ff bb dd 13 2b 3e
       0.006489694 0.05644019 -0.0078068823 0.16706796
0002e0 fb 99 5c be 60 0f 51 bc 5c d6 6d bd 39 43 0a 3e
       -0.21543114 -0.012760013 -0.058065757 0.13502206
0002f0 26 ad 47 be 03 fd 20 3e c7 39 e1 bd ea f5 a7 3d
       -0.19499645 0.15721516 -0.10997348 0.08201201
000300 d3 57 26 3e c0 e0 fc bc 70 36 07 bd c6 a3 8e 3d
       0.1624444 -0.030868888 -0.0330109 0.06964831
000310 d8 5d bc 3c 4e 32 b5 bd a0 29 85 bc cb 1d 21 3e
       0.022993967 -0.088474855 -0.0162552 0.15734021
000320 00 09 55 3c 92 d1 40 be 72 0f dc bd f6 60 19 be
       0.013002634 -0.18829945 -0.107451335 -0.14978394
000330 41 21 08 3e 00 ab 74 3c 52 66 c3 bd c0 34 5a bd
       0.13293935 0.014933348 -0.095410004 -0.053272963
000340 3e 2e a0 bd 60 ea 5b 3c 78 97 9b bc 30 c5 5a 3c
       -0.0782132 0.013422579 -0.018993124 0.013352677
000350 95 ae 58 3e b8 93 e6 bc 61 2c 0b 3e 7a 84 4b be
       0.21160348 -0.02814661 0.13591148 -0.19874755
000360 90 40 ec bc 60 83 eb 3c 16 4b ab 3d 9d f6 59 3e
       -0.02883938 0.028749168 0.08363931 0.21285482
000370 38 5f da bc 00 c6 57 be 05 3d 27 3e ed fc 10 3e
       -0.026656732 -0.21071625 0.16331871 0.14158984
000380 70 14 cf bc 36 e0 8e bd eb f0 52 be c6 4f 32 be
       -0.0252783 -0.069763586 -0.20599715 -0.17413244
000390 2c ab 1f 3d e5 99 14 3e 44 da 28 3d b9 a6 30 3e
       0.0389816 0.14511831 0.04122378 0.172511
0003a0 e8 b3 22 be 5e 0e 17 be ed 1f 5f be 34 b4 57 bd
       -0.15888941 -0.14751574 -0.21789522 -0.05266209
0003b0 38 4a af bc ca 96 e3 3d dc 1f 31 3d 88 dd 3d be
       -0.021397695 0.11112745 0.043243274 -0.18541539
0003c0 7e e0 2a be 9a 50 ce bd 86 f9 ae 3d c8 6e 7a bd
       -0.166872 -0.10073967 0.085436866 -0.061140805
0003d0 66 27 e4 bd ba 5d d0 3d 24 04 9a bd f7 43 37 3e
       -0.11140327 0.10174127 -0.07520321 0.1789702
0003e0 48 43 ba bd 03 0a 5e 3e 9d af 30 be 66 30 9a 3d
       -0.09094864 0.21683507 -0.17254491 0.075287625
0003f0 6f d6 53 be 1e d1 99 3d 26 36 98 3d 05 de 52 3e
       -0.20687269 0.07510589 0.07432203 0.20592506

weight f4 [64]
000000 00 00 80 3f 00 00 80 3f 00 00 80 3f 00 00 80 3f
       1.0 1.0 1.0 1.0
000010 00 00 80 3f 00 00 80 3f 00 00 80 3f 00 00 80 3f
       1.0 1.0 1.0 1.0
000020 00 00 80 3f 00 00 80 3f 00 00 80 3f 00 00 80 3f
       1.0 1.0 1.0 1.0
000030 00 00 80 3f 00 00 80 3f 00 00 80 3f 00 00 80 3f
       1.0 1.0 1.0 1.0
000040 00 00 80 3f 00 00 80 3f 00 00 80 3f 00 00 80 3f
       1.0 1.0 1.0 1.0
000050 00 00 80 3f 00 00 80 3f 00 00 80 3f 00 00 80 3f
       1.0 1.0 1.0 1.0
000060 00 00 80 3f 00 00 80 3f 00 00 80 3f 00 00 80 3f
       1.0 1.0 1.0 1.0
000070 00 00 80 3f 00 00 80 3f 00 00 80 3f 00 00 80 3f
       1.0 1.0 1.0 1.0
000080 00 00 80 3f 00 00 80 3f 00 00 80 3f 00 00 80 3f
       1.0 1.0 1.0 1.0
000090 00 00 80 3f 00 00 80 3f 00 00 80 3f 00 00 80 3f
       1.0 1.0 1.0 1.0
0000a0 00 00 80 3f 00 00 80 3f 00 00 80 3f 00 00 80 3f
       1.0 1.0 1.0 1.0
0000b0 00 00 80 3f 00 00 80 3f 00 00 80 3f 00 00 80 3f
       1.0 1.0 1.0 1.0
0000c0 00 00 80 3f 00 00 80 3f 00 00 80 3f 00 00 80 3f
       1.0 1.0 1.0 1.0
0000d0 00 00 80 3f 00 00 80 3f 00 00 80 3f 00 00 80 3f
       1.0 1.0 1.0 1.0
0000e0 00 00 80 3f 00 00 80 3f 00 00 80 3f 00 00 80 3f
       1.0 1.0 1.0 1.0
0000f0 00 00 80 3f 00 00 80 3f 00 00 80 3f 00 00 80 3f
       1.0 1.0 1.0 1.0

bias f4 [64]
000000 00 00 00 00 00 00 00 00 00 00 00 00 00 00 00 00
       0.0 0.0 0.0 0.0
000010 00 00 00 00 00 00 00 00 00 00 00 00 00 00 00 00
       0.0 0.0 0.0 0.0
000020 00 00 00 00 00 00 00 00 00 00 00 00 00 00 00 00
       0.0 0.0 0.0 0.0
000030 00 00 00 00 00 00 00 00 00 00 00 00 00 00 00 00
       0.0 0.0 0.0 0.0
000040 00 00 00 00 00 00 00 00 00 00 00 00 00 00 00 00
       0.0 0.0 0.0 0.0
000050 00 00 00 00 00 00 00 00 00 00 00 00 00 00 00 00
       0.0 0.0 0.0 0.0
000060 00 00 00 00 00 00 00 00 00 00 00 00 00 00 00 00
       0.0 0.0 0.0 0.0
000070 00 00 00 00 00 00 00 00 00 00 00 00 00 00 00 00
       0.0 0.0 0.0 0.0
000080 00 00 00 00 00 00 00 00 00 00 00 00 00 00 00 00
       0.0 0.0 0.0 0.0
000090 00 00 00 00 00 00 00 00 00 00 00 00 00 00 00 00
       0.0 0.0 0.0 0.0
0000a0 00 00 00 00 00 00 00 00 00 00 00 00 00 00 00 00
       0.0 0.0 0.0 0.0
0000b0 00 00 00 00 00 00 00 00 00 00 00 00 00 00 00 00
       0.0 0.0 0.0 0.0
0000c0 00 00 00 00 00 00 00 00 00 00 00 00 00 00 00 00
       0.0 0.0 0.0 0.0
0000d0 00 00 00 00 00 00 00 00 00 00 00 00 00 00 00 00
       0.0 0.0 0.0 0.0
0000e0 00 00 00 00 00 00 00 00 00 00 00 00 00 00 00 00
       0.0 0.0 0.0 0.0
0000f0 00 00 00 00 00 00 00 00 00 00 00 00 00 00 00 00
       0.0 0.0 0.0 0.0

running_mean f4 [64]
000000 00 00 00 00 00 00 00 00 00 00 00 00 00 00 00 00
       0.0 0.0 0.0 0.0
000010 00 00 00 00 00 00 00 00 00 00 00 00 00 00 00 00
       0.0 0.0 0.0 0.0
000020 00 00 00 00 00 00 00 00 00 00 00 00 00 00 00 00
       0.0 0.0 0.0 0.0
000030 00 00 00 00 00 00 00 00 00 00 00 00 00 00 00 00
       0.0 0.0 0.0 0.0
000040 00 00 00 00 00 00 00 00 00 00 00 00 00 00 00 00
       0.0 0.0 0.0 0.0
000050 00 00 00 00 00 00 00 00 00 00 00 00 00 00 00 00
       0.0 0.0 0.0 0.0
000060 00 00 00 00 00 00 00 00 00 00 00 00 00 00 00 00
       0.0 0.0 0.0 0.0
000070 00 00 00 00 00 00 00 00 00 00 00 00 00 00 00 00
       0.0 0.0 0.0 0.0
000080 00 00 00 00 00 00 00 00 00 00 00 00 00 00 00 00
       0.0 0.0 0.0 0.0
000090 00 00 00 00 00 00 00 00 00 00 00 00 00 00 00 00
       0.0 0.0 0.0 0.0
0000a0 00 00 00 00 00 00 00 00 00 00 00 00 00 00 00 00
       0.0 0.0 0.0 0.0
0000b0 00 00 00 00 00 00 00 00 00 00 00 00 00 00 00 00
       0.0 0.0 0.0 0.0
0000c0 00 00 00 00 00 00 00 00 00 00 00 00 00 00 00 00
       0.0 0.0 0.0 0.0
0000d0 00 00 00 00 00 00 00 00 00 00 00 00 00 00 00 00
       0.0 0.0 0.0 0.0
0000e0 00 00 00 00 00 00 00 00 00 00 00 00 00 00 00 00
       0.0 0.0 0.0 0.0
0000f0 00 00 00 00 00 00 00 00 00 00 00 00 00 00 00 00
       0.0 0.0 0.0 0.0

running_var f4 [64]
000000 00 00 80 3f 00 00 80 3f 00 00 80 3f 00 00 80 3f
       1.0 1.0 1.0 1.0
000010 00 00 80 3f 00 00 80 3f 00 00 80 3f 00 00 80 3f
       1.0 1.0 1.0 1.0
000020 00 00 80 3f 00 00 80 3f 00 00 80 3f 00 00 80 3f
       1.0 1.0 1.0 1.0
000030 00 00 80 3f 00 00 80 3f 00 00 80 3f 00 00 80 3f
       1.0 1.0 1.0 1.0
000040 00 00 80 3f 00 00 80 3f 00 00 80 3f 00 00 80 3f
       1.0 1.0 1.0 1.0
000050 00 00 80 3f 00 00 80 3f 00 00 80 3f 00 00 80 3f
       1.0 1.0 1.0 1.0
000060 00 00 80 3f 00 00 80 3f 00 00 80 3f 00 00 80 3f
       1.0 1.0 1.0 1.0
000070 00 00 80 3f 00 00 80 3f 00 00 80 3f 00 00 80 3f
       1.0 1.0 1.0 1.0
000080 00 00 80 3f 00 00 80 3f 00 00 80 3f 00 00 80 3f
       1.0 1.0 1.0 1.0
000090 00 00 80 3f 00 00 80 3f 00 00 80 3f 00 00 80 3f
       1.0 1.0 1.0 1.0
0000a0 00 00 80 3f 00 00 80 3f 00 00 80 3f 00 00 80 3f
       1.0 1.0 1.0 1.0
0000b0 00 00 80 3f 00 00 80 3f 00 00 80 3f 00 00 80 3f
       1.0 1.0 1.0 1.0
0000c0 00 00 80 3f 00 00 80 3f 00 00 80 3f 00 00 80 3f
       1.0 1.0 1.0 1.0
0000d0 00 00 80 3f 00 00 80 3f 00 00 80 3f 00 00 80 3f
       1.0 1.0 1.0 1.0
0000e0 00 00 80 3f 00 00 80 3f 00 00 80 3f 00 00 80 3f
       1.0 1.0 1.0 1.0
0000f0 00 00 80 3f 00 00 80 3f 00 00 80 3f 00 00 80 3f
       1.0 1.0 1.0 1.0
