Code_darts/Search/operator_pt/wisdm/DilatedConv-60x3-60x64-7-1-2.pt (torch, 16093 bytes, 5 tensors)

weight f4 [64, 3, 7]
00000000: 32a7 8c3d 3084 c7bc e73b f8bd f476 6abd
00000010: 1dcb 483e bd16 2d3e 25ad 41be ee27 b3bd
00000020: 1f4c 363e 7f89 363e 0002 973c 0831 ffbc
00000030: 34f8 35be e78e 533e d4ea 40be 46de 3ebe
00000040: 89a5 073e 3d71 3ebe a298 aebd b8a3 ff3c
00000050: c934 15be 3bbe 243e 5427 243d 02cd bd3d
00000060: 0ab7 bb3d 4c04 8bbd 0ede 853d b0df 2cbd
00000070: b066 8fbd b555 5bbe f714 133e af8c 09be
00000080: ec50 54be ac43 7d3d b5f2 5bbe 5353 1bbe
00000090: a4dd 67bd be9f 19be 7a7b a23d ad2d 1f3e
000000a0: 26ef 8f3d 5405 7b3d 8706 523e b9a1 3fbe
000000b0: 0e7c fd3d 88b1 43bd 1256 853d 3b9a 193e
000000c0: b666 c23d c83a 04bd 0109 0f3e 28c4 28be
000000d0: 3bbf 2c3e 901d 14bd a06f 6abc 02e4 42be
000000e0: b998 383e 4401 483d e235 91bd f214 e13d
000000f0: 205c f9bb a0de 34bd f66c 5fbe a460 1fbe
00000100: b30e 2bbe 75d7 553e bb60 363e 1ed0 42be
00000110: ce1c e2bd e46c 4cbe 0a9f 12be 0f10 0f3e
00000120: aa71 f83d 34c8 4abd db8c 313e 8898 31bd
00000130: 25c8 143e 90a4 21be 54e7 d8bd dd0e 313e
00000140: ad27 203e a331 143e ba26 b33d 57e0 58be
00000150: 1c8b 5abd 876c 193e c059 81bb e71c 043e
00000160: 4abf e4bd 0e65 873d c0c3 62bd d162 183e
00000170: 2e08 8c3d 2469 23bd 60a5 1cbe 2641 b03d
00000180: 7eb3 2cbe 44b3 443d 4990 163e 6ca3 e6bd
00000190: 7a86 c53d bd1d 5c3e d127 493e d47f 543d
000001a0: f65d fb3d 31ab 033e cafa 9bbd f41b 163d
000001b0: 5881 1ebe 5844 5cbe 3c1c e6bd 0641 8cbd
000001c0: f4c9 b0bd 47a8 d0bd baf2 f43d 0be0 313e
000001d0: 5a22 863d 7cdc 4a3d c7f9 56be 5c6d 093d
000001e0: 79b0 193e 7ac7 b63d ed60 49be f513 5fbe
000001f0: 90eb 1ebc 4240 ab3d 5ccb 1b3d 20c5 fe3b
00000200: aafb 903d 1ef6 55be 4e4f 2fbe 2a13 ac3d
00000210: 0ea0 b93d eb7a 403e 644d 5abe 04fd 37be
00000220: 4095 32be 8b32 42be 0210 e43d 8b5f 563e
00000230: 5539 0b3e b442 54bd 18ae 91bd 6be7 353e
00000240: 3be2 463e a80b e33c 9540 493e 4aa5 913d
00000250: c239 e83d 61d5 0e3e fcbb 85bd f66b d73d
00000260: 5ef8 acbd 88df e03c b1d1 4f3e cdc1 1cbe
00000270: 97d1 3f3e 5f0f 133e aa17 d83d 5351 163e
00000280: 8e2f 94bd fa5c 0abe 517f 553e 4944 113e
00000290: bf72 203e 10b6 34be 66d8 d93d 2cfa 1abd
000002a0: f14d 5a3e 21e7 dbbd a0d7 e3bb 81b6 093e
000002b0: 3be5 0c3e 2c8a f4bd 00a7 123b 8360 1a3e
000002c0: 1d43 d2bd 9cc5 0a3d 5453 213d 4209 a83d
000002d0: d067 be3c d010 743c 80f0 bc3a 5b93 08be
000002e0: dda0 293e 6468 4fbe d794 243e d1bc efbd
000002f0: e15b 383e d4cd 5d3d 0fbf 25be c05a 23be
00000300: 2090 83bb de9b dc3d c02f 7e3b 8c43 3ebd
00000310: 7e31 eb3d d80b 39be 9e66 30be 04e1 89bd
00000320: acc9 06bd 093d 4d3e 7c3d 503d e6d2 b63d
00000330: fce6 14be 8cff 5c3d b046 60bd c939 17be
00000340: 770a 453e a648 00be 2cbc d5bd c5e4 4abe
00000350: 6742 283e 2707 3b3e 7e13 a83d 143e 9ebd
00000360: 721b a73d 5c3b 163d 9ed1 e53d 341e 5a3d
00000370: 6939 f2bd caca f73d 8083 df3c 5d64 083e
00000380: 409d 8a3b d099 b0bd 3ae8 fcbd 029c ab3d
00000390: 48f3 f9bc 09c4 16be 599f 46be 65f9 253e
000003a0: ce3b 843d 403d b6bd e302 283e 243e 133d
000003b0: b031 b7bc 0f55 313e cdea 4e3e 2c07 6e3d
000003c0: 99c9 19be 709a bcbd 55c6 4e3e 5ce9 8ebd
000003d0: b4d2 6f3d 7e86 ebbd 7423 6cbd dc8b 3bbd
000003e0: 3a5e e8bd 80be e63a 8c17 793d 175a 503e
000003f0: 4453 1abe d47a 36bd 082d c5bc bcd6 2f3d
0.068678275 -0.024355024 -0.121208005 -0.05724235 0.19608732 0.16903205 -0.18913706 -0.0874785
0.17802475 0.17825888 0.01843357 -0.03115131 -0.17770463 0.20659982 -0.1883958 -0.18639478
0.1324674 -0.18597884 -0.08525206 0.031205997 -0.14570917 0.16088192 0.04007657 0.09267618
0.09165771 -0.06787929 0.06536494 -0.042205513 -0.07002008 -0.21419413 0.14363466 -0.13432573
-0.20733994 0.061832115 -0.21479304 -0.15168504 -0.056607857 -0.15002343 0.079337075 0.15544768
0.07028036 0.06128438 0.20510302 -0.18714036 0.12377177 -0.04777673 0.06510557 0.1500024
0.09492247 -0.03228262 0.13968278 -0.16481078 0.16869824 -0.036161005 -0.01430884 -0.1903229
0.18027009 0.048829332 -0.070903555 0.10990323 -0.007609859 -0.044157624 -0.21818909 -0.15564209
-0.16704826 0.20882972 0.17810337 -0.19024703 -0.1104065 -0.19963413 -0.14318481 0.1397097
0.12131055 -0.049507335 0.17338888 -0.043358356 0.14529474 -0.15785432 -0.10590997 0.17290826
0.15640135 0.1447206 0.08747621 -0.21179329 -0.05335532 0.14982806 -0.0039474666 0.1290165
-0.11169298 0.066110715 -0.055362463 0.14881445 0.06837498 -0.03989519 -0.1529746 0.08606176
-0.16865346 0.048022524 0.14703478 -0.11261639 0.0964479 0.21495719 0.19644095 0.05187972
0.12273781 0.12858273 -0.076161936 0.036647752 -0.15479028 -0.21510446 -0.11235854 -0.0684834
-0.086322695 -0.10188346 0.11960359 0.17370622 0.06549521 0.049526677 -0.2099372 0.03355156
0.15008725 0.08924766 -0.1966588 -0.21784957 -0.009699717 0.083618656 0.038035735 0.007774964
0.07079251 -0.20894668 -0.17120096 0.08402093 0.09063731 0.1879689 -0.21318585 -0.17967612
-0.17439747 -0.18964593 0.11135866 0.20934884 0.13596089 -0.051821426 -0.07113284 0.1776406
0.19422238 0.02771552 0.19653542 0.071116045 0.113391414 0.13948585 -0.06529996 0.10518639
-0.0844581 0.027450338 0.20294835 -0.15308304 0.18732296 0.14361332 0.105513886 0.1467946
-0.07235633 -0.1351203 0.20849349 0.14186205 0.15668772 -0.17647576 0.10636978 -0.03783624
0.21318795 -0.10737444 -0.0069531947 0.13448526 0.1375932 -0.11940417 0.0022377372 0.15075879
-0.10266707 0.03387986 0.03938611 0.08204891 0.023242861 0.014896587 0.0014414936 -0.13337462
0.1656527 -0.20254666 0.16072403 -0.11705936 0.18003799 0.05415137 -0.16186164 -0.15952587
-0.004014984 0.10771917 0.0038785785 -0.046451136 0.11484049 -0.18070924 -0.17226645 -0.067323714
-0.032907173 0.20042814 0.050839886 0.089269444 -0.14541239 0.053954646 -0.054754913 -0.14768137
0.19242273 -0.12527713 -0.104362816 -0.19813831 0.1643158 0.18264447 0.08206843 -0.07726684
0.08159532 0.036677703 0.11221622 0.05325146 -0.11827356 0.12099226 0.027284384 0.13319536
0.0042301714 -0.086230874 -0.12348981 0.083793655 -0.030511513 -0.14723219 -0.19396724 0.16208418
0.06456719 -0.08898401 0.16407351 0.035947934 -0.02236256 0.17317604 0.20206757 0.05811231
-0.1501831 -0.09209144 0.20192845 -0.069781035 0.05855055 -0.11500262 -0.057651 -0.045787677
-0.11346097 0.0017604381 0.06081347 0.20346867 -0.15070826 -0.04455073 -0.024069324 0.042929396

weight f4 [64]
00000000: 0000 803f 0000 803f 0000 803f 0000 803f
00000010: 0000 803f 0000 803f 0000 803f 0000 803f
00000020: 0000 803f 0000 803f 0000 803f 0000 803f
00000030: 0000 803f 0000 803f 0000 803f 0000 803f
00000040: 0000 803f 0000 803f 0000 803f 0000 803f
00000050: 0000 803f 0000 803f 0000 803f 0000 803f
00000060: 0000 803f 0000 803f 0000 803f 0000 803f
00000070: 0000 803f 0000 803f 0000 803f 0000 803f
00000080: 0000 803f 0000 803f 0000 803f 0000 803f
00000090: 0000 803f 0000 803f 0000 803f 0000 803f
000000a0: 0000 803f 0000 803f 0000 803f 0000 803f
000000b0: 0000 803f 0000 803f 0000 803f 0000 803f
000000c0: 0000 803f 0000 803f 0000 803f 0000 803f
000000d0: 0000 803f 0000 803f 0000 803f 0000 803f
000000e0: 0000 803f 0000 803f 0000 803f 0000 803f
000000f0: 0000 803f 0000 803f 0000 803f 0000 803f
1.0 1.0 1.0 1.0 1.0 1.0 1.0 1.0
1.0 1.0 1.0 1.0 1.0 1.0 1.0 1.0
1.0 1.0 1.0 1.0 1.0 1.0 1.0 1.0
1.0 1.0 1.0 1.0 1.0 1.0 1.0 1.0
1.0 1.0 1.0 1.0 1.0 1.0 1.0 1.0
1.0 1.0 1.0 1.0 1.0 1.0 1.0 1.0
1.0 1.0 1.0 1.0 1.0 1.0 1.0 1.0
1.0 1.0 1.0 1.0 1.0 1.0 1.0 1.0

bias f4 [64]
00000000: 0000 0000 0000 0000 0000 0000 0000 0000
00000010: 0000 0000 0000 0000 0000 0000 0000 0000
00000020: 0000 0000 0000 0000 0000 0000 0000 0000
00000030: 0000 0000 0000 0000 0000 0000 0000 0000
00000040: 0000 0000 0000 0000 0000 0000 0000 0000
00000050: 0000 0000 0000 0000 0000 0000 0000 0000
00000060: 0000 0000 0000 0000 0000 0000 0000 0000
00000070: 0000 0000 0000 0000 0000 0000 0000 0000
00000080: 0000 0000 0000 0000 0000 0000 0000 0000
00000090: 0000 0000 0000 0000 0000 0000 0000 0000
000000a0: 0000 0000 0000 0000 0000 0000 0000 0000
000000b0: 0000 0000 0000 0000 0000 0000 0000 0000
000000c0: 0000 0000 0000 0000 0000 0000 0000 0000
000000d0: 0000 0000 0000 0000 0000 0000 0000 0000
000000e0: 0000 0000 0000 0000 0000 0000 0000 0000
000000f0: 0000 0000 0000 0000 0000 0000 0000 0000
0.0 0.0 0.0 0.0 0.0 0.0 0.0 0.0
0.0 0.0 0.0 0.0 0.0 0.0 0.0 0.0
0.0 0.0 0.0 0.0 0.0 0.0 0.0 0.0
0.0 0.0 0.0 0.0 0.0 0.0 0.0 0.0
0.0 0.0 0.0 0.0 0.0 0.0 0.0 0.0
0.0 0.0 0.0 0.0 0.0 0.0 0.0 0.0
0.0 0.0 0.0 0.0 0.0 0.0 0.0 0.0
0.0 0.0 0.0 0.0 0.0 0.0 0.0 0.0

running_mean f4 [64]
00000000: 0000 0000 0000 0000 0000 0000 0000 0000
00000010: 0000 0000 0000 0000 0000 0000 0000 0000
00000020: 0000 0000 0000 0000 0000 0000 0000 0000
00000030: 0000 0000 0000 0000 0000 0000 0000 0000
00000040: 0000 0000 0000 0000 0000 0000 0000 0000
00000050: 0000 0000 0000 0000 0000 0000 0000 0000
00000060: 0000 0000 0000 0000 0000 0000 0000 0000
00000070: 0000 0000 0000 0000 0000 0000 0000 0000
00000080: 0000 0000 0000 0000 0000 0000 0000 0000
00000090: 0000 0000 0000 0000 0000 0000 0000 0000
000000a0: 0000 0000 0000 0000 0000 0000 0000 0000
000000b0: 0000 0000 0000 0000 0000 0000 0000 0000
000000c0: 0000 0000 0000 0000 0000 0000 0000 0000
000000d0: 0000 0000 0000 0000 0000 0000 0000 0000
000000e0: 0000 0000 0000 0000 0000 0000 0000 0000
000000f0: 0000 0000 0000 0000 0000 0000 0000 0000
0.0 0.0 0.0 0.0 0.0 0.0 0.0 0.0
0.0 0.0 0.0 0.0 0.0 0.0 0.0 0.0
0.0 0.0 0.0 0.0 0.0 0.0 0.0 0.0
0.0 0.0 0.0 0.0 0.0 0.0 0.0 0.0
0.0 0.0 0.0 0.0 0.0 0.0 0.0 0.0
0.0 0.0 0.0 0.0 0.0 0.0 0.0 0.0
0.0 0.0 0.0 0.0 0.0 0.0 0.0 0.0
0.0 0.0 0.0 0.0 0.0 0.0 0.0 0.0

running_var f4 [64]
00000000: 0000 803f 0000 803f 0000 803f 0000 803f
00000010: 0000 803f 0000 803f 0000 803f 0000 803f
00000020: 0000 803f 0000 803f 0000 803f 0000 803f
00000030: 0000 803f 0000 803f 0000 803f 0000 803f
00000040: 0000 803f 0000 803f 0000 803f 0000 803f
00000050: 0000 803f 0000 803f 0000 803f 0000 803f
00000060: 0000 803f 0000 803f 0000 803f 0000 803f
00000070: 0000 803f 0000 803f 0000 803f 0000 803f
00000080: 0000 803f 0000 803f 0000 803f 0000 803f
00000090: 0000 803f 0000 803f 0000 803f 0000 803f
000000a0: 0000 803f 0000 803f 0000 803f 0000 803f
000000b0: 0000 803f 0000 803f 0000 803f 0000 803f
000000c0: 0000 803f 0000 803f 0000 803f 0000 803f
000000d0: 0000 803f 0000 803f 0000 803f 0000 803f
000000e0: 0000 803f 0000 803f 0000 803f 0000 803f
000000f0: 0000 803f 0000 803f 0000 803f 0000 803f
1.0 1.0 1.0 1.0 1.0 1.0 1.0 1.0
1.0 1.0 1.0 1.0 1.0 1.0 1.0 1.0
1.0 1.0 1.0 1.0 1.0 1.0 1.0 1.0
1.0 1.0 1.0 1.0 1.0 1.0 1.0 1.0
1.0 1.0 1.0 1.0 1.0 1.0 1.0 1.0
1.0 1.0 1.0 1.0 1.0 1.0 1.0 1.0
1.0 1.0 1.0 1.0 1.0 1.0 1.0 1.0
1.0 1.0 1.0 1.0 1.0 1.0 1.0 1.0
