Code_darts/Search/operator_pt/wisdm/DilatedConv-60x3-60x64-9-1-2.pt (torch, 17697 bytes, 5 tensors)

weight f4 [64, 3, 9]
0	0x3dfe08a2	0.1240399
1	0x3e1c0ded	0.15239687
2	0xbe1b44f4	-0.15163022
3	0x3d950826	0.07276945
4	0xbd17c898	-0.037056535
5	0xbd9c543a	-0.076332524
6	0x3de43102	0.1114216
7	0xbe00efcd	-0.12591477
8	0x3db587c6	0.08863787
9	0xbdc6818e	-0.09692679
10	0xbe070a62	-0.13187554
11	0x3d4b0e24	0.049574032
12	0xbe245878	-0.16049373
13	0x3d95a40a	0.073066786
14	0x3e1759cf	0.14780353
15	0x3df1025a	0.11768027
16	0xbda4b7fe	-0.08042906
17	0xbc93b340	-0.018029809
18	0x3d44b990	0.04802853
19	0x3df7fe7a	0.121090844
20	0x3e1c567b	0.15267365
21	0x3e228e97	0.15874706
22	0x3e0300cd	0.12793274
23	0x3d851c36	0.064995214
24	0xbccf0d18	-0.025274798
25	0x3c96f2e8	0.018426374
26	0x3dfcdfca	0.12347372
27	0xbe145802	-0.14486697
28	0x3e2db3d7	0.16963135
29	0x3e20340b	0.15644853
30	0x3e2f41b1	0.17114903
31	0xbd6acc28	-0.057323605
32	0x3e229633	0.15877609
33	0xbd7ecfd4	-0.06220992
34	0xbe2f0aaa	-0.17093912
35	0xbe052c96	-0.1300529
36	0x3e13b17f	0.14423178
37	0x3d9dd7fe	0.07707213
38	0x3d37dc94	0.044888094
39	0xbcd09300	-0.02546072
40	0x3e0d5f23	0.13805823
41	0xbe2ee239	-0.17078485
42	0xbe0b3b6c	-0.13596886
43	0x3d50647c	0.05087708
44	0xbdc98949	-0.09840638
45	0xbdec01c2	-0.11523773
46	0xbe3f70b1	-0.18695332
47	0x3e1f572d	0.15560599
48	0x39c3c200	0.0003733784
49	0x3c32af40	0.010906041
50	0x3ca40f00	0.020026684
51	0xbd969a8d	-0.07353697
52	0xbde1cc55	-0.11025301
53	0xbc8a8f40	-0.01691401
54	0x3ddd9512	0.108194485
55	0xbc352770	-0.011056766
56	0x3da2ffce	0.07958947
57	0xbe2919f2	-0.16513804
58	0xbde36566	-0.111033246
59	0xbcfd8cd0	-0.030950934
60	0x3e1a3175	0.15057929
61	0x3d5c7c70	0.05382961
62	0x3c873ac0	0.016507506
63	0x3c54fff0	0.013000473
64	0x3d6960b8	0.056977004
65	0xbd9782bd	-0.07397983
66	0x3d8ffb3e	0.070303425
67	0x3d027d88	0.031857997
68	0xbe18bada	-0.14915028
69	0xbe3ed8ef	-0.18637441
70	0x3cf27a00	0.02959919
71	0xbe3d67d3	-0.18496637
72	0xbd22ecfc	-0.039776787
73	0xbd1e056c	-0.03857939
74	0xbe255a8f	-0.16147827
75	0x3de0d9f6	0.10979073
76	0xbe1fd8ca	-0.15610042
77	0xbe2cd4fc	-0.16878122
78	0xbd3be08c	-0.04586844
79	0x3e2ed165	0.17072065
80	0x3d985d62	0.07439686
81	0x3e0b9fdb	0.13635199
82	0xbe2e38e7	-0.17013894
83	0xbd784f7c	-0.060622677
84	0xbe2b4d0a	-0.16728607
85	0xbd925c81	-0.0714655
86	0x3d1d12f4	0.038348153
87	0xbd9340a5	-0.07190064
88	0xbcd17bb8	-0.025571689
89	0xbe243469	-0.16035618
90	0x3d4ef65c	0.050527915
91	0xbd174a70	-0.036936224
92	0xbe39f9ea	-0.18161741
93	0xbd6c2d7c	-0.057660565
94	0x3dcd06be	0.100110516
95	0x3d9c81de	0.07641958
96	0xbda559fd	-0.080738045
97	0xbd83b682	-0.06431295
98	0xbe172635	-0.14760669
99	0x3dd9f802	0.10643007
100	0xbe147c7c	-0.14500612
101	0x3ddce226	0.10785322
102	0x3de6ab72	0.11263169
103	0xbd67bdb4	-0.0565774
104	0xbe110141	-0.14160635
105	0xbd86e54a	-0.06586702
106	0xbd724b80	-0.059154034
107	0x3d59e268	0.053194433
108	0xbe031bcc	-0.12803572
109	0xbdca8123	-0.09887912
110	0x3d19a728	0.03751293
111	0xbdd43e28	-0.10363418
112	0xbdc28a05	-0.094989814
113	0xbc367a10	-0.0111375
114	0xbd02f8e4	-0.03197564
115	0xbe3c6ec4	-0.18401629
116	0x3cb1ba00	0.021695137
117	0xbe2ffecc	-0.17187041
118	0x3df5f29a	0.12009163
119	0xbe08eb58	-0.13371027
120	0x3caceb48	0.021108285
121	0xbd6e78e0	-0.058220744
122	0xbdcf7729	-0.1013015
123	0x3e088dd7	0.13335358
124	0xbced24a0	-0.028948128
125	0x3c92f890	0.01794079
126	0x3e298603	0.16555028
127	0xbde30b58	-0.11086148
128	0x3dfe532e	0.12418209
129	0xbdf150f9	-0.117830224
130	0x3e30433b	0.17213146
131	0xbb764c80	-0.0037582219
132	0xbe12e0d4	-0.14343578
133	0x3da89c72	0.082329646
134	0x3e3ed0bf	0.18634318
135	0xbe156204	-0.14588171
136	0x3dd01942	0.101610675
137	0x3ce6eac0	0.02818811
138	0xbd870802	-0.06593324
139	0xbd92e0bb	-0.0717177
140	0xbdadb89b	-0.08482476
141	0xbc806980	-0.015675306
142	0xbe30a694	-0.17251045
143	0x3d90212e	0.070375785
144	0x3c0ee4a0	0.008721501
145	0xbe2c125c	-0.16803879
146	0x3b85c340	0.0040821135
147	0x3dde0046	0.10839896
148	0xbe044d48	-0.12920105
149	0x3e071615	0.13192017
150	0xbcb1bec0	-0.021697402
151	0xbdf16c50	-0.11788237
152	0xbdaf1447	-0.085487895
153	0xbdf17fa1	-0.117919214
154	0x3da49922	0.0803702
155	0xbdd39573	-0.103312396
156	0xbe340b62	-0.17582467
157	0xbe1a3e38	-0.15062797
158	0x3e1c7509	0.1527902
159	0x3b6c9b00	0.003610313
160	0xbd7c25f4	-0.061559632
161	0x3d4b098c	0.04956965
162	0x3c981780	0.018565893
163	0xbc0c9630	-0.008580729
164	0xbe1c20f0	-0.1524694
165	0xbc21cd20	-0.009875566
166	0xbd078ba0	-0.03309214
167	0xbe414407	-0.18873607
168	0xbda57e06	-0.08080678
169	0xbddf86aa	-0.10914357
170	0x3da59656	0.08085315
171	0xbc7be3c0	-0.015374124
172	0xbd802384	-0.06256774
173	0x3e0afd97	0.135733
174	0x3e37c22b	0.17945163
175	0xbc863668	-0.016383365
176	0xbdec429a	-0.11536141
177	0x3d339c6c	0.043850347
178	0x3d0dcc78	0.034618825
179	0xbd7d3cfc	-0.061825737
180	0xbd8b9821	-0.06816126
181	0x3e2f5755	0.17123158
182	0xbdaecd16	-0.08535211
183	0x3e3a8b41	0.18217184
184	0x3cef6fe0	0.02922815
185	0xbe268d6f	-0.1626489
186	0xbdd9feb7	-0.10644286
187	0xbd975af0	-0.07390392
188	0x3dedb32a	0.116064385
189	0x3d331390	0.043719828
190	0xbdb67cc1	-0.08910514
191	0x3df65bd6	0.12029235
192	0xbda8bc7b	-0.08239075
193	0xbd2e1718	-0.042502493
194	0x3e151945	0.14560421
195	0xbd9dd6d8	-0.07706994
196	0xbc55f500	-0.013058901
197	0x3c2b9c30	0.01047425
198	0x3d73e314	0.05954273
199	0xbe13c0c0	-0.14428997
200	0x3e084af7	0.13309847
201	0x3cf8d828	0.030376509
202	0xbe042e84	-0.1290837
203	0xbd8d8faa	-0.06912167
204	0xbe0256bc	-0.12728399
205	0x3dac4ad6	0.08412711
206	0x3aef2e00	0.0018247962
207	0x3e25827d	0.16163059
208	0xbdd220fd	-0.10260198
209	0xbe212338	-0.15736091
210	0xbd5e3f28	-0.05425945
211	0x3d8ba62e	0.06818806
212	0x3e316bd9	0.17326297
213	0xbd80997c	-0.06279275
214	0x3d73b57c	0.05949925
215	0xbdbb3ede	-0.0914285
216	0xbd8faee7	-0.07015782
217	0x3e3feb87	0.1874219
218	0xbd558cc4	-0.052136198
219	0x3dc6daf6	0.09709732
220	0x3d253ca8	0.04034105
221	0x3dfb914a	0.12283571
222	0x3d2b71f4	0.04185672
223	0xbe18f179	-0.14935865
224	0xbd3bea0c	-0.0458775
225	0xbd2401f4	-0.040040925
226	0xbc6d26d0	-0.014474586
227	0x3d8754b2	0.06607951
228	0xbdda8a8d	-0.10670958
229	0x3db31646	0.08744483
230	0xbdbbe0e0	-0.09173751
231	0x3cf7f7f0	0.030269593
232	0xbd214dd4	-0.039380863
233	0x3dfdf8f6	0.12401001
234	0xbe0dce53	-0.13848238
235	0xbe29dca1	-0.1658807
236	0x3dc8f52a	0.09812386
237	0x3c6281b0	0.013824865
238	0xbe08980b	-0.1333925
239	0x3da171ba	0.0788302
240	0x3e43b0bb	0.19110386
241	0x3e1101c5	0.14160831
242	0xbe37135c	-0.17878479
243	0x3e230cad	0.15922804
244	0xbdd99efb	-0.10626026
245	0x3e291b97	0.16514431
246	0xbd53d6c0	-0.051718473
247	0x3dee23ae	0.11627899
248	0x3dbd39ba	0.09239526
249	0xbdd051ad	-0.101718284
250	0xbb118040	-0.0022201687
251	0xbddf53c0	-0.10904646
252	0x3d4721f4	0.048616365
253	0x3d6aa304	0.05728437
254	0x3dae8b0a	0.08522613
255	0xbdae1ca2	-0.08501555

weight f4 [64]
0	0x3f800000	1.0
1	0x3f800000	1.0
2	0x3f800000	1.0
3	0x3f800000	1.0
4	0x3f800000	1.0
5	0x3f800000	1.0
6	0x3f800000	1.0
7	0x3f800000	1.0
8	0x3f800000	1.0
9	0x3f800000	1.0
10	0x3f800000	1.0
11	0x3f800000	1.0
12	0x3f800000	1.0
13	0x3f800000	1.0
14	0x3f800000	1.0
15	0x3f800000	1.0
16	0x3f800000	1.0
17	0x3f800000	1.0
18	0x3f800000	1.0
19	0x3f800000	1.0
20	0x3f800000	1.0
21	0x3f800000	1.0
22	0x3f800000	1.0
23	0x3f800000	1.0
24	0x3f800000	1.0
25	0x3f800000	1.0
26	0x3f800000	1.0
27	0x3f800000	1.0
28	0x3f800000	1.0
29	0x3f800000	1.0
30	0x3f800000	1.0
31	0x3f800000	1.0
32	0x3f800000	1.0
33	0x3f800000	1.0
34	0x3f800000	1.0
35	0x3f800000	1.0
36	0x3f800000	1.0
37	0x3f800000	1.0
38	0x3f800000	1.0
39	0x3f800000	1.0
40	0x3f800000	1.0
41	0x3f800000	1.0
42	0x3f800000	1.0
43	0x3f800000	1.0
44	0x3f800000	1.0
45	0x3f800000	1.0
46	0x3f800000	1.0
47	0x3f800000	1.0
48	0x3f800000	1.0
49	0x3f800000	1.0
50	0x3f800000	1.0
51	0x3f800000	1.0
52	0x3f800000	1.0
53	0x3f800000	1.0
54	0x3f800000	1.0
55	0x3f800000	1.0
56	0x3f800000	1.0
57	0x3f800000	1.0
58	0x3f800000	1.0
59	0x3f800000	1.0
60	0x3f800000	1.0
61	0x3f800000	1.0
62	0x3f800000	1.0
63	0x3f800000	1.0

bias f4 [64]
0	0x00000000	0.0
1	0x00000000	0.0
2	0x00000000	0.0
3	0x00000000	0.0
4	0x00000000	0.0
5	0x00000000	0.0
6	0x00000000	0.0
7	0x00000000	0.0
8	0x00000000	0.0
9	0x00000000	0.0
10	0x00000000	0.0
11	0x00000000	0.0
12	0x00000000	0.0
13	0x00000000	0.0
14	0x00000000	0.0
15	0x00000000	0.0
16	0x00000000	0.0
17	0x00000000	0.0
18	0x00000000	0.0
19	0x00000000	0.0
20	0x00000000	0.0
21	0x00000000	0.0
22	0x00000000	0.0
23	0x00000000	0.0
24	0x00000000	0.0
25	0x00000000	0.0
26	0x00000000	0.0
27	0x00000000	0.0
28	0x00000000	0.0
29	0x00000000	0.0
30	0x00000000	0.0
31	0x00000000	0.0
32	0x00000000	0.0
33	0x00000000	0.0
34	0x00000000	0.0
35	0x00000000	0.0
36	0x00000000	0.0
37	0x00000000	0.0
38	0x00000000	0.0
39	0x00000000	0.0
40	0x00000000	0.0
41	0x00000000	0.0
42	0x00000000	0.0
43	0x00000000	0.0
44	0x00000000	0.0
45	0x00000000	0.0
46	0x00000000	0.0
47	0x00000000	0.0
48	0x00000000	0.0
49	0x00000000	0.0
50	0x00000000	0.0
51	0x00000000	0.0
52	0x00000000	0.0
53	0x00000000	0.0
54	0x00000000	0.0
55	0x00000000	0.0
56	0x00000000	0.0
57	0x00000000	0.0
58	0x00000000	0.0
59	0x00000000	0.0
60	0x00000000	0.0
61	0x00000000	0.0
62	0x00000000	0.0
63	0x00000000	0.0

running_mean f4 [64]
0	0x00000000	0.0
1	0x00000000	0.0
2	0x00000000	0.0
3	0x00000000	0.0
4	0x00000000	0.0
5	0x00000000	0.0
6	0x00000000	0.0
7	0x00000000	0.0
8	0x00000000	0.0
9	0x00000000	0.0
10	0x00000000	0.0
11	0x00000000	0.0
12	0x00000000	0.0
13	0x00000000	0.0
14	0x00000000	0.0
15	0x00000000	0.0
16	0x00000000	0.0
17	0x00000000	0.0
18	0x00000000	0.0
19	0x00000000	0.0
20	0x00000000	0.0
21	0x00000000	0.0
22	0x00000000	0.0
23	0x00000000	0.0
24	0x00000000	0.0
25	0x00000000	0.0
26	0x00000000	0.0
27	0x00000000	0.0
28	0x00000000	0.0
29	0x00000000	0.0
30	0x00000000	0.0
31	0x00000000	0.0
32	0x00000000	0.0
33	0x00000000	0.0
34	0x00000000	0.0
35	0x00000000	0.0
36	0x00000000	0.0
37	0x00000000	0.0
38	0x00000000	0.0
39	0x00000000	0.0
40	0x00000000	0.0
41	0x00000000	0.0
42	0x00000000	0.0
43	0x00000000	0.0
44	0x00000000	0.0
45	0x00000000	0.0
46	0x00000000	0.0
47	0x00000000	0.0
48	0x00000000	0.0
49	0x00000000	0.0
50	0x00000000	0.0
51	0x00000000	0.0
52	0x00000000	0.0
53	0x00000000	0.0
54	0x00000000	0.0
55	0x00000000	0.0
56	0x00000000	0.0
57	0x00000000	0.0
58	0x00000000	0.0
59	0x00000000	0.0
60	0x00000000	0.0
61	0x00000000	0.0
62	0x00000000	0.0
63	0x00000000	0.0

running_var f4 [64]
0	0x3f800000	1.0
1	0x3f800000	1.0
2	0x3f800000	1.0
3	0x3f800000	1.0
4	0x3f800000	1.0
5	0x3f800000	1.0
6	0x3f800000	1.0
7	0x3f800000	1.0
8	0x3f800000	1.0
9	0x3f800000	1.0
10	0x3f800000	1.0
11	0x3f800000	1.0
12	0x3f800000	1.0
13	0x3f800000	1.0
14	0x3f800000	1.0
15	0x3f800000	1.0
16	0x3f800000	1.0
17	0x3f800000	1.0
18	0x3f800000	1.0
19	0x3f800000	1.0
20	0x3f800000	1.0
21	0x3f800000	1.0
22	0x3f800000	1.0
23	0x3f800000	1.0
24	0x3f800000	1.0
25	0x3f800000	1.0
26	0x3f800000	1.0
27	0x3f800000	1.0
28	0x3f800000	1.0
29	0x3f800000	1.0
30	0x3f800000	1.0
31	0x3f800000	1.0
32	0x3f800000	1.0
33	0x3f800000	1.0
34	0x3f800000	1.0
35	0x3f800000	1.0
36	0x3f800000	1.0
37	0x3f800000	1.0
38	0x3f800000	1.0
39	0x3f800000	1.0
40	0x3f800000	1.0
41	0x3f800000	1.0
42	0x3f800000	1.0
43	0x3f800000	1.0
44	0x3f800000	1.0
45	0x3f800000	1.0
46	0x3f800000	1.0
47	0x3f800000	1.0
48	0x3f800000	1.0
49	0x3f800000	1.0
50	0x3f800000	1.0
51	0x3f800000	1.0
52	0x3f800000	1.0
53	0x3f800000	1.0
54	0x3f800000	1.0
55	0x3f800000	1.0
56	0x3f800000	1.0
57	0x3f800000	1.0
58	0x3f800000	1.0
59	0x3f800000	1.0
60	0x3f800000	1.0
61	0x3f800000	1.0
62	0x3f800000	1.0
63	0x3f800000	1.0
