Code_binary/Search/operator_pt/wisdm2019/Conv-67x64-67x64-3-1-1.pt (torch, 59643 bytes, 5 tensors)

weight f4 [64, 64, 3]
00000000: 6201 863d ece9 cc3c e031 423d 009c 38bd
00000010: aa27 7cbd 5478 6bbd fe9b 3dbd 000f 16ba
00000020: 9073 253c b267 7abd 1006 313d 2c78 013d
00000030: 7d22 31bd d15d 12bd 1857 843d c88a 95bc
00000040: d0b3 463d 9c9c 11bd 1ad7 833d 6060 363d
00000050: acdc 903d 80bc e83a eced 81bd 5827 aabc
00000060: 0ab0 93bd 2ccb 4dbc b62d 1b3d ecf9 61bc
00000070: 309c 32bc 72ca 0e3d 71e0 6abd 7021 743c
00000080: c0cc 703d 704e 88bc 5ad4 853d 481d aabc
00000090: f45f 713d f077 903d ae43 433d 80ba 633b
000000a0: ee6d 8c3d d0d6 4a3d 7c8f 993c 9c55 afbc
000000b0: e0e4 b63c df00 51bd e199 1fbd 6824 5a3c
000000c0: 945c cdbc 6c31 88bd ba45 453d a486 eebc
000000d0: eed5 87bc 42fc 0e3d aec2 913d b8e9 b2bc
000000e0: 8d0d 87bd 82d8 233d dc17 693d 3c99 753d
000000f0: 1809 29bc 10fa a53b f053 413d 761d 883d
00000100: 96f8 0b3d a01a ca3c a4f2 853c c809 873d
00000110: b488 203d 0150 45bd 1cf8 923d 28e9 7d3d
00000120: 22fe 84bd 9417 e4bc 140f 46bc cc17 48bd
00000130: 10ab 853c 703a 6b3c 9496 80bc 80e1 893d
00000140: 547a de3c 020c dbbc a6c7 833d 8c05 5fbc
00000150: c8ee 493d 8e6d 82bc 2cad 043d 1c22 603d
00000160: 9f8b 4cbd b45a 64bc 9a7d 2d3d f8c6 cb3c
00000170: e14f 53bd ca17 83bd e06b 723c 36ac b2bc
00000180: 4a67 6fbd ecd2 153d 401f fd3c 800f 7d3b
00000190: 7c04 a9bc 5027 743c 2867 dd3c 9c09 42bd
000001a0: 4024 5d3c c67f 98bc 32b4 8fbd d0e9 a73b
000001b0: a259 47bd 16b1 e5bc 8464 263d 8bb0 16bd
000001c0: d05b 5fbd 101e f7bb 5307 88bd 8c1d 813d
000001d0: 00fa 3e3b 7cae 5e3d cc5c 8bbc ccc5 63bd
000001e0: fceb 673d b02a f83c a155 3ebd b2d9 e2bc
000001f0: e03b ef3c 1070 583c b620 e8bc b873 833d
00000200: 3075 2ebc f029 593c 468d 0c3d 4e35 57bd
00000210: fc13 4a3d d052 f23b 8c13 133d 1efa 483d
00000220: 4e72 80bd 1c3e 41bc 74bf 933d ec39 eebc
00000230: 8c27 193d d89e 693d a48a 7e3d 6657 803d
00000240: 8856 553d 120d 303d 1c46 0f3d f254 e5bc
00000250: 84c2 b2bc 8037 603b 202a 94bc f4a4 a3bc
00000260: cf31 4fbd 54b8 d63c 58c8 e33c 2f47 60bd
00000270: edc8 8bbd 4458 723d a207 28bd cea5 cbbc
00000280: bced f53c 4656 3abd d8e2 c23c eeba c2bc
00000290: 0017 dfb9 0066 5fbd 149d 7d3d f416 76bd
000002a0: be76 903d b292 59bd e8ee 7e3d b23f 3b3d
000002b0: 805a 4abd c52f 0ebd 9869 003d 20f6 413b
000002c0: 70cf 713d a835 703c b1e8 8bbd c071 643d
000002d0: 89fd 07bd 8aee 8fbd 48ea 093c 41bd 7fbd
000002e0: 620f 0bbd 9e4d 333d 9621 93bd f2ad e4bc
000002f0: b054 09bc 46f1 8cbd 28e6 193c 00d4 953a
00000300: 5ccd 903d 5a76 0f3d 009e 5839 787c 473c
00000310: 0834 853c 7a92 8c3d 1001 77bc 9092 8f3d
00000320: f1a0 76bd 8022 3e3c 0afc f2bc b8a0 423c
00000330: 14be 773d f0c4 eebb 0857 40bc fcb2 7f3d
00000340: 0604 2ebd e609 933d 4ab8 1ebd c08e f53a
00000350: dc3b fd3c 881b 683c 5039 613d d291 e5bc
00000360: 3868 8f3c d096 e7bb b015 fb3b 24dc d43c
00000370: 6985 7abd c09e c73a f638 30bd 1840 63bd
00000380: 469a 8a3d 6a3c 1abd f087 673c 1c74 083d
00000390: 6890 4f3c e4c0 dc3c 80f5 613b 001b ce39
000003a0: 68b6 493d f554 78bd c4be 093d 8c98 8f3c
000003b0: d57e 03bd 461e e0bc 30c9 0d3c 9c9c e5bc
000003c0: f828 aa3c c0ed 453c 9c66 d63c f030 cf3b
000003d0: 00dd 573a 6f75 08bd aef5 813d 4288 01bd
000003e0: fe7f 003d e20a 243d 70fe efbb 96d6 81bd
000003f0: 00e0 8439 cde2 7fbd 4cfd 823c 00fb 9e39
0.065432325 0.025013886 0.047410846 -0.04507065 -0.061561264 -0.0574878 -0.046291344 -0.0005724281
0.010098353 -0.061134048 0.043218672 0.031608745 -0.04324578 -0.035734 0.06461924 -0.018254653
0.048511326 -0.035549745 0.06437512 0.044525504 0.0707334 0.0017756373 -0.06344208 -0.020770714
-0.07211311 -0.012560647 0.03788539 -0.013792496 -0.010901496 0.034861036 -0.05734295 0.01490055
0.058789015 -0.016638964 0.065346435 -0.020765916 0.0589294 0.07054126 0.047671966 0.0034748614
0.06856905 0.049521267 0.018745176 -0.021403126 0.022325933 -0.05102622 -0.03896511 0.013314344
-0.025068559 -0.066500515 0.0481622 -0.029116936 -0.016581502 0.03490854 0.0711721 -0.021839961
-0.065943815 0.0400014 0.05690752 0.05996059 -0.0103171095 0.00506521 0.04719919 0.06646244
0.034172617 0.024670899 0.016351052 0.065936625 0.03919287 -0.048172 0.07176229 0.061989933
-0.064937845 -0.027843274 -0.012088556 -0.04885082 0.01631692 0.014357194 -0.015696801 0.06732464
0.02715794 -0.026739124 0.06434564 -0.013612162 0.049299985 -0.01592138 0.032391712 0.05472003
-0.04993784 -0.013937641 0.04235611 0.02487515 -0.05158985 -0.06401022 0.014796227 -0.021810632
-0.058448114 0.036578104 0.03089869 0.0038613975 -0.020632021 0.014901951 0.027026728 -0.047372445
0.013497412 -0.018615615 -0.070167914 0.005124308 -0.048669465 -0.028038543 0.040623203 -0.03678946
-0.05453092 -0.0075414255 -0.06642022 0.06304464 0.002914071 0.05436562 -0.017012022 -0.055608556
0.056621537 0.030293792 -0.04646838 -0.027691696 0.029203355 0.0132103115 -0.02833591 0.06418556
-0.010648057 0.013254628 0.034314416 -0.05254107 0.049335465 0.007395126 0.035907313 0.049066655
-0.06271802 -0.011794593 0.07214251 -0.029080354 0.03739123 0.05703625 0.062143937 0.0626667
0.052084476 0.042981215 0.03497897 -0.027994607 -0.021821268 0.0034212768 -0.018086493 -0.019976117
-0.05058461 0.026210941 0.027805492 -0.054755386 -0.06825433 0.059166208 -0.041022904 -0.024859335
0.030020587 -0.045492433 0.023789808 -0.023770776 -0.0004255101 -0.054540634 0.06191738 -0.060080484
0.07053898 -0.053118415 0.062239558 0.04571504 -0.049402714 -0.034713525 0.031350702 0.0029596165
0.05903572 0.01466123 -0.06831492 0.055772543 -0.033200774 -0.070279196 0.008417673 -0.062436346
-0.033950217 0.043775193 -0.071841404 -0.027914975 -0.0083820075 -0.06881957 0.009393252 0.0011430979
0.07070419 0.03502498 0.00020658225 0.012175672 0.016260162 0.06863876 -0.015075937 0.070103765
-0.06021208 0.011604905 -0.029661197 0.011879139 0.060484007 -0.0072866604 -0.0117395 0.062426552
-0.042484306 0.07179622 -0.03874997 0.0018734559 0.030912332 0.01416672 0.054986298 -0.028023634
0.01750575 -0.007067539 0.0076624975 0.025983877 -0.061162386 0.0015229806 -0.043023072 -0.055481046
0.067677066 -0.03765527 0.014131531 0.033313856 0.0126687065 0.026947446 0.0034478605 0.00039311498
0.04924622 -0.060627896 0.033629194 0.017528795 -0.03210338 -0.027358185 0.008653924 -0.028028779
0.020771489 0.01208061 0.026171975 0.0063229725 0.00082345307 -0.03331512 0.06345688 -0.031624086
0.031372063 0.04004944 -0.0073240325 -0.06339757 0.00025343895 -0.062472153 0.015989922 0.00030323118

weight f4 [64]
00000000: 0000 803f 0000 803f 0000 803f 0000 803f
00000010: 0000 803f 0000 803f 0000 803f 0000 803f
00000020: 0000 803f 0000 803f 0000 803f 0000 803f
00000030: 0000 803f 0000 803f 0000 803f 0000 803f
00000040: 0000 803f 0000 803f 0000 803f 0000 803f
00000050: 0000 803f 0000 803f 0000 803f 0000 803f
00000060: 0000 803f 0000 803f 0000 803f 0000 803f
00000070: 0000 803f 0000 803f 0000 803f 0000 803f
00000080: 0000 803f 0000 803f 0000 803f 0000 803f
00000090: 0000 803f 0000 803f 0000 803f 0000 803f
000000a0: 0000 803f 0000 803f 0000 803f 0000 803f
000000b0: 0000 803f 0000 803f 0000 803f 0000 803f
000000c0: 0000 803f 0000 803f 0000 803f 0000 803f
000000d0: 0000 803f 0000 803f 0000 803f 0000 803f
000000e0: 0000 803f 0000 803f 0000 803f 0000 803f
000000f0: 0000 803f 0000 803f 0000 803f 0000 803f
1.0 1.0 1.0 1.0 1.0 1.0 1.0 1.0
1.0 1.0 1.0 1.0 1.0 1.0 1.0 1.0
1.0 1.0 1.0 1.0 1.0 1.0 1.0 1.0
1.0 1.0 1.0 1.0 1.0 1.0 1.0 1.0
1.0 1.0 1.0 1.0 1.0 1.0 1.0 1.0
1.0 1.0 1.0 1.0 1.0 1.0 1.0 1.0
1.0 1.0 1.0 1.0 1.0 1.0 1.0 1.0
1.0 1.0 1.0 1.0 1.0 1.0 1.0 1.0

bias f4 [64]
00000000: 0000 0000 0000 0000 0000 0000 0000 0000
00000010: 0000 0000 0000 0000 0000 0000 0000 0000
00000020: 0000 0000 0000 0000 0000 0000 0000 0000
00000030: 0000 0000 0000 0000 0000 0000 0000 0000
00000040: 0000 0000 0000 0000 0000 0000 0000 0000
00000050: 0000 0000 0000 0000 0000 0000 0000 0000
00000060: 0000 0000 0000 0000 0000 0000 0000 0000
00000070: 0000 0000 0000 0000 0000 0000 0000 0000
00000080: 0000 0000 0000 0000 0000 0000 0000 0000
00000090: 0000 0000 0000 0000 0000 0000 0000 0000
000000a0: 0000 0000 0000 0000 0000 0000 0000 0000
000000b0: 0000 0000 0000 0000 0000 0000 0000 0000
000000c0: 0000 0000 0000 0000 0000 0000 0000 0000
000000d0: 0000 0000 0000 0000 0000 0000 0000 0000
000000e0: 0000 0000 0000 0000 0000 0000 0000 0000
000000f0: 0000 0000 0000 0000 0000 0000 0000 0000
0.0 0.0 0.0 0.0 0.0 0.0 0.0 0.0
0.0 0.0 0.0 0.0 0.0 0.0 0.0 0.0
0.0 0.0 0.0 0.0 0.0 0.0 0.0 0.0
0.0 0.0 0.0 0.0 0.0 0.0 0.0 0.0
0.0 0.0 0.0 0.0 0.0 0.0 0.0 0.0
0.0 0.0 0.0 0.0 0.0 0.0 0.0 0.0
0.0 0.0 0.0 0.0 0.0 0.0 0.0 0.0
0.0 0.0 0.0 0.0 0.0 0.0 0.0 0.0

running_mean f4 [64]
00000000: 0000 0000 0000 0000 0000 0000 0000 0000
00000010: 0000 0000 0000 0000 0000 0000 0000 0000
00000020: 0000 0000 0000 0000 0000 0000 0000 0000
00000030: 0000 0000 0000 0000 0000 0000 0000 0000
00000040: 0000 0000 0000 0000 0000 0000 0000 0000
00000050: 0000 0000 0000 0000 0000 0000 0000 0000
00000060: 0000 0000 0000 0000 0000 0000 0000 0000
00000070: 0000 0000 0000 0000 0000 0000 0000 0000
00000080: 0000 0000 0000 0000 0000 0000 0000 0000
00000090: 0000 0000 0000 0000 0000 0000 0000 0000
000000a0: 0000 0000 0000 0000 0000 0000 0000 0000
000000b0: 0000 0000 0000 0000 0000 0000 0000 0000
000000c0: 0000 0000 0000 0000 0000 0000 0000 0000
000000d0: 0000 0000 0000 0000 0000 0000 0000 0000
000000e0: 0000 0000 0000 0000 0000 0000 0000 0000
000000f0: 0000 0000 0000 0000 0000 0000 0000 0000
0.0 0.0 0.0 0.0 0.0 0.0 0.0 0.0
0.0 0.0 0.0 0.0 0.0 0.0 0.0 0.0
0.0 0.0 0.0 0.0 0.0 0.0 0.0 0.0
0.0 0.0 0.0 0.0 0.0 0.0 0.0 0.0
0.0 0.0 0.0 0.0 0.0 0.0 0.0 0.0
0.0 0.0 0.0 0.0 0.0 0.0 0.0 0.0
0.0 0.0 0.0 0.0 0.0 0.0 0.0 0.0
0.0 0.0 0.0 0.0 0.0 0.0 0.0 0.0

running_var f4 [64]
00000000: 0000 803f 0000 803f 0000 803f 0000 803f
00000010: 0000 803f 0000 803f 0000 803f 0000 803f
00000020: 0000 803f 0000 803f 0000 803f 0000 803f
00000030: 0000 803f 0000 803f 0000 803f 0000 803f
00000040: 0000 803f 0000 803f 0000 803f 0000 803f
00000050: 0000 803f 0000 803f 0000 803f 0000 803f
00000060: 0000 803f 0000 803f 0000 803f 0000 803f
00000070: 0000 803f 0000 803f 0000 803f 0000 803f
00000080: 0000 803f 0000 803f 0000 803f 0000 803f
00000090: 0000 803f 0000 803f 0000 803f 0000 803f
000000a0: 0000 803f 0000 803f 0000 803f 0000 803f
000000b0: 0000 803f 0000 803f 0000 803f 0000 803f
000000c0: 0000 803f 0000 803f 0000 803f 0000 803f
000000d0: 0000 803f 0000 803f 0000 803f 0000 803f
000000e0: 0000 803f 0000 803f 0000 803f 0000 803f
000000f0: 0000 803f 0000 803f 0000 803f 0000 803f
1.0 1.0 1.0 1.0 1.0 1.0 1.0 1.0
1.0 1.0 1.0 1.0 1.0 1.0 1.0 1.0
1.0 1.0 1.0 1.0 1.0 1.0 1.0 1.0
1.0 1.0 1.0 1.0 1.0 1.0 1.0 1.0
1.0 1.0 1.0 1.0 1.0 1.0 1.0 1.0
1.0 1.0 1.0 1.0 1.0 1.0 1.0 1.0
1.0 1.0 1.0 1.0 1.0 1.0 1.0 1.0
1.0 1.0 1.0 1.0 1.0 1.0 1.0 1.0
