Code_binary/Search/operator_pt/wisdm2019/DepthConv-67x64-67x64-3-1-1.pt (torch, 59856 bytes, 5 tensors)

weight f4 [64, 64, 3]
00000000: 602a 033c 48eb 193c 1303 8fbd 5a54 4b3d
00000010: e07b d0bb e4fa 743d a47a bcbc 408c ce3b
00000020: 00cc 413c d0fc 11bc f6d7 c5bc 4cb3 7cbc
00000030: 7d0b 45bd f6bf 513d 08d5 3c3c eca0 77bc
00000040: 654e 19bd f4fc d2bc c003 9b3b c070 633b
00000050: 34f6 5a3d b216 8abd 8a68 0b3d cdb9 89bd
00000060: 7e5f f2bc 385e 623d 1004 65bd 8e86 2c3d
00000070: 1ee9 283d a8e1 c33c 0a13 41bd 5cba 36bd
00000080: 385c b23c 606a 093b 6c48 8f3d e5e0 22bd
00000090: 50af 233c 276b 7ebd a877 9c3c 14d5 1ebc
000000a0: aadd 193d 70cc 793d 70ee fabb ce67 17bd
000000b0: cc06 5ebd 6e09 8ebc d8c2 3b3d 3cdd e3bc
000000c0: 2653 273d 605a adbb 784e 1f3d 388f 403d
000000d0: 911e 5bbd f854 5a3c c8ae 613c 9add b9bc
000000e0: 9fe3 00bd a897 80bd 9826 cc3c 6ed9 043d
000000f0: c85a 653d fa30 093d 92b5 563d 00a5 aabb
00000100: 657e 70bd 9efe 2c3d 64e7 9abc ecde 0b3d
00000110: b2ea 2c3d 1895 913d 20ad 683d 0483 8a3c
00000120: fe06 87bd 0056 3bb9 6661 78bd 48d0 283c
00000130: 849a a53c eab3 c6bc 443e 243d cc7f 46bd
00000140: 900e 30bc 403e 42bd e8fa c13c 6888 8abd
00000150: 50ec aa3c 6846 5f3d 3c63 46bc 30bb eabb
00000160: 8c0e a43c def6 813d 9829 c33c 8bc8 88bd
00000170: efc9 08bd af31 37bd d0b5 793c 908e 4e3c
00000180: 1ca4 613d ec97 24bc 00e0 10bc c84c 13bc
00000190: f6e7 3d3d ad73 2ebd 6299 2e3d 215a 15bd
000001a0: 206e 41bd 4074 c23a cec5 263d 00b8 f5bb
000001b0: f24b bebc f0d1 1cbc 7008 0d3d 49ba 49bd
000001c0: dae9 123d 1b7d 85bd 5061 44bc d2df 4bbd
000001d0: d6e0 81bd 98cd ab3c 3836 ba3c f893 ba3c
000001e0: 8c1f 563d 47a6 59bd 284a 29bd 3803 133d
000001f0: cf83 8cbd ac7d 183d 5cae ed3c ccb6 73bd
00000200: 006b 693d 585b 5abc f8b3 e1bc 00ea 783d
00000210: 60ff 503c 9155 24bd 8c89 a13c 98f6 0ebd
00000220: 8c1c 893d 20f0 34bc 4082 90bd 6e55 2dbd
00000230: b46a 773d 28e8 5e3c 30dd 95bb e08b 493c
00000240: c244 823d e000 143b f2d1 363d ba39 323d
00000250: 60b9 b4bb a0da 823b 40df 69bb 6077 343c
00000260: b4f3 ce3c ccef f6bc 7c6c 2f3d 2eb9 093d
00000270: a8d6 313c 1882 063c d4c2 8ebd 80d4 34ba
00000280: af5e 6ebd f89f 783c 3db1 18bd 1a31 3ebd
00000290: f82b 033d f243 043d 34b8 76bc 4809 d33c
000002a0: c01f 7f3b 9021 b6bb f459 e13c 48ca 613d
000002b0: 400a 353c 9cde 683d ac8e 593d dc7a 24bd
000002c0: 1810 6b3d 4811 6a3c 0098 a73c 48a5 cc3c
000002d0: a828 933d 910e 5fbd 9e74 40bd d489 823d
000002e0: 22f0 833d 076d 87bd 9039 8abb a486 8c3d
000002f0: 0412 8ebd d267 e6bc 4c4f 923c 106e 2ebd
00000300: f097 e6bc 84c0 bdbc bc98 ac3c 601c 5a3c
00000310: 463c 813d 80c0 6b3a 8875 66bd b0bf fc3b
00000320: f00b 5e3d 9c3e 633d 54a1 2abd 4b67 8cbd
00000330: 625a 923d 6af5 babc feb4 8ebc 4efa 873d
00000340: 4e9f 49bd bcdd 823d 4c15 8dbc 3eaa 913d
00000350: c33d 1fbd 9a25 31bd 40d6 a03c 660d 233d
00000360: 78d0 08bc daf8 433d 483b 6b3c 38fd 233d
00000370: 5c1e 103d ec22 833d b334 8fbd 6463 11bd
00000380: 4ab2 91bc 666c 8c3d 4229 1fbd 7295 273d
00000390: 308f e5bb 4c9e c2bc 5eb2 4bbd 5471 d13c
000003a0: 9846 15bc 0c44 29bd 30a3 f93b ce91 923d
000003b0: d4e9 8f3d a0e4 353b 2879 bf3c 3094 a1bb
000003c0: 4002 383b 8637 2bbd 4005 a3ba 9295 433d
000003d0: 0048 903a a591 3dbd f23a 933d c841 2b3c
000003e0: a1ef 66bd 1c94 943c 13a8 75bd 10e7 033c
000003f0: 986a fcbc 2869 7f3d 6210 253d e816 1b3c
0.008005708 0.009394474 -0.06983008 0.04964099 -0.0063624233 0.05980958 -0.023007698 0.00630334
0.011828423 -0.008910373 -0.02415083 -0.015423607 -0.04810666 0.05120846 0.0115254 -0.01511405
-0.03742828 -0.025755383 0.0047306716 0.0034704655 0.053457454 -0.0674261 0.034035243 -0.06724892
-0.02958655 0.055265635 -0.055912077 0.04212051 0.041237943 0.023911312 -0.047137298 -0.04461132
0.021772489 0.0020967945 0.06996235 -0.039765257 0.009990528 -0.062113907 0.019100025 -0.0096943565
0.03756491 0.060985982 -0.0076578185 -0.03696423 -0.0542057 -0.01733848 0.045840114 -0.027815454
0.04085078 -0.0052903146 0.038893193 0.047011584 -0.053495947 0.013325922 0.013774581 -0.022688676
-0.031467076 -0.06278926 0.024920747 0.03243392 0.05599478 0.033493973 0.052419253 -0.005207658
-0.05871429 0.04223501 -0.018909164 0.03414814 0.04221601 0.071085155 0.05680573 0.016908176
-0.065931305 -0.00017865747 -0.06063976 0.010303564 0.02021528 -0.024255712 0.040098444 -0.04846172
-0.0107456595 -0.047422647 0.023679212 -0.06764299 0.020864636 0.054510504 -0.01210862 -0.007163428
0.020026468 0.06345914 0.023823544 -0.066788755 -0.033395704 -0.044725116 0.015241101 0.012607232
0.055088148 -0.010045987 -0.008842468 -0.008990474 0.046363793 -0.042590786 0.042626746 -0.036462907
-0.047224164 0.0014835671 0.040715985 -0.007498741 -0.023229573 -0.009571537 0.034431875 -0.04924992
0.03586755 -0.065180026 -0.011986092 -0.049774 -0.06341712 0.020972058 0.022730932 0.022775635
0.05227618 -0.05313709 -0.041330487 0.03589174 -0.06861078 0.037229225 0.029013805 -0.0595005
0.05698681 -0.013327442 -0.027551636 0.060770035 0.012756199 -0.040120665 0.019718908 -0.03490314
0.06694898 -0.011043578 -0.07056093 -0.0423178 0.060404494 0.013605155 -0.0045734867 0.012301415
0.06360771 0.002258353 0.044633813 0.043512084 -0.0055152625 0.0039933473 -0.0035686046 0.011014789
0.025262691 -0.030143641 0.042828068 0.033623867 0.010854401 0.008209728 -0.06970754 -0.000689812
-0.058195766 0.015174858 -0.037278403 -0.046433546 0.032024354 0.03229136 -0.015058566 0.025761262
0.0038928837 -0.0055582 0.027508713 0.05512455 0.011049807 0.05685292 0.053114578 -0.04015623
0.057388395 0.014286347 0.020458221 0.024981156 0.07185489 -0.05445725 -0.046986215 0.06373945
0.06442286 -0.06612592 -0.0042182878 0.06861618 -0.0693703 -0.028125677 0.017860077 -0.042585433
-0.028148621 -0.023163088 0.021068923 0.013312429 0.06310324 0.00089932233 -0.05626443 0.0077132806
0.054210603 0.05547963 -0.04165776 -0.06855639 0.071461454 -0.0228221 -0.017420288 0.06639539
-0.04922419 0.06389949 -0.01722207 0.07112549 -0.03887726 -0.04324875 0.019633412 0.0398077
-0.008350484 0.047844745 0.0143573955 0.04003641 0.035185203 0.06403145 -0.069924735 -0.035495177
-0.01778521 0.06856613 -0.038857706 0.040914007 -0.0070055947 -0.023757122 -0.04973065 0.025566734
-0.009111069 -0.04132466 0.0076183304 0.07156716 0.07027021 0.002775468 0.023373201 -0.0049309954
0.0028077513 -0.041801 -0.0012437478 0.047750063 0.0011007786 -0.046281476 0.07188977 0.010452695
-0.05638087 0.01813703 -0.05997474 0.008050695 -0.030812547 0.062356144 0.040298827 0.0094659105

weight f4 [64]
00000000: 0000 803f 0000 803f 0000 803f 0000 803f
00000010: 0000 803f 0000 803f 0000 803f 0000 803f
00000020: 0000 803f 0000 803f 0000 803f 0000 803f
00000030: 0000 803f 0000 803f 0000 803f 0000 803f
00000040: 0000 803f 0000 803f 0000 803f 0000 803f
00000050: 0000 803f 0000 803f 0000 803f 0000 803f
00000060: 0000 803f 0000 803f 0000 803f 0000 803f
00000070: 0000 803f 0000 803f 0000 803f 0000 803f
00000080: 0000 803f 0000 803f 0000 803f 0000 803f
00000090: 0000 803f 0000 803f 0000 803f 0000 803f
000000a0: 0000 803f 0000 803f 0000 803f 0000 803f
000000b0: 0000 803f 0000 803f 0000 803f 0000 803f
000000c0: 0000 803f 0000 803f 0000 803f 0000 803f
000000d0: 0000 803f 0000 803f 0000 803f 0000 803f
000000e0: 0000 803f 0000 803f 0000 803f 0000 803f
000000f0: 0000 803f 0000 803f 0000 803f 0000 803f
1.0 1.0 1.0 1.0 1.0 1.0 1.0 1.0
1.0 1.0 1.0 1.0 1.0 1.0 1.0 1.0
1.0 1.0 1.0 1.0 1.0 1.0 1.0 1.0
1.0 1.0 1.0 1.0 1.0 1.0 1.0 1.0
1.0 1.0 1.0 1.0 1.0 1.0 1.0 1.0
1.0 1.0 1.0 1.0 1.0 1.0 1.0 1.0
1.0 1.0 1.0 1.0 1.0 1.0 1.0 1.0
1.0 1.0 1.0 1.0 1.0 1.0 1.0 1.0

bias f4 [64]
00000000: 0000 0000 0000 0000 0000 0000 0000 0000
00000010: 0000 0000 0000 0000 0000 0000 0000 0000
00000020: 0000 0000 0000 0000 0000 0000 0000 0000
00000030: 0000 0000 0000 0000 0000 0000 0000 0000
00000040: 0000 0000 0000 0000 0000 0000 0000 0000
00000050: 0000 0000 0000 0000 0000 0000 0000 0000
00000060: 0000 0000 0000 0000 0000 0000 0000 0000
00000070: 0000 0000 0000 0000 0000 0000 0000 0000
00000080: 0000 0000 0000 0000 0000 0000 0000 0000
00000090: 0000 0000 0000 0000 0000 0000 0000 0000
000000a0: 0000 0000 0000 0000 0000 0000 0000 0000
000000b0: 0000 0000 0000 0000 0000 0000 0000 0000
000000c0: 0000 0000 0000 0000 0000 0000 0000 0000
000000d0: 0000 0000 0000 0000 0000 0000 0000 0000
000000e0: 0000 0000 0000 0000 0000 0000 0000 0000
000000f0: 0000 0000 0000 0000 0000 0000 0000 0000
0.0 0.0 0.0 0.0 0.0 0.0 0.0 0.0
0.0 0.0 0.0 0.0 0.0 0.0 0.0 0.0
0.0 0.0 0.0 0.0 0.0 0.0 0.0 0.0
0.0 0.0 0.0 0.0 0.0 0.0 0.0 0.0
0.0 0.0 0.0 0.0 0.0 0.0 0.0 0.0
0.0 0.0 0.0 0.0 0.0 0.0 0.0 0.0
0.0 0.0 0.0 0.0 0.0 0.0 0.0 0.0
0.0 0.0 0.0 0.0 0.0 0.0 0.0 0.0

running_mean f4 [64]
00000000: 0000 0000 0000 0000 0000 0000 0000 0000
00000010: 0000 0000 0000 0000 0000 0000 0000 0000
00000020: 0000 0000 0000 0000 0000 0000 0000 0000
00000030: 0000 0000 0000 0000 0000 0000 0000 0000
00000040: 0000 0000 0000 0000 0000 0000 0000 0000
00000050: 0000 0000 0000 0000 0000 0000 0000 0000
00000060: 0000 0000 0000 0000 0000 0000 0000 0000
00000070: 0000 0000 0000 0000 0000 0000 0000 0000
00000080: 0000 0000 0000 0000 0000 0000 0000 0000
00000090: 0000 0000 0000 0000 0000 0000 0000 0000
000000a0: 0000 0000 0000 0000 0000 0000 0000 0000
000000b0: 0000 0000 0000 0000 0000 0000 0000 0000
000000c0: 0000 0000 0000 0000 0000 0000 0000 0000
000000d0: 0000 0000 0000 0000 0000 0000 0000 0000
000000e0: 0000 0000 0000 0000 0000 0000 0000 0000
000000f0: 0000 0000 0000 0000 0000 0000 0000 0000
0.0 0.0 0.0 0.0 0.0 0.0 0.0 0.0
0.0 0.0 0.0 0.0 0.0 0.0 0.0 0.0
0.0 0.0 0.0 0.0 0.0 0.0 0.0 0.0
0.0 0.0 0.0 0.0 0.0 0.0 0.0 0.0
0.0 0.0 0.0 0.0 0.0 0.0 0.0 0.0
0.0 0.0 0.0 0.0 0.0 0.0 0.0 0.0
0.0 0.0 0.0 0.0 0.0 0.0 0.0 0.0
0.0 0.0 0.0 0.0 0.0 0.0 0.0 0.0

running_var f4 [64]
00000000: 0000 803f 0000 803f 0000 803f 0000 803f
00000010: 0000 803f 0000 803f 0000 803f 0000 803f
00000020: 0000 803f 0000 803f 0000 803f 0000 803f
00000030: 0000 803f 0000 803f 0000 803f 0000 803f
00000040: 0000 803f 0000 803f 0000 803f 0000 803f
00000050: 0000 803f 0000 803f 0000 803f 0000 803f
00000060: 0000 803f 0000 803f 0000 803f 0000 803f
00000070: 0000 803f 0000 803f 0000 803f 0000 803f
00000080: 0000 803f 0000 803f 0000 803f 0000 803f
00000090: 0000 803f 0000 803f 0000 803f 0000 803f
000000a0: 0000 803f 0000 803f 0000 803f 0000 803f
000000b0: 0000 803f 0000 803f 0000 803f 0000 803f
000000c0: 0000 803f 0000 803f 0000 803f 0000 803f
000000d0: 0000 803f 0000 803f 0000 803f 0000 803f
000000e0: 0000 803f 0000 803f 0000 803f 0000 803f
000000f0: 0000 803f 0000 803f 0000 803f 0000 803f
1.0 1.0 1.0 1.0 1.0 1.0 1.0 1.0
1.0 1.0 1.0 1.0 1.0 1.0 1.0 1.0
1.0 1.0 1.0 1.0 1.0 1.0 1.0 1.0
1.0 1.0 1.0 1.0 1.0 1.0 1.0 1.0
1.0 1.0 1.0 1.0 1.0 1.0 1.0 1.0
1.0 1.0 1.0 1.0 1.0 1.0 1.0 1.0
1.0 1.0 1.0 1.0 1.0 1.0 1.0 1.0
1.0 1.0 1.0 1.0 1.0 1.0 1.0 1.0
