Code_binary/Search/operator_pt/wisdm2019/DepthConv-200x6-200x64-5-1-1.pt (torch, 18397 bytes, 5 tensors)

weight f4 [64, 6, 5]
000000 6c 2e 9b 3d 70 5f 65 3c be 27 32 be e4 ff 6c 3d
       0.07577214 0.013999805 -0.17397973 0.057861224
000010 e0 69 d2 bc ce 36 33 3e 32 84 01 be 80 eb 30 bd
       -0.02568525 0.17501375 -0.12648085 -0.04319334
000020 cb ad bd bd 00 4e ea 3c 40 56 20 bc 7c 92 d9 3d
       -0.09261664 0.028601646 -0.009786189 0.10623643
000030 c0 ff f1 3d c0 4e 1e bb 65 8d 31 be 50 2a 34 be
       0.118163586 -0.0024155825 -0.17339094 -0.17594266
000040 5c b9 6a bd 70 18 66 3c 70 3b 57 bc 1c 94 8c bd
       -0.05730568 0.014043912 -0.01313673 -0.06864187
000050 64 2f 2d be 77 06 39 be 3c b3 4f bd a1 63 91 bd
       -0.1691261 -0.18068872 -0.05070804 -0.07099081
000060 90 84 c6 3c a8 0d e9 3d 8a 86 2d 3e 88 66 3c bd
       0.024233133 0.11379558 0.16945854 -0.04599622
000070 7d d8 18 be c4 8f 0e be 00 82 5c bd 48 42 bf 3d
       -0.14926334 -0.1392203 -0.053834915 0.09338814
000080 70 a3 bb 3d 40 4c f2 3b 0e ac 28 3e d0 d8 93 bc
       0.091620326 0.0073943436 0.16471884 -0.01804772
000090 30 9d 1b 3d b0 71 b1 3c 04 c4 fc 3d 48 bd d1 3c
       0.037991703 0.021660656 0.123420745 0.025602952
0000a0 38 92 07 3e e3 a9 8d bd c0 51 bd bb 5c bb 0c 3e
       0.13239372 -0.06917169 -0.0057775676 0.13743347
0000b0 c8 0a 69 bd c6 6d 38 be 97 c1 27 be 4c 69 cf 3d
       -0.056895047 -0.18010625 -0.16382442 0.10127506
0000c0 70 68 f0 3c 37 6b 90 bd 18 29 64 3d 70 fe 39 3d
       0.029346675 -0.070516996 0.055703253 0.045408666
0000d0 d0 5d b3 3d d2 aa ef bd 60 0f f0 3d 44 a2 4c bd
       0.08758128 -0.11702503 0.117216825 -0.049959436
0000e0 a5 0f 0d be 20 7a 1e 3e 51 2b 34 be 49 03 04 be
       -0.13775499 0.15476274 -0.17594649 -0.12891878
0000f0 00 90 5b 38 ba 1c ab bd 40 f1 8d 3c 0c 6e 01 be
       5.234778e-05 -0.083550885 0.017326951 -0.12639636
000100 6f 1d b9 bd 90 57 3b 3d 2e e6 22 be 70 56 1a 3e
       -0.09038817 0.045737803 -0.15908119 0.15072036
000110 92 d0 31 be e4 57 61 3d a4 82 eb bd 20 cd f3 3b
       -0.1736472 0.05501546 -0.11499527 0.0074402243
000120 6c 0f 9d bd a4 28 df 3d 8b a0 15 be 28 c5 12 bd
       -0.07668957 0.108964235 -0.14612024 -0.035832554
000130 a0 5e 89 3c c6 d6 25 3e 20 e3 30 3e 00 e9 12 bd
       0.016768754 0.16195211 0.17274141 -0.035866737
000140 28 ff 8a 3d 08 fa f4 3d 20 9d 6a bd 9c 57 96 3d
       0.067869484 0.11961752 -0.057278752 0.07340929
000150 60 51 14 be 21 e3 ee bd 00 70 57 ba 88 d4 f7 3d
       -0.14484167 -0.11664415 -0.00082182884 0.12101084
000160 38 6b 68 bd e0 fe b1 bc 18 d1 b0 3d 2e 66 10 3e
       -0.056742877 -0.02172798 0.086336315 0.14101478
000170 60 1e f4 3d 24 94 1b 3d 4c 30 13 3e f4 f4 6c 3d
       0.11919856 0.037983075 0.14373893 0.057850793
000180 04 7f 0b 3e 18 71 c6 bc 07 fb 2e be 9d de 09 be
       0.13622671 -0.02422385 -0.17087947 -0.13463826
000190 0e 35 76 bd fc 06 09 3e c0 a7 d9 3d 68 6b 08 bd
       -0.06010919 0.1338157 0.10627699 -0.033305556
0001a0 87 88 2f be 18 94 9b 3d c8 74 12 3e 98 5b be 3d
       -0.17141925 0.07596606 0.14302361 0.09294814
0001b0 37 5b ef bd e2 fa b5 bd 88 fe f3 3d a0 19 19 bc
       -0.1168732 -0.08885743 0.11913782 -0.009344488
0001c0 dc 63 b3 3d c0 c9 1c 3e ec e9 d2 3d 99 3e 15 be
       0.08759281 0.15311337 0.10298523 -0.1457466
0001d0 00 a7 71 3a b4 65 48 3d 1a b6 b6 bd 68 0d fe bd
       0.00092183053 0.048925117 -0.08921452 -0.12404901
0001e0 fc dd cd 3d 0c 24 28 be f0 17 66 bc 66 1a 2f 3e
       0.10052106 -0.16420001 -0.014043793 0.17099914
0001f0 88 bd fe 3c 7c a1 65 bd 4c 6e 62 3d 78 0b d5 bc
       0.031096235 -0.056062207 0.05528097 -0.026006445
000200 a2 7a 94 bd d0 99 ee 3d ec 82 26 be f8 64 06 be
       -0.07249953 0.11650431 -0.1626088 -0.13124454
000210 c7 bb 22 be d0 f7 de bc 44 19 97 3d 67 6e 86 bd
       -0.15891944 -0.027217776 0.07377866 -0.06564026
000220 b4 f2 52 3d f4 93 0b 3d e0 e9 ba 3d 20 b8 d8 bc
       0.05150099 0.034076646 0.09126639 -0.026454985
000230 49 be 1e be 3b de 17 be e8 70 b0 3d 25 78 26 be
       -0.15502276 -0.14830868 0.08615285 -0.16256769
000240 e0 ad e8 bc 48 6b 1d 3d 4c 98 58 bd a6 ad a9 bd
       -0.028403223 0.03843239 -0.052879617 -0.08285074
000250 48 9b a4 3d c0 7b 1a 3e a8 cd e3 3d 54 0b 10 bd
       0.0803743 0.1508627 0.1112321 -0.035167053
000260 c8 a6 ff bc ea a1 05 be 2c bd a6 3d 50 0b d2 3d
       -0.031207457 -0.13050047 0.081415504 0.10256064
000270 26 ad 9e bd d4 49 03 bd 0c 9a 0e 3e c8 13 ad 3d
       -0.07747869 -0.03205283 0.13925952 0.084510386
000280 e0 58 a0 3c e8 c3 12 be 21 1c 0c be 18 85 58 3d
       0.019573629 -0.14332545 -0.13682605 0.052861303
000290 e0 f7 75 bd 94 2e ea 3d d3 63 3a be c0 b3 e8 3d
       -0.060050845 0.11434665 -0.18202142 0.113624096
0002a0 98 a0 88 3d de e6 9c bd c4 ef 19 3d 98 77 0e be
       0.06671256 -0.07661222 0.037582174 -0.13912809
0002b0 30 5d cf bc 8e 8c 04 be b0 0d f0 3c 4a 6e 33 be
       -0.02531299 -0.12944242 0.029303402 -0.1752254
0002c0 a8 04 a0 3d 6c 47 e2 bd 54 ab 10 bd dc 64 e8 bd
       0.07813388 -0.11048779 -0.03531964 -0.113473624
0002d0 e0 7e 23 bd b0 bf 61 3d 60 de 93 3c a0 99 7b 3c
       -0.03991592 0.055114448 0.018050373 0.015356451
0002e0 c0 db b2 3d 68 aa 18 3d 88 12 2a bd f8 88 e6 3d
       0.0873332 0.037271887 -0.04152158 0.112565935
0002f0 a2 dd c5 bd ce ea 1c be 2b c2 d0 bd a0 7c 2b 3e
       -0.09661414 -0.15323946 -0.101932846 0.1674676
000300 98 f8 0f bd 04 d0 88 bd ee 45 ed bd b0 ca c6 bc
       -0.035149187 -0.06680301 -0.11585604 -0.02426657
000310 2c fc 30 3e 48 84 ce bc 21 97 2a be 60 28 11 bd
       0.17283696 -0.025209561 -0.16659214 -0.035438895
000320 5c f6 bb 3d 08 c2 78 3d 10 59 83 bd 08 5d d3 bd
       0.09177849 0.060731918 -0.06413472 -0.10320479
000330 30 65 f9 3c 34 6d 0a 3e dc 3f a3 3d c8 c1 c6 3d
       0.030443758 0.1351822 0.079711646 0.097049296
000340 10 5b 49 3d 98 58 4f 3d c0 2a b9 bd 70 0f 35 bd
       0.04915911 0.0506216 -0.09041357 -0.044204175
000350 2c 24 22 bd b4 33 10 3e c8 d5 cb 3d 68 20 93 bc
       -0.039585277 0.14082223 0.09952885 -0.017959788
000360 ec 83 0c be d4 a7 7e bd 90 a1 1a bc 7d e9 e8 bd
       -0.13722199 -0.062171772 -0.009437934 -0.11372659
000370 34 f3 83 bd 74 1a 17 3e 08 0c a2 3d d6 92 2a 3e
       -0.06442872 0.14756185 0.07912451 0.16657576
000380 e0 c3 1b bd ef 01 0d be 80 dd b3 3d a8 9e 08 bd
       -0.038028598 -0.13770269 0.08782482 -0.03335443
000390 12 98 23 be e0 b7 38 3c 68 49 8b 3d 78 7f 55 3d
       -0.15975979 0.011274308 0.068011105 0.052123517
0003a0 d0 3d 20 be e4 7c 04 be 0a c2 d2 bd 80 b1 f5 3a
       -0.1564858 -0.12938267 -0.10290916 0.0018744916
0003b0 81 1a 96 bd 68 98 a6 3c 8e ad 12 be a9 b8 1e be
       -0.07329274 0.020336345 -0.14324018 -0.1550013
0003c0 7c 67 66 bd fc ce 26 be 44 5e 3a 3e 50 fd 05 bc
       -0.056251034 -0.16289896 0.18200022 -0.00817807
0003d0 90 ed 86 bc 06 b3 08 3e 3c ab 17 3d 20 86 16 bd
       -0.0164707 0.13349542 0.037028536 -0.036749005
0003e0 08 51 bb 3d da dd 1c 3e 8c 07 00 be 90 04 f2 3d
       0.09146315 0.15319005 -0.12502879 0.118172765
0003f0 c0 a2 81 bc 69 81 e5 bd 90 37 1b bc 84 a5 80 3d
       -0.015824676 -0.11206324 -0.009473696 0.062815696

weight f4 [64]
000000 00 00 80 3f 00 00 80 3f 00 00 80 3f 00 00 80 3f
       1.0 1.0 1.0 1.0
000010 00 00 80 3f 00 00 80 3f 00 00 80 3f 00 00 80 3f
       1.0 1.0 1.0 1.0
000020 00 00 80 3f 00 00 80 3f 00 00 80 3f 00 00 80 3f
       1.0 1.0 1.0 1.0
000030 00 00 80 3f 00 00 80 3f 00 00 80 3f 00 00 80 3f
       1.0 1.0 1.0 1.0
000040 00 00 80 3f 00 00 80 3f 00 00 80 3f 00 00 80 3f
       1.0 1.0 1.0 1.0
000050 00 00 80 3f 00 00 80 3f 00 00 80 3f 00 00 80 3f
       1.0 1.0 1.0 1.0
000060 00 00 80 3f 00 00 80 3f 00 00 80 3f 00 00 80 3f
       1.0 1.0 1.0 1.0
000070 00 00 80 3f 00 00 80 3f 00 00 80 3f 00 00 80 3f
       1.0 1.0 1.0 1.0
000080 00 00 80 3f 00 00 80 3f 00 00 80 3f 00 00 80 3f
       1.0 1.0 1.0 1.0
000090 00 00 80 3f 00 00 80 3f 00 00 80 3f 00 00 80 3f
       1.0 1.0 1.0 1.0
0000a0 00 00 80 3f 00 00 80 3f 00 00 80 3f 00 00 80 3f
       1.0 1.0 1.0 1.0
0000b0 00 00 80 3f 00 00 80 3f 00 00 80 3f 00 00 80 3f
       1.0 1.0 1.0 1.0
0000c0 00 00 80 3f 00 00 80 3f 00 00 80 3f 00 00 80 3f
       1.0 1.0 1.0 1.0
0000d0 00 00 80 3f 00 00 80 3f 00 00 80 3f 00 00 80 3f
       1.0 1.0 1.0 1.0
0000e0 00 00 80 3f 00 00 80 3f 00 00 80 3f 00 00 80 3f
       1.0 1.0 1.0 1.0
0000f0 00 00 80 3f 00 00 80 3f 00 00 80 3f 00 00 80 3f
       1.0 1.0 1.0 1.0

bias f4 [64]
000000 00 00 00 00 00 00 00 00 00 00 00 00 00 00 00 00
       0.0 0.0 0.0 0.0
000010 00 00 00 00 00 00 00 00 00 00 00 00 00 00 00 00
       0.0 0.0 0.0 0.0
000020 00 00 00 00 00 00 00 00 00 00 00 00 00 00 00 00
       0.0 0.0 0.0 0.0
000030 00 00 00 00 00 00 00 00 00 00 00 00 00 00 00 00
       0.0 0.0 0.0 0.0
000040 00 00 00 00 00 00 00 00 00 00 00 00 00 00 00 00
       0.0 0.0 0.0 0.0
000050 00 00 00 00 00 00 00 00 00 00 00 00 00 00 00 00
       0.0 0.0 0.0 0.0
000060 00 00 00 00 00 00 00 00 00 00 00 00 00 00 00 00
       0.0 0.0 0.0 0.0
000070 00 00 00 00 00 00 00 00 00 00 00 00 00 00 00 00
       0.0 0.0 0.0 0.0
000080 00 00 00 00 00 00 00 00 00 00 00 00 00 00 00 00
       0.0 0.0 0.0 0.0
000090 00 00 00 00 00 00 00 00 00 00 00 00 00 00 00 00
       0.0 0.0 0.0 0.0
0000a0 00 00 00 00 00 00 00 00 00 00 00 00 00 00 00 00
       0.0 0.0 0.0 0.0
0000b0 00 00 00 00 00 00 00 00 00 00 00 00 00 00 00 00
       0.0 0.0 0.0 0.0
0000c0 00 00 00 00 00 00 00 00 00 00 00 00 00 00 00 00
       0.0 0.0 0.0 0.0
0000d0 00 00 00 00 00 00 00 00 00 00 00 00 00 00 00 00
       0.0 0.0 0.0 0.0
0000e0 00 00 00 00 00 00 00 00 00 00 00 00 00 00 00 00
       0.0 0.0 0.0 0.0
0000f0 00 00 00 00 00 00 00 00 00 00 00 00 00 00 00 00
       0.0 0.0 0.0 0.0

running_mean f4 [64]
000000 00 00 00 00 00 00 00 00 00 00 00 00 00 00 00 00
       0.0 0.0 0.0 0.0
000010 00 00 00 00 00 00 00 00 00 00 00 00 00 00 00 00
       0.0 0.0 0.0 0.0
000020 00 00 00 00 00 00 00 00 00 00 00 00 00 00 00 00
       0.0 0.0 0.0 0.0
000030 00 00 00 00 00 00 00 00 00 00 00 00 00 00 00 00
       0.0 0.0 0.0 0.0
000040 00 00 00 00 00 00 00 00 00 00 00 00 00 00 00 00
       0.0 0.0 0.0 0.0
000050 00 00 00 00 00 00 00 00 00 00 00 00 00 00 00 00
       0.0 0.0 0.0 0.0
000060 00 00 00 00 00 00 00 00 00 00 00 00 00 00 00 00
       0.0 0.0 0.0 0.0
000070 00 00 00 00 00 00 00 00 00 00 00 00 00 00 00 00
       0.0 0.0 0.0 0.0
000080 00 00 00 00 00 00 00 00 00 00 00 00 00 00 00 00
       0.0 0.0 0.0 0.0
000090 00 00 00 00 00 00 00 00 00 00 00 00 00 00 00 00
       0.0 0.0 0.0 0.0
0000a0 00 00 00 00 00 00 00 00 00 00 00 00 00 00 00 00
       0.0 0.0 0.0 0.0
0000b0 00 00 00 00 00 00 00 00 00 00 00 00 00 00 00 00
       0.0 0.0 0.0 0.0
0000c0 00 00 00 00 00 00 00 00 00 00 00 00 00 00 00 00
       0.0 0.0 0.0 0.0
0000d0 00 00 00 00 00 00 00 00 00 00 00 00 00 00 00 00
       0.0 0.0 0.0 0.0
0000e0 00 00 00 00 00 00 00 00 00 00 00 00 00 00 00 00
       0.0 0.0 0.0 0.0
0000f0 00 00 00 00 00 00 00 00 00 00 00 00 00 00 00 00
       0.0 0.0 0.0 0.0

running_var f4 [64]
000000 00 00 80 3f 00 00 80 3f 00 00 80 3f 00 00 80 3f
       1.0 1.0 1.0 1.0
000010 00 00 80 3f 00 00 80 3f 00 00 80 3f 00 00 80 3f
       1.0 1.0 1.0 1.0
000020 00 00 80 3f 00 00 80 3f 00 00 80 3f 00 00 80 3f
       1.0 1.0 1.0 1.0
000030 00 00 80 3f 00 00 80 3f 00 00 80 3f 00 00 80 3f
       1.0 1.0 1.0 1.0
000040 00 00 80 3f 00 00 80 3f 00 00 80 3f 00 00 80 3f
       1.0 1.0 1.0 1.0
000050 00 00 80 3f 00 00 80 3f 00 00 80 3f 00 00 80 3f
       1.0 1.0 1.0 1.0
000060 00 00 80 3f 00 00 80 3f 00 00 80 3f 00 00 80 3f
       1.0 1.0 1.0 1.0
000070 00 00 80 3f 00 00 80 3f 00 00 80 3f 00 00 80 3f
       1.0 1.0 1.0 1.0
000080 00 00 80 3f 00 00 80 3f 00 00 80 3f 00 00 80 3f
       1.0 1.0 1.0 1.0
000090 00 00 80 3f 00 00 80 3f 00 00 80 3f 00 00 80 3f
       1.0 1.0 1.0 1.0
0000a0 00 00 80 3f 00 00 80 3f 00 00 80 3f 00 00 80 3f
       1.0 1.0 1.0 1.0
0000b0 00 00 80 3f 00 00 80 3f 00 00 80 3f 00 00 80 3f
       1.0 1.0 1.0 1.0
0000c0 00 00 80 3f 00 00 80 3f 00 00 80 3f 00 00 80 3f
       1.0 1.0 1.0 1.0
0000d0 00 00 80 3f 00 00 80 3f 00 00 80 3f 00 00 80 3f
       1.0 1.0 1.0 1.0
0000e0 00 00 80 3f 00 00 80 3f 00 00 80 3f 00 00 80 3f
       1.0 1.0 1.0 1.0
0000f0 00 00 80 3f 00 00 80 3f 00 00 80 3f 00 00 80 3f
       1.0 1.0 1.0 1.0
