Code_binary/Search/operator_pt/wisdm2019/DilatedConv-23x64-23x64-3-1-2.pt (torch, 59954 bytes, 5 tensors)

weight f4 [64, 64, 3]
000000 1c a4 7f 3d fc 08 83 bc 00 36 b3 3b 5c 57 02 3d
       0.062412366 -0.015995495 0.005469084 0.031821594
000010 e2 ff 34 bd 44 43 65 3d b8 f1 15 3c d4 9d 90 bc
       -0.04418934 0.055972353 0.0091518685 -0.017653383
000020 37 b6 1f bd b8 39 6a 3d 08 f4 64 3d 20 12 82 bd
       -0.038992133 0.05718395 0.05589679 -0.06351113
000030 4e 7e 00 bd 94 e8 b1 3c fc 7b 7d bd ac 67 a2 3c
       -0.031370454 0.021717347 -0.06188582 0.019824825
000040 8f b1 87 bd e0 3b 42 3d 10 03 87 bd 08 a9 b1 3c
       -0.066256635 0.047420382 -0.06592381 0.021687046
000050 c6 cc 8b 3d 78 cb 80 bd 34 d9 58 3d 78 9f 1b bd
       0.06826167 -0.062888086 0.052941516 -0.037993878
000060 0a c6 0f 3d d0 2d eb 3b fe 83 92 3d 38 92 e7 bc
       0.035100974 0.007177092 0.07154082 -0.028267965
000070 98 89 93 3c 45 87 81 bd 7e 9e 83 bd b8 22 78 bd
       0.018009946 -0.06324629 -0.06426714 -0.060579985
000080 a0 51 e9 bc 60 19 a2 3c c8 68 52 3c 53 6d 6e bd
       -0.028481305 0.01978749 0.012842365 -0.05820973
000090 30 5b cb 3c 1e ef 1d bd a0 bd f5 bb de 30 52 3d
       0.024823755 -0.038558118 -0.0074994117 0.051316135
0000a0 d6 82 8d 3d 00 f7 b9 39 2e e7 28 3d 4c 3f 07 bd
       0.069097206 0.0003546998 0.041236095 -0.03301935
0000b0 b2 e3 90 3d f8 1a 3b 3d 42 6f 4f bd 86 b7 63 bd
       0.070746794 0.045680016 -0.050643213 -0.055594943
0000c0 90 98 44 bc 7e 06 47 3d 60 12 d9 3b 60 e7 87 3c
       -0.011999264 0.048590176 0.006624505 0.01658982
0000d0 60 3f 57 3b 9a 33 96 bc 16 a1 b8 bc a0 4c c5 3c
       0.003284417 -0.018335152 -0.02253775 0.02408439
0000e0 02 c2 86 3d fc 19 fe bc 40 f0 89 3b e5 44 09 bd
       0.06579973 -0.03101825 0.0042095482 -0.03351297
0000f0 20 bb f5 3c e0 d9 3f 3b e7 33 6a bd 30 82 d6 3b
       0.029996455 0.002927415 -0.057178404 0.0065462813
000100 84 ca 92 bd c4 fe 8a 3c 20 06 fa 3c 5c 9b 85 3c
       -0.07167533 0.016967185 0.030520499 0.016309433
000110 5c 00 7d bd 70 b3 be bc 16 3d 83 3d 7c e7 63 3d
       -0.06176792 -0.023278922 0.064081356 0.055640683
000120 b2 b1 92 bc 86 70 27 bd a8 21 b7 bc e4 1c 6b 3d
       -0.017906997 -0.040878795 -0.022354916 0.0574006
000130 fa 6c 85 3d ee d4 90 3d aa 1a 92 bd c6 86 1f 3d
       0.06514926 0.07071863 -0.07133992 0.03894689
000140 10 0e a7 bb f2 ef 41 bd e4 96 61 3d 18 66 69 bc
       -0.005098112 -0.04734797 0.05507554 -0.014245532
000150 24 57 c6 3c 1f 1c 8f bd 01 0a 6e bd 78 56 a5 3c
       0.024211474 -0.069877855 -0.05811501 0.020182833
000160 04 cd b8 bc 38 e8 51 3c 42 2e 29 3d a6 d6 4f 3d
       -0.022558697 0.012811713 0.04130388 0.050741814
000170 76 8d 40 3d d4 22 45 3d f0 13 a5 3b a0 8f 4a bb
       0.047009908 0.048128918 0.005037777 -0.003090836
000180 80 2e 85 3d a0 9c cf bb 78 cb c5 3c 72 af 0e bd
       0.0650301 -0.00633581 0.024144873 -0.034835286
000190 70 a1 de 3b 40 61 07 3d 02 bf 8d bd 6a f7 24 3d
       0.006794147 0.03305173 -0.069211975 0.040275015
0001a0 40 53 c3 bb 40 a9 9f 3b c2 a1 47 3d 8c db b9 bc
       -0.005960852 0.004872471 0.04873825 -0.022687696
0001b0 96 06 54 3d 00 0b c9 3b 74 01 32 bd 84 04 69 3d
       0.051764093 0.0061353445 -0.043458417 0.056889072
0001c0 9c 03 d2 3c 46 ad 45 bd f0 b8 a0 3c f0 a3 76 3c
       0.025636487 -0.04826095 0.019619435 0.015053734
0001d0 6f f4 89 bd 20 f6 5f 3d 9e e7 90 bd b4 c9 25 bd
       -0.06736075 0.054678082 -0.070754275 -0.040475562
0001e0 44 53 e1 bc fc 98 e8 bc f8 ce 32 bc 18 71 6d 3c
       -0.027505524 -0.028393261 -0.010913603 0.014492296
0001f0 50 b6 80 3d 14 e4 0d 3d 5c ad 45 bc f8 45 9a bc
       0.06284773 0.03464134 -0.012065258 -0.018832192
000200 2d 23 27 bd a0 c0 69 3d 7e ae 8f 3d d0 46 e5 3b
       -0.04080503 0.057068467 0.070157036 0.006996967
000210 1e 08 0c 3d ce 8d 10 bd 32 d8 fc bc 02 2a 57 3d
       0.03418743 -0.035291485 -0.030864809 0.052530296
000220 b4 38 1f 3d 42 84 79 bd 3e f8 09 3d f8 f3 7c 3d
       0.038872436 -0.060917147 0.033684008 0.061756104
000230 1c 67 45 3d 7e a7 33 3d 60 d3 8f bb 54 50 74 3d
       0.048194036 0.043860905 -0.0043892115 0.05964692
000240 82 02 3a bd 18 2e 7a bd d4 d0 f6 3c ea c8 61 bd
       -0.045412548 -0.061079115 0.030128874 -0.055123247
000250 d2 8e 2f 3d 60 1c ad 3b 47 ae 62 bd cc 9b 99 3c
       0.042860813 0.0052829236 -0.055341985 0.018751048
000260 80 b0 5f 3a 10 32 d3 bb 62 07 86 3d 61 f4 16 bd
       0.00085330755 -0.006445177 0.06544377 -0.03685415
000270 12 36 8c 3d f8 b3 0b bc 20 e9 75 3b 9c 77 0d 3d
       0.068462506 -0.008526795 0.0037522987 0.034537897
000280 1c bb af 3c 00 44 40 3c 18 f9 97 3c 62 4a 8e bd
       0.021451525 0.011734962 0.018551394 -0.06947781
000290 c0 ae 46 3c 30 26 91 3d 9e 0e 00 3d 1e c7 d3 bc
       0.012126625 0.07087362 0.03126394 -0.025851782
0002a0 c6 50 3d 3d 3e 12 58 bd e2 d5 18 bd 18 ee 41 3d
       0.04621961 -0.052751772 -0.03731335 0.047346205
0002b0 7f f0 4f bd 78 0a 25 3d 8c 0b f7 3c 9c 6c a8 bc
       -0.050766464 0.040293187 0.030156873 -0.020559601
0002c0 c4 20 43 bd 00 58 b2 ba d4 4c 9b bc 30 44 ab 3c
       -0.04763867 -0.0013606548 -0.018957533 0.020906538
0002d0 3a b5 44 3d ae dc 0f 3d 5a e8 44 bd 70 c7 91 3d
       0.048024394 0.035122566 -0.04807315 0.07118118
0002e0 5c 90 32 bc 0a 57 ce bc 70 14 06 bd 77 f6 8c bd
       -0.010898676 -0.025187988 -0.032734334 -0.06882947
0002f0 00 24 dd 38 3f 43 74 bd 40 3a 49 3d 54 ba 39 3d
       0.00010544807 -0.059634443 0.049127817 0.045343712
000300 84 21 69 bd a4 29 3e 3d 5c 0a 34 bd d2 d9 89 3d
       -0.05691673 0.04642643 -0.043955192 0.06730999
000310 48 06 a3 3c 74 50 84 bc aa 10 ab bc 30 31 b0 3b
       0.019900456 -0.016151644 -0.02088197 0.0053769574
000320 a8 f6 3e bd 94 36 76 3d cd 94 61 bd af 0c 84 bd
       -0.04662195 0.060110644 -0.055073548 -0.06447732
000330 28 1c 65 bd 6a 4c 0a 3d 36 49 f4 bc 6c b4 b3 bc
       -0.055935055 0.03376428 -0.029820066 -0.021936618
000340 8f c0 42 bd 76 5a 8b bd 04 15 df 3c ef f9 83 bd
       -0.04754692 -0.068043634 0.0272317 -0.064441554
000350 a7 4a 1e bd ee 11 1f bd 24 1a 9c 3c de fa 33 3d
       -0.038645413 -0.03883546 0.019055434 0.043940417
000360 48 b4 e8 bc d0 69 ee 3b 8e 9e fe bc ff a6 93 bd
       -0.028406277 0.0072757974 -0.031081464 -0.07209586
000370 c0 4e 3f 3b 30 75 8e bb 70 2a 50 3c 5e 21 30 bd
       0.0029191226 -0.004347466 0.01270543 -0.04300057
000380 54 87 45 bc f0 6e da 3c 9e 3d 07 3d a0 86 61 bc
       -0.0120561905 0.026664227 0.033017747 -0.013765007
000390 00 e7 c6 3a f2 60 47 3d e8 ec 5a 3d 8a 5e 80 bc
       0.0015175045 0.04867644 0.053448588 -0.01567008
0003a0 94 de 54 bd 54 d7 45 3d e0 27 e2 bb c8 ff 8b 3d
       -0.05197008 0.048301056 -0.006901726 0.06835896
0003b0 60 31 52 bd bc 06 7b 3d 11 b7 0f bd f8 7a 37 3c
       -0.05131662 0.06128572 -0.035086695 0.011198752
0003c0 7c 5e 70 3d 4a 49 49 3d f0 6f 73 bc 00 30 ff ba
       0.058683857 0.04914216 -0.014858231 -0.0019469261
0003d0 82 51 89 bd 60 d7 6a bc f0 e3 38 bc 9e 7b 24 3d
       -0.067049995 -0.014333576 -0.011284813 0.040156953
0003e0 10 2b 83 3c 36 ed 71 bd 44 20 79 3d 26 0e 32 3d
       0.016011745 -0.059064113 0.060821787 0.043470524
0003f0 58 5e 82 3d 74 2f 0f 3d f4 10 61 3d 84 1c d4 bc
       0.06365651 0.034957364 0.05494781 -0.025892504

weight f4 [64]
000000 00 00 80 3f 00 00 80 3f 00 00 80 3f 00 00 80 3f
       1.0 1.0 1.0 1.0
000010 00 00 80 3f 00 00 80 3f 00 00 80 3f 00 00 80 3f
       1.0 1.0 1.0 1.0
000020 00 00 80 3f 00 00 80 3f 00 00 80 3f 00 00 80 3f
       1.0 1.0 1.0 1.0
000030 00 00 80 3f 00 00 80 3f 00 00 80 3f 00 00 80 3f
       1.0 1.0 1.0 1.0
000040 00 00 80 3f 00 00 80 3f 00 00 80 3f 00 00 80 3f
       1.0 1.0 1.0 1.0
000050 00 00 80 3f 00 00 80 3f 00 00 80 3f 00 00 80 3f
       1.0 1.0 1.0 1.0
000060 00 00 80 3f 00 00 80 3f 00 00 80 3f 00 00 80 3f
       1.0 1.0 1.0 1.0
000070 00 00 80 3f 00 00 80 3f 00 00 80 3f 00 00 80 3f
       1.0 1.0 1.0 1.0
000080 00 00 80 3f 00 00 80 3f 00 00 80 3f 00 00 80 3f
       1.0 1.0 1.0 1.0
000090 00 00 80 3f 00 00 80 3f 00 00 80 3f 00 00 80 3f
       1.0 1.0 1.0 1.0
0000a0 00 00 80 3f 00 00 80 3f 00 00 80 3f 00 00 80 3f
       1.0 1.0 1.0 1.0
0000b0 00 00 80 3f 00 00 80 3f 00 00 80 3f 00 00 80 3f
       1.0 1.0 1.0 1.0
0000c0 00 00 80 3f 00 00 80 3f 00 00 80 3f 00 00 80 3f
       1.0 1.0 1.0 1.0
0000d0 00 00 80 3f 00 00 80 3f 00 00 80 3f 00 00 80 3f
       1.0 1.0 1.0 1.0
0000e0 00 00 80 3f 00 00 80 3f 00 00 80 3f 00 00 80 3f
       1.0 1.0 1.0 1.0
0000f0 00 00 80 3f 00 00 80 3f 00 00 80 3f 00 00 80 3f
       1.0 1.0 1.0 1.0

bias f4 [64]
000000 00 00 00 00 00 00 00 00 00 00 00 00 00 00 00 00
       0.0 0.0 0.0 0.0
000010 00 00 00 00 00 00 00 00 00 00 00 00 00 00 00 00
       0.0 0.0 0.0 0.0
000020 00 00 00 00 00 00 00 00 00 00 00 00 00 00 00 00
       0.0 0.0 0.0 0.0
000030 00 00 00 00 00 00 00 00 00 00 00 00 00 00 00 00
       0.0 0.0 0.0 0.0
000040 00 00 00 00 00 00 00 00 00 00 00 00 00 00 00 00
       0.0 0.0 0.0 0.0
000050 00 00 00 00 00 00 00 00 00 00 00 00 00 00 00 00
       0.0 0.0 0.0 0.0
000060 00 00 00 00 00 00 00 00 00 00 00 00 00 00 00 00
       0.0 0.0 0.0 0.0
000070 00 00 00 00 00 00 00 00 00 00 00 00 00 00 00 00
       0.0 0.0 0.0 0.0
000080 00 00 00 00 00 00 00 00 00 00 00 00 00 00 00 00
       0.0 0.0 0.0 0.0
000090 00 00 00 00 00 00 00 00 00 00 00 00 00 00 00 00
       0.0 0.0 0.0 0.0
0000a0 00 00 00 00 00 00 00 00 00 00 00 00 00 00 00 00
       0.0 0.0 0.0 0.0
0000b0 00 00 00 00 00 00 00 00 00 00 00 00 00 00 00 00
       0.0 0.0 0.0 0.0
0000c0 00 00 00 00 00 00 00 00 00 00 00 00 00 00 00 00
       0.0 0.0 0.0 0.0
0000d0 00 00 00 00 00 00 00 00 00 00 00 00 00 00 00 00
       0.0 0.0 0.0 0.0
0000e0 00 00 00 00 00 00 00 00 00 00 00 00 00 00 00 00
       0.0 0.0 0.0 0.0
0000f0 00 00 00 00 00 00 00 00 00 00 00 00 00 00 00 00
       0.0 0.0 0.0 0.0

running_mean f4 [64]
000000 00 00 00 00 00 00 00 00 00 00 00 00 00 00 00 00
       0.0 0.0 0.0 0.0
000010 00 00 00 00 00 00 00 00 00 00 00 00 00 00 00 00
       0.0 0.0 0.0 0.0
000020 00 00 00 00 00 00 00 00 00 00 00 00 00 00 00 00
       0.0 0.0 0.0 0.0
000030 00 00 00 00 00 00 00 00 00 00 00 00 00 00 00 00
       0.0 0.0 0.0 0.0
000040 00 00 00 00 00 00 00 00 00 00 00 00 00 00 00 00
       0.0 0.0 0.0 0.0
000050 00 00 00 00 00 00 00 00 00 00 00 00 00 00 00 00
       0.0 0.0 0.0 0.0
000060 00 00 00 00 00 00 00 00 00 00 00 00 00 00 00 00
       0.0 0.0 0.0 0.0
000070 00 00 00 00 00 00 00 00 00 00 00 00 00 00 00 00
       0.0 0.0 0.0 0.0
000080 00 00 00 00 00 00 00 00 00 00 00 00 00 00 00 00
       0.0 0.0 0.0 0.0
000090 00 00 00 00 00 00 00 00 00 00 00 00 00 00 00 00
       0.0 0.0 0.0 0.0
0000a0 00 00 00 00 00 00 00 00 00 00 00 00 00 00 00 00
       0.0 0.0 0.0 0.0
0000b0 00 00 00 00 00 00 00 00 00 00 00 00 00 00 00 00
       0.0 0.0 0.0 0.0
0000c0 00 00 00 00 00 00 00 00 00 00 00 00 00 00 00 00
       0.0 0.0 0.0 0.0
0000d0 00 00 00 00 00 00 00 00 00 00 00 00 00 00 00 00
       0.0 0.0 0.0 0.0
0000e0 00 00 00 00 00 00 00 00 00 00 00 00 00 00 00 00
       0.0 0.0 0.0 0.0
0000f0 00 00 00 00 00 00 00 00 00 00 00 00 00 00 00 00
       0.0 0.0 0.0 0.0

running_var f4 [64]
000000 00 00 80 3f 00 00 80 3f 00 00 80 3f 00 00 80 3f
       1.0 1.0 1.0 1.0
000010 00 00 80 3f 00 00 80 3f 00 00 80 3f 00 00 80 3f
       1.0 1.0 1.0 1.0
000020 00 00 80 3f 00 00 80 3f 00 00 80 3f 00 00 80 3f
       1.0 1.0 1.0 1.0
000030 00 00 80 3f 00 00 80 3f 00 00 80 3f 00 00 80 3f
       1.0 1.0 1.0 1.0
000040 00 00 80 3f 00 00 80 3f 00 00 80 3f 00 00 80 3f
       1.0 1.0 1.0 1.0
000050 00 00 80 3f 00 00 80 3f 00 00 80 3f 00 00 80 3f
       1.0 1.0 1.0 1.0
000060 00 00 80 3f 00 00 80 3f 00 00 80 3f 00 00 80 3f
       1.0 1.0 1.0 1.0
000070 00 00 80 3f 00 00 80 3f 00 00 80 3f 00 00 80 3f
       1.0 1.0 1.0 1.0
000080 00 00 80 3f 00 00 80 3f 00 00 80 3f 00 00 80 3f
       1.0 1.0 1.0 1.0
000090 00 00 80 3f 00 00 80 3f 00 00 80 3f 00 00 80 3f
       1.0 1.0 1.0 1.0
0000a0 00 00 80 3f 00 00 80 3f 00 00 80 3f 00 00 80 3f
       1.0 1.0 1.0 1.0
0000b0 00 00 80 3f 00 00 80 3f 00 00 80 3f 00 00 80 3f
       1.0 1.0 1.0 1.0
0000c0 00 00 80 3f 00 00 80 3f 00 00 80 3f 00 00 80 3f
       1.0 1.0 1.0 1.0
0000d0 00 00 80 3f 00 00 80 3f 00 00 80 3f 00 00 80 3f
       1.0 1.0 1.0 1.0
0000e0 00 00 80 3f 00 00 80 3f 00 00 80 3f 00 00 80 3f
       1.0 1.0 1.0 1.0
0000f0 00 00 80 3f 00 00 80 3f 00 00 80 3f 00 00 80 3f
       1.0 1.0 1.0 1.0
