Code_binary/Search/operator_pt/wisdm2019/DilatedDepthConv-23x64-23x64-9-1-2.pt (torch, 158343 bytes, 5 tensors)

weight f4 [64, 64, 9]
00000000: 2096 e2bc 4ab9 f33c 6f84 283d 8846 84bb
00000010: a0cc 72bc 1e96 da3c d8a3 8c3b 165e 40bc
00000020: c9a3 113d fe6e a5bc 83e2 85bc 80f4 fd3b
00000030: 7e88 d8bc e854 f33b f43b 003c 1ed7 02bd
00000040: 9844 07bd 3cec 0dbc c205 eb3c 50ac 983c
00000050: 1890 e0bb 7ce6 6b3c 10a8 15bb 64c4 473c
00000060: 7e81 f3bc ce0f 8a3c 4e52 93bc f227 0abd
00000070: accb 063c ce0d aa3c 9f7f 243d ebf4 99bc
00000080: d4f5 623c 7066 4b3b f8ba b7bc 4035 0dbd
00000090: e06e b03a 1423 233c 0a67 8f3c 5c88 0fbc
000000a0: 9c9f 2cbc a63c efbc 541e 023c 65ee 023d
000000b0: f1c6 133d 8401 033c 881b ba3b a030 20bc
000000c0: eb56 093d 4238 a03c fa67 bf3c 2423 0c3c
000000d0: 7828 d93b 441a 0fbc 00a8 7c3c a6ac f53c
000000e0: ca15 ba3c 8050 15bc 136c a5bc bbc2 c2bc
000000f0: da6f ed3c b067 0b3c 604d 22bd c0f1 82bb
00000100: 6e29 97bc 8037 21bb f005 18bb b197 0c3d
00000110: 2042 14bc a27b b63c e09f 9cbb 0bc5 ebbc
00000120: 6a5c dd3c f335 183d c8cd d73b baf9 f13c
00000130: e617 e93c a6b9 f33c 747a 03bc 000f f23b
00000140: c4ad 4c3c e797 053d 4063 1a3a a0d6 51bc
00000150: e70f 03bd bd21 033d f069 65bc e0a1 363c
00000160: ec79 7b3c 8047 6dbb 98b9 ac3b 2beb b7bc
00000170: e045 e53a 9110 023d d34e c5bc 20bb 103c
00000180: 24be 323c a6e7 ad3c 68fb 8bbb 2ed5 e33c
00000190: 4020 203c cfc3 143d d89d a0bb 0038 5db9
000001a0: 9c18 07bd e046 97ba 007d b9ba 889b c33b
000001b0: 9ca0 30bc 0c1d 49bc a0cf baba d082 24bb
000001c0: 7c9a 103c a090 d0ba 3d78 033d 0354 1fbd
000001d0: 66ba 48bc 3429 24bc 80a9 fd39 9b47 adbc
000001e0: c052 28bc 7043 d7bc 6c44 1cbc 28fb a93c
000001f0: 600b ed3a 6ce2 1dbd 66a4 1dbd a03c 8b3b
00000200: 0c91 4a3c 476a 113d 501e 553c 84dc 5f3c
00000210: d2c9 bc3c 8037 c4bc e28f e13c 3793 143d
00000220: 8239 f53c e5eb 123d 0090 7d37 5e69 cd3c
00000230: 740d 593c 101e c6bc b8e2 abbc 8adb aa3c
00000240: ec97 2bbc f62a b53c f24d e83c a025 a33c
00000250: d8bd b13b 00c0 eb39 1488 563c bf91 0e3d
00000260: 5a41 0bbd 4604 0cbd 08db dabc 866a 933c
00000270: 4e11 0dbd ab7e d7bc 0031 6db9 1c32 2ebc
00000280: a2b1 ad3c a066 f53b aab7 c93c 9830 92bc
00000290: 0aa4 20bd 7670 4cbc 3298 963c 1747 1b3d
000002a0: bd65 073d 42fd d53c 3283 e13c ee34 c83c
000002b0: a635 c83c 6045 443c e87d bc3b 8eda a93c
000002c0: 26f0 c3bc 481e a73b ca70 b33c 2b13 a6bc
000002d0: 80ad b1b9 0a08 be3c 673d 0ebd 303a 233c
000002e0: 9e13 cc3c de87 ad3c a856 a63b 7671 b0bc
000002f0: 9de7 1e3d 706d 46bb c9fb 0a3d 206d 96ba
00000300: f6f4 0fbd 78ce d3bc 86fd f73c b3b8 283d
00000310: 94a0 7c3c 00ad 693c c6e3 dabc 8069 323c
00000320: 4c71 383c c035 05bb 5272 a63c ce11 fd3c
00000330: 1057 07bc 740e 283c 5aa9 e83c e262 11bd
00000340: 1edb e03c 3a4e b83c 6ec2 08bd aa3f 803c
00000350: 38b4 dc3b 80bd cb3b 5a69 a23c 9a4e f23c
00000360: 80e6 eebc 8ca3 203c 6e80 943c 70f6 dbbc
00000370: ec31 2f3c a0d5 a73a 8d87 173d e323 18bd
00000380: 6083 d83b f806 aabc d8d5 a73b 916c 023d
00000390: 1e0e 0cbd 0310 c8bc 97d5 29bd bb43 26bd
000003a0: d53e 293d 15ae 023d dabc db3c 805c 383b
000003b0: 200e 6abc eb11 123d 006b 39ba be2d a6bc
000003c0: 2057 ea3a e688 d53c a810 fcbb eb1b a3bc
000003d0: cc29 21bc d71c 18bd 9c09 693c a01d 743c
000003e0: 7294 a53c 0080 dcb5 b8ca f73b b296 b43c
000003f0: 4e59 a83c 4d8e 183d e0f7 c9ba 0609 55bc
-0.027659476 0.029751439 0.041141924 -0.0040367283 -0.014819294 0.02668291 0.0042919926 -0.011741182
0.03555659 -0.020194527 -0.01634336 0.007750094 -0.026432272 0.007425893 0.007826794 -0.031943433
-0.0330244 -0.00866228 0.028689269 0.018636853 -0.006853115 0.0143982135 -0.0022835769 0.012192819
-0.029724833 0.01685324 -0.017983582 -0.0337295 0.00822727 0.020758536 0.04016077 -0.018793544
0.013852555 0.00310364 -0.02242802 -0.03447461 0.0013460778 0.009957094 0.017505188 -0.008760538
-0.010536101 -0.029203724 0.007941801 0.031965632 0.036078397 0.007995967 0.0056795515 -0.009777218
0.033530157 0.019558076 0.02336501 0.0085533 0.0066271387 -0.00873429 0.015420914 0.029989552
0.022715468 -0.009113431 -0.020193135 -0.023774495 0.028983999 0.008508608 -0.03962457 -0.003996104
-0.018452372 -0.002459973 -0.0023196898 0.03432435 -0.009048969 0.02227575 -0.004779801 -0.02878048
0.027021606 0.037160825 0.0065858103 0.029538024 0.028453778 0.02975161 -0.008024801 0.007387042
0.012492601 0.03261557 0.0005889423 -0.012807518 -0.031997588 0.032014597 -0.014002308 0.011146992
0.015348893 -0.0036205947 0.005271148 -0.022451004 0.0017492138 0.03175408 -0.024085438 0.008833677
0.010909591 0.021228623 -0.0042719133 0.027811613 0.009773314 0.03631955 -0.004901629 -0.00021097064
-0.032982454 -0.0011541508 -0.0014151633 0.0059694685 -0.01078048 -0.012274992 -0.0014252551 -0.0025102384
0.008825894 -0.0015912242 0.03209709 -0.03889848 -0.012251472 -0.010019589 0.00048382208 -0.021152308
-0.010273635 -0.026277274 -0.009537797 0.020749643 0.0018085055 -0.03854601 -0.03848686 0.0042491704
0.012363683 0.035501745 0.013007715 0.013663415 0.023045454 -0.023952246 0.027534429 0.036273208
0.029934648 0.035869498 1.5113503e-05 0.025074657 0.013247836 -0.024184257 -0.020982131 0.020856638
-0.010473233 0.022115212 0.02835748 0.019915402 0.0054242425 0.00044965744 0.013093967 0.034806963
-0.03399787 -0.034183763 -0.02671577 0.01799513 -0.03444033 -0.026305517 -0.00022620335 -0.010632064
0.021202866 0.0074890405 0.02462371 -0.017845437 -0.03921894 -0.012477985 0.01838312 0.037909593
0.03305601 0.02612174 0.02752838 0.024439301 0.024439644 0.011979431 0.005752314 0.020734098
-0.023918223 0.0051000454 0.021904368 -0.020272812 -0.00033889338 0.023197193 -0.034726527 0.009962603
0.024911698 0.02118295 0.005076248 -0.021538477 0.038795102 -0.0030277632 0.033931527 -0.0011476614
-0.035145722 -0.025855288 0.030272257 0.041191768 0.015419144 0.014262438 -0.026719939 0.010889411
0.011257481 -0.0020326227 0.020318184 0.030892279 -0.008260503 0.010257352 0.028401066 -0.035494693
0.027448233 0.022498239 -0.033388548 0.015655357 0.006735351 0.0062176585 0.019825626 0.029578496
-0.029162645 0.009804618 0.018127646 -0.026850909 0.010693055 0.0012804754 0.036994506 -0.0371436
0.006607458 -0.020755276 0.0051219277 0.03184182 -0.03419315 -0.024421697 -0.04146346 -0.040591937
0.041319687 0.0319043 0.02682345 0.0028131306 -0.014285594 0.03566162 -0.0007073134 -0.020285483
0.0017878748 0.026066255 -0.0076924153 -0.019910773 -0.009836625 -0.03713688 0.014223482 0.014899641
0.020212386 -1.642853e-06 0.0075620078 0.022044513 0.020550396 0.037245084 -0.0015408956 -0.01300264

weight f4 [64]
00000000: 0000 803f 0000 803f 0000 803f 0000 803f
00000010: 0000 803f 0000 803f 0000 803f 0000 803f
00000020: 0000 803f 0000 803f 0000 803f 0000 803f
00000030: 0000 803f 0000 803f 0000 803f 0000 803f
00000040: 0000 803f 0000 803f 0000 803f 0000 803f
00000050: 0000 803f 0000 803f 0000 803f 0000 803f
00000060: 0000 803f 0000 803f 0000 803f 0000 803f
00000070: 0000 803f 0000 803f 0000 803f 0000 803f
00000080: 0000 803f 0000 803f 0000 803f 0000 803f
00000090: 0000 803f 0000 803f 0000 803f 0000 803f
000000a0: 0000 803f 0000 803f 0000 803f 0000 803f
000000b0: 0000 803f 0000 803f 0000 803f 0000 803f
000000c0: 0000 803f 0000 803f 0000 803f 0000 803f
000000d0: 0000 803f 0000 803f 0000 803f 0000 803f
000000e0: 0000 803f 0000 803f 0000 803f 0000 803f
000000f0: 0000 803f 0000 803f 0000 803f 0000 803f
1.0 1.0 1.0 1.0 1.0 1.0 1.0 1.0
1.0 1.0 1.0 1.0 1.0 1.0 1.0 1.0
1.0 1.0 1.0 1.0 1.0 1.0 1.0 1.0
1.0 1.0 1.0 1.0 1.0 1.0 1.0 1.0
1.0 1.0 1.0 1.0 1.0 1.0 1.0 1.0
1.0 1.0 1.0 1.0 1.0 1.0 1.0 1.0
1.0 1.0 1.0 1.0 1.0 1.0 1.0 1.0
1.0 1.0 1.0 1.0 1.0 1.0 1.0 1.0

bias f4 [64]
00000000: 0000 0000 0000 0000 0000 0000 0000 0000
00000010: 0000 0000 0000 0000 0000 0000 0000 0000
00000020: 0000 0000 0000 0000 0000 0000 0000 0000
00000030: 0000 0000 0000 0000 0000 0000 0000 0000
00000040: 0000 0000 0000 0000 0000 0000 0000 0000
00000050: 0000 0000 0000 0000 0000 0000 0000 0000
00000060: 0000 0000 0000 0000 0000 0000 0000 0000
00000070: 0000 0000 0000 0000 0000 0000 0000 0000
00000080: 0000 0000 0000 0000 0000 0000 0000 0000
00000090: 0000 0000 0000 0000 0000 0000 0000 0000
000000a0: 0000 0000 0000 0000 0000 0000 0000 0000
000000b0: 0000 0000 0000 0000 0000 0000 0000 0000
000000c0: 0000 0000 0000 0000 0000 0000 0000 0000
000000d0: 0000 0000 0000 0000 0000 0000 0000 0000
000000e0: 0000 0000 0000 0000 0000 0000 0000 0000
000000f0: 0000 0000 0000 0000 0000 0000 0000 0000
0.0 0.0 0.0 0.0 0.0 0.0 0.0 0.0
0.0 0.0 0.0 0.0 0.0 0.0 0.0 0.0
0.0 0.0 0.0 0.0 0.0 0.0 0.0 0.0
0.0 0.0 0.0 0.0 0.0 0.0 0.0 0.0
0.0 0.0 0.0 0.0 0.0 0.0 0.0 0.0
0.0 0.0 0.0 0.0 0.0 0.0 0.0 0.0
0.0 0.0 0.0 0.0 0.0 0.0 0.0 0.0
0.0 0.0 0.0 0.0 0.0 0.0 0.0 0.0

running_mean f4 [64]
00000000: 0000 0000 0000 0000 0000 0000 0000 0000
00000010: 0000 0000 0000 0000 0000 0000 0000 0000
00000020: 0000 0000 0000 0000 0000 0000 0000 0000
00000030: 0000 0000 0000 0000 0000 0000 0000 0000
00000040: 0000 0000 0000 0000 0000 0000 0000 0000
00000050: 0000 0000 0000 0000 0000 0000 0000 0000
00000060: 0000 0000 0000 0000 0000 0000 0000 0000
00000070: 0000 0000 0000 0000 0000 0000 0000 0000
00000080: 0000 0000 0000 0000 0000 0000 0000 0000
00000090: 0000 0000 0000 0000 0000 0000 0000 0000
000000a0: 0000 0000 0000 0000 0000 0000 0000 0000
000000b0: 0000 0000 0000 0000 0000 0000 0000 0000
000000c0: 0000 0000 0000 0000 0000 0000 0000 0000
000000d0: 0000 0000 0000 0000 0000 0000 0000 0000
000000e0: 0000 0000 0000 0000 0000 0000 0000 0000
000000f0: 0000 0000 0000 0000 0000 0000 0000 0000
0.0 0.0 0.0 0.0 0.0 0.0 0.0 0.0
0.0 0.0 0.0 0.0 0.0 0.0 0.0 0.0
0.0 0.0 0.0 0.0 0.0 0.0 0.0 0.0
0.0 0.0 0.0 0.0 0.0 0.0 0.0 0.0
0.0 0.0 0.0 0.0 0.0 0.0 0.0 0.0
0.0 0.0 0.0 0.0 0.0 0.0 0.0 0.0
0.0 0.0 0.0 0.0 0.0 0.0 0.0 0.0
0.0 0.0 0.0 0.0 0.0 0.0 0.0 0.0

running_var f4 [64]
00000000: 0000 803f 0000 803f 0000 803f 0000 803f
00000010: 0000 803f 0000 803f 0000 803f 0000 803f
00000020: 0000 803f 0000 803f 0000 803f 0000 803f
00000030: 0000 803f 0000 803f 0000 803f 0000 803f
00000040: 0000 803f 0000 803f 0000 803f 0000 803f
00000050: 0000 803f 0000 803f 0000 803f 0000 803f
00000060: 0000 803f 0000 803f 0000 803f 0000 803f
00000070: 0000 803f 0000 803f 0000 803f 0000 803f
00000080: 0000 803f 0000 803f 0000 803f 0000 803f
00000090: 0000 803f 0000 803f 0000 803f 0000 803f
000000a0: 0000 803f 0000 803f 0000 803f 0000 803f
000000b0: 0000 803f 0000 803f 0000 803f 0000 803f
000000c0: 0000 803f 0000 803f 0000 803f 0000 803f
000000d0: 0000 803f 0000 803f 0000 803f 0000 803f
000000e0: 0000 803f 0000 803f 0000 803f 0000 803f
000000f0: 0000 803f 0000 803f 0000 803f 0000 803f
1.0 1.0 1.0 1.0 1.0 1.0 1.0 1.0
1.0 1.0 1.0 1.0 1.0 1.0 1.0 1.0
1.0 1.0 1.0 1.0 1.0 1.0 1.0 1.0
1.0 1.0 1.0 1.0 1.0 1.0 1.0 1.0
1.0 1.0 1.0 1.0 1.0 1.0 1.0 1.0
1.0 1.0 1.0 1.0 1.0 1.0 1.0 1.0
1.0 1.0 1.0 1.0 1.0 1.0 1.0 1.0
1.0 1.0 1.0 1.0 1.0 1.0 1.0 1.0
